Model/checkpoint/Graph_Conv_AE_har_clean/31641-G.ckpt (torch, 711375 bytes, 58 tensors)

projection f4 [1, 18, 79, 79]
000000 89 3f 8b 3d 98 fc 10 3c ce 4c 90 bc 89 60 07 3d
       0.06799228 0.008849286 -0.017614748 0.033051047
000010 38 bb 54 3d 8d f7 39 3d 79 70 a5 3c 12 3f ac bd
       0.05193636 0.0454021 0.020195233 -0.08410467
000020 5e 5e cb 3a 96 7d ff 3c 59 12 d0 bd 4f 33 0d 3e
       0.0015515795 0.031187814 -0.101597495 0.13789104
000030 99 dd db bc 5a 7f 77 3d 85 32 b0 bd 4a 6f 1c bd
       -0.026839064 0.060424186 -0.08603386 -0.03819207
000040 de 34 8d bc d1 53 10 bc 99 c9 02 be 13 b8 c9 bd
       -0.017237123 -0.008809046 -0.12772216 -0.098495625
000050 b2 ce 38 3e 74 04 a0 bc 28 b0 95 bd 03 e8 95 3d
       0.18047598 -0.019533373 -0.0730899 0.07319643
000060 95 25 1d be cc 77 6e 3e 4d 24 90 bd ca 01 69 3d
       -0.15346368 0.23287886 -0.07038174 0.05688647
000070 21 60 48 bc 5c f9 66 3d d5 bf b6 bc 18 78 b5 bd
       -0.01222995 0.05639015 -0.02230827 -0.08860797
000080 4f 54 df bc 00 54 45 bc 12 00 6b bb 30 d0 53 3d
       -0.027261881 -0.012043953 -0.0035858196 0.051712215
000090 b1 8e 8c bc e7 4f 3b be 3a ca e2 bc c0 c3 85 3d
       -0.017157884 -0.18292199 -0.02768432 0.06531477
0000a0 e3 b1 ac 3d 2c 0d 13 bc dd 45 01 3d 39 2c 54 bd
       0.08432367 -0.008975308 0.031560767 -0.051799987
0000b0 ab c6 01 bd fd 49 35 3e fe 6c 94 bd 17 82 89 3d
       -0.031683605 0.17704006 -0.07247351 0.06714266
0000c0 e4 5f 64 bd e3 c2 5b bc b4 e9 04 bd 6c 98 ee bd
       -0.05575551 -0.013413164 -0.03244944 -0.11650166
0000d0 f2 7d 06 bd 91 a5 43 3e 06 fc 28 bd 74 26 f0 bd
       -0.032834955 0.19106127 -0.041255973 -0.11726084
0000e0 96 90 e4 bd af 2b de 3c 5e cd 4c 3d aa cc 50 ba
       -0.1116039 0.02712044 0.05000054 -0.00079650676
0000f0 8b c7 7b bd 6b 28 67 bc 51 75 6d 3c 73 3f 3d bd
       -0.061469596 -0.0141087575 0.014493302 -0.046203088
000100 0e e3 55 3d 03 cc be 3a c6 fd 9a bc 80 2e c6 3d
       0.05221849 0.001455665 -0.018919837 0.09676838
000110 a9 9a 27 bd 60 52 ea bd c0 54 e3 3d 7e e7 92 bd
       -0.04091898 -0.11441493 0.11100149 -0.0717306
000120 c6 b4 4c bd 87 97 13 bd f4 83 2b bd d7 a5 8a be
       -0.049977086 -0.03603318 -0.041873887 -0.2707965
000130 70 71 8c be 96 d4 eb 3d cb 5f 2f bc dd 67 da 3c
       -0.27430296 0.11515157 -0.010703991 0.026660854
000140 34 5d 12 be 6e 41 91 bd fc 5e b5 3d e0 09 92 bd
       -0.14293367 -0.07092558 0.088560075 -0.0713079
000150 ab 67 a3 3e eb f5 ee bc 8a 21 c2 3e b5 dc 38 3e
       0.3191503 -0.029169997 0.37916213 0.18052943
000160 90 6e d5 be 70 0f 94 be 54 a7 d2 be 9b 00 c5 3e
       -0.41685915 -0.28918028 -0.41143286 0.38477024
000170 74 f6 c4 be d1 49 eb 3d c5 4a bc bd 3d 09 aa 3e
       -0.3846928 0.11488689 -0.09193949 0.33210173
000180 3d e3 59 3d 30 36 38 3d 0b b2 6f 3e db 2f b4 be
       0.053195227 0.044973552 0.23407762 -0.3519276
000190 51 f9 52 bc 3a 60 09 be dc c4 e7 bd 2c 9d f4 3d
       -0.0128768245 -0.13415614 -0.11316845 0.11944041
0001a0 6e a3 34 be 9f 59 11 bf 87 f4 95 3d 7a d6 a1 3e
       -0.17640468 -0.56777376 0.073220305 0.31608945
0001b0 2e b9 6f be 86 0b 44 be 93 1a e9 bd 39 43 89 be
       -0.23410484 -0.19145021 -0.11382022 -0.268091
0001c0 09 c7 d9 3c aa 04 cc 3d 1d cd a7 be 5e 5e cb be
       0.026584165 0.09961827 -0.32773677 -0.39720434
0001d0 d8 61 73 3e 8b 27 6c 3d 45 dd 80 3d c5 dc ac bd
       0.23767793 0.0576549 0.06292204 -0.08440546
0001e0 d7 75 0c bd 17 47 0e be a9 61 97 3e ee 04 82 3e
       -0.03429207 -0.13894306 0.29566696 0.25394386
0001f0 72 c5 98 be 93 eb ba 3d 70 2f 30 3e 28 26 67 bb
       -0.2983814 0.091269635 0.17205596 -0.0035270546
000200 5c d5 19 3e d2 b9 67 be 4e 23 13 3d c8 4c 94 be
       0.15022796 -0.22629479 0.03592234 -0.2896483
000210 69 47 1f be e5 90 c9 3e f7 8a d8 3d b9 be 96 3e
       -0.15554585 0.39368358 0.105733804 0.29442385
000220 29 3b 98 be e6 fa d1 bd 2f fb 0a 3e bc d4 fa 3e
       -0.29732636 -0.10252933 0.13572381 0.48990428
000230 4b 68 25 be 92 b3 3c 3e 96 ac 83 bd 01 1d 27 be
       -0.16153066 0.18427876 -0.064294025 -0.16319658
000240 55 e8 94 be 12 9a bb 3e 5a 5c f4 bd 38 39 cb bd
       -0.29083505 0.36640984 -0.11931677 -0.09923023
000250 c9 01 fa 3e 1c 26 c8 bc 7c 3b 46 bd e0 a0 db bd
       0.48829487 -0.024432234 -0.048396572 -0.10724044
000260 59 42 54 be 4e 07 15 3d e6 76 25 3d 34 86 ae 3e
       -0.20728435 0.03638392 0.040396594 0.34086764
000270 9e 0b 96 be 67 65 0d 3e 70 16 a7 bd d5 c3 6f 3d
       -0.29305738 0.13808213 -0.081585765 0.05853637
000280 4e 47 30 bd ee e0 1e 3d 11 54 82 bd 89 51 89 3e
       -0.04303675 0.03878873 -0.06363691 0.2682002
000290 04 76 2a bd 72 3a bc 3e 9a 5d d9 3d c8 b9 88 be
       -0.041616455 0.3676334 0.10613556 -0.2670424
0002a0 7a 12 15 be 7e 15 c4 be 06 6b 65 3e 36 75 82 be
       -0.1455783 -0.38297647 0.22404107 -0.2548005
0002b0 d3 42 35 3e aa 9c ce bc a4 96 11 3e 72 b0 15 3d
       0.17701273 -0.025221188 0.14217621 0.036545224
0002c0 53 97 28 3e 22 43 40 3e 51 0f 6a be d5 a1 61 3d
       0.16463976 0.18775609 -0.22857405 0.055085976
0002d0 f7 e4 21 bd 18 16 e1 bd 51 e6 70 3e 48 38 b0 bd
       -0.039525 -0.10990542 0.23525359 -0.08604485
0002e0 72 67 e5 bd fe 2f 9b bc eb d8 88 3e de aa d9 bd
       -0.11201371 -0.018943783 0.26727995 -0.106282935
0002f0 1d 94 2f 3d 8f 2b db bd 5a a1 2c be d1 43 e1 bd
       0.04286586 -0.107016675 -0.16858426 -0.10999263
000300 0d fb 47 bd c8 ba d8 bd 5c 2a 4e be 9f e9 47 3e
       -0.048823405 -0.10582501 -0.20133346 0.19522713
000310 e6 0f a9 3d f7 ad 43 bc a2 ea 4f bd f2 dc 0a bd
       0.082549855 -0.011943332 -0.050760873 -0.033902116
000320 6a 16 2e bb e6 b9 3a 3e 1d 78 ac 3e 4b 08 02 be
       -0.0026563653 0.18234977 0.3368539 -0.12698476
000330 f1 7f 6c 3d 1f 3c 11 bc 95 3b 36 3d ff d8 d3 3d
       0.057739202 -0.008864432 0.044490416 0.10344123
000340 f9 2e c3 bd 64 b8 ec 3a da f7 2a be 69 5c a5 bb
       -0.09530444 0.0018060324 -0.1669611 -0.0050464165
000350 36 ec 78 3e 95 8b 01 bb ee 2d 1a 3e 64 f1 99 be
       0.24308857 -0.0019767035 0.15056583 -0.3006698
000360 00 60 1b be 48 03 5d 3d 5d 8f ad 3e 9b 19 4f be
       -0.1517334 0.053958207 0.3389844 -0.20224611
000370 8d 5d 1a 3e e5 72 16 be 62 a7 15 be a8 bf 3b be
       0.1507475 -0.14692266 -0.14614633 -0.1833483
000380 a9 5f c5 3d e1 f4 37 3c 36 89 4f bd 57 1c c6 3e
       0.09637386 0.011227817 -0.050667964 0.38693497
000390 3d f5 39 bc 61 77 b4 bd 8f e4 11 bd 60 a3 a3 bc
       -0.011349973 -0.08811832 -0.03561836 -0.019975364
0003a0 31 e2 27 3e 89 1a 99 3c a2 2c 72 3e 3e 3e e4 bd
       0.16394879 0.01868941 0.23649839 -0.11144684
0003b0 5a c1 29 3e 45 f8 66 3d ac c2 85 bd 26 dd 15 bd
       0.16577664 0.056389112 -0.06531271 -0.036587857
0003c0 9a 8d eb bc 60 c6 00 be 2c 01 03 3d b5 24 d7 3c
       -0.028754044 -0.12575674 0.03198354 0.02626262
0003d0 f9 d6 90 bd 30 e3 3f be 17 dc 81 bc cc 71 36 3c
       -0.07072253 -0.18739009 -0.015852017 0.01113553
0003e0 79 77 0d 3d 2e a8 32 bd 3e d2 0d bc 0e 2d 05 bd
       0.034537766 -0.04361742 -0.008656083 -0.03251367
0003f0 4a 78 d6 3c 9c 4c 02 39 12 5f 52 3d a3 c3 06 bd
       0.026180405 0.00012426305 0.051360197 -0.032901417

sensor_embedding.weight f4 [18, 16]
000000 cb 33 29 3f 30 34 32 bf ed c7 8a bf 27 cc 20 3f
       0.66094655 -0.6961088 -1.0842263 0.6281151
000010 40 b1 b2 3f af f0 5f be a3 98 41 be 68 fd ce 3f
       1.3960342 -0.21869157 -0.18905883 1.6171083
000020 62 cd ee be 01 16 4e 3f 22 1e 10 3e 5d 71 10 3e
       -0.4664107 0.80502325 0.14073995 0.14105745
000030 a9 f0 ae 3e bd 60 39 3f 73 c2 af bf 98 24 b6 bf
       0.34167984 0.72413236 -1.3731216 -1.4229918
000040 bb b2 a0 be 85 4d 48 3f 73 d7 76 bf 62 29 b8 bf
       -0.3138636 0.78243285 -0.964225 -1.4387629
000050 a7 ab 26 3f 10 47 03 3f 08 44 dd be 59 2c b4 bf
       0.6510567 0.5128031 -0.43215966 -1.4076034
000060 41 7f a5 be 9a 0c a0 bf 62 04 7c 3e dd ef cc be
       -0.3232365 -1.2503846 0.24611047 -0.4002675
000070 3e d4 1b 3f 65 be a8 3d 2d a2 7f be fe fb 4a 3f
       0.6087073 0.0823944 -0.24964209 0.7929076
000080 43 6e 9a bf 89 84 73 3e 6f ae 6c 3f d5 3f 68 bf
       -1.2064899 0.23781027 0.92453665 -0.907224
000090 fb 16 1c bf 45 3a 7c 3e 74 27 9d bf 17 40 62 3f
       -0.60972565 0.24631603 -1.2277665 0.88379043
0000a0 0d 70 19 c0 54 65 c2 bf f1 2c 92 3e 05 06 f5 3e
       -2.397464 -1.5187173 0.28549913 0.47856155
0000b0 db 11 dc 3f d5 40 db 3f e6 85 15 3e 36 c9 dc be
       1.7192949 1.712916 0.1460186 -0.43122262
0000c0 25 f7 9a bf 71 eb ce bf 14 c7 af 3f 07 f6 74 bf
       -1.2106673 -1.6165601 1.3732629 -0.9568791
0000d0 14 11 1e 3e cd 53 83 bd f1 ed d8 bc 6f ad e0 bf
       0.15436202 -0.06412468 -0.026480647 -1.7552928
0000e0 9a 70 a1 3d 7c d4 2f 3e 07 cd 31 3d 19 74 66 bf
       0.07882805 0.171709 0.04340842 -0.900209
0000f0 50 7a 9d 3f 6f ba 87 3f 76 fa e6 3e ac 31 79 be
       1.2302952 1.060377 0.45112962 -0.24335355
000100 10 a9 9a bf f8 1a 64 3f 0e 1a c0 3e c9 ee 75 3f
       -1.2082844 0.8910365 0.37519878 0.9606748
000110 ca b3 f2 bc b3 6f 4b 3e e7 52 00 be 5f 1d 45 bf
       -0.029626746 0.19866829 -0.12531625 -0.7699794
000120 a9 51 f8 bc ea 8c 9e 3c 4e a7 de 3d b8 60 c7 bf
       -0.030312376 0.019354302 0.108717546 -1.5576391
000130 b3 48 65 bf fa e8 c4 bf 0a ae b0 3f 0a d4 1a bd
       -0.89564055 -1.5383599 1.3803113 -0.037799872
000140 20 08 24 c0 0d e5 ee be 1c 07 36 3f 2f 6b 2b 3d
       -2.562996 -0.46659127 0.711046 0.041850265
000150 82 1f 3c c0 fc b2 0a c0 f8 06 e7 be 88 bb 4e bf
       -2.939423 -2.1671743 -0.45122504 -0.807549
000160 a1 7c 70 ba c4 86 a2 3f 86 79 a4 bf a0 22 21 bd
       -0.00091738446 1.2697377 -1.2849586 -0.03933966
000170 09 a4 94 3c 9c a7 1b 3f be 2e 84 3f ae 87 43 3f
       0.018144624 0.60802627 1.0326765 0.76378906
000180 80 bf d9 3e 60 79 44 3e 85 cf c7 be 68 54 da be
       0.42528915 0.19186926 -0.39025512 -0.42642522
000190 44 59 07 bf 82 01 48 3f 37 fb 97 be 32 34 f2 be
       -0.52870584 0.781273 -0.2968385 -0.47305447
0001a0 06 04 96 be 6c 99 e3 3d f0 23 fc be 8e 71 31 3d
       -0.29299945 0.11113247 -0.49246168 0.043321185
0001b0 b3 2d 82 bf 7c 66 30 bf 85 38 a3 bf 1f 91 18 bf
       -1.0170196 -0.6890638 -1.2751623 -0.5959644
0001c0 35 ba 32 3d d8 10 55 3f 85 d7 17 bf 41 38 88 3f
       0.043634612 0.83228827 -0.5931323 1.0642167
0001d0 e6 1f b7 3e 1f 9b c5 bd 6f 7b 86 bf ec 5d f6 3e
       0.35766524 -0.096487276 -1.0506419 0.48118532
0001e0 4d f5 9a 3f d1 3d 01 be 91 86 85 bd 7c df 0e 40
       1.210611 -0.12621237 -0.06519807 2.2323904
0001f0 88 70 b7 3e 7c a3 7c 3e 31 70 b0 3f ae 4e 51 3d
       0.35828042 0.2467174 1.3784238 0.051100425
000200 eb 8d 26 bf 78 ef 16 c0 2b d9 7e be b8 b7 c1 bf
       -0.650603 -2.358366 -0.2488753 -1.5134192
000210 85 84 2f 3f c8 72 ca 3f f2 eb 81 bf d8 8c 80 bf
       0.68561584 1.5816278 -1.015013 -1.0042982
000220 aa 73 1b be 3e 78 8d 3f 1f bd 40 3e 4e 67 4b be
       -0.15180841 1.105232 0.18822144 -0.19863626
000230 43 13 29 3e 33 e4 85 be 1d dd 95 3e ce b8 92 3f
       0.16511254 -0.26150665 0.2927026 1.1462648
000240 f4 c1 82 3e 1e fd 06 bf 32 42 d3 3f 93 d4 c2 bf
       0.255386 -0.52729976 1.6504576 -1.5221123
000250 1e 5e 89 bf 65 2c 02 be e0 b1 47 3f 03 89 06 3f
       -1.0731847 -0.12712248 0.7800579 0.52552813
000260 2b c8 c3 3f 38 66 8a 3f f5 cc ac be bd db 83 3f
       1.5295461 1.0812445 -0.3375012 1.0301434
000270 b5 87 2d bf 4b c3 df 3e ec 79 45 3f eb 2a c1 bf
       -0.677852 0.43703684 0.77139163 -1.5091223
000280 b2 a9 d2 be 69 7e 70 3f 07 e4 17 3f 26 55 43 bf
       -0.41145092 0.93942887 0.5933232 -0.763018
000290 4f e3 ab be 6f 46 a2 3d 2e dd 18 3f 66 d1 33 40
       -0.3357186 0.079235904 0.59712493 2.8096557
0002a0 8c d2 13 c0 e3 5d 69 bd d2 85 97 be 3f 84 52 bf
       -2.3097258 -0.056974303 -0.29594284 -0.8223304
0002b0 f6 df 36 be c4 1f 86 bf 33 00 a3 3f c7 0e c6 3f
       -0.17858872 -1.0478444 1.2734436 1.547326
0002c0 01 19 2f 40 1f a6 8b bf e4 56 81 3e 9e a1 43 3e
       2.735901 -1.0910071 0.25261605 0.19104621
0002d0 80 85 b2 3f b1 de 3b bf 6c 19 ca bf bb da 3b c0
       1.3946991 -0.73386675 -1.5789008 -2.9352252
0002e0 54 4c d5 bd 10 4e 8a 3f a9 6a a7 3e 33 0e 8b bf
       -0.10414949 1.0805073 0.32698563 -1.0863708
0002f0 15 5e 54 3f b1 6d 00 bf e2 d1 bf bd 34 c3 22 3e
       0.8295606 -0.50167376 -0.09366204 0.15894777
000300 29 47 02 3f d9 8d 2e bf 38 b7 3c 3e 20 1e 3c 3f
       0.5088983 -0.6818519 0.18429267 0.7348347
000310 f5 8d e4 bf ef 10 93 bf d2 8e 44 be 72 99 17 bf
       -1.7855822 -1.1489543 -0.19195107 -0.59218514
000320 38 cc 14 c0 52 fb 40 c0 7c 87 b2 bf ab 25 90 3f
       -2.3249645 -3.0153394 -1.3947597 1.1261495
000330 5a a4 89 bd 41 27 cb bf 01 de 51 ba ed 72 da be
       -0.06720801 -1.5871354 -0.00080057984 -0.42665806
000340 d2 f4 02 bf 9b 70 25 3d 59 d4 98 3f de 40 a6 3c
       -0.51154816 0.040390592 1.1939803 0.020294603
000350 79 a2 dd 3e ba b0 6b 3f 60 d6 5c bd 1a e8 b4 3e
       0.4328802 0.9206654 -0.05391538 0.3533333
000360 5a 45 6c bf d4 c1 e4 3d 9b 23 d9 be 7b 73 a2 be
       -0.9229332 0.11169782 -0.42409977 -0.3172873
000370 91 a4 18 bf 21 26 dc bf f1 64 83 be 03 b1 b1 bd
       -0.5962611 -1.7199136 -0.2566295 -0.086763404
000380 f5 21 4b be 16 b1 85 bd 2b f7 ac 3f 9d 06 1c c0
       -0.19837172 -0.06527917 1.351293 -2.4379036
000390 ef 92 1b be cb ab 84 3f 3d e5 00 c0 a6 95 b6 3f
       -0.1519277 1.0364927 -2.0139916 1.4264419
0003a0 07 5c 3f c0 43 4d 11 c0 00 72 4d bf cc 35 17 bf
       -2.989992 -2.2703407 -0.80252075 -0.5906646
0003b0 97 4b b3 bf 13 6c e0 be 8c 14 6e bf e4 7b cd 3e
       -1.4007443 -0.43832454 -0.930001 0.40133584
0003c0 2d c9 c8 3e 4b c1 97 3e 84 66 82 bf 7d ab 3e bf
       0.39215985 0.29639658 -1.0187535 -0.7448042
0003d0 57 da 9e bf e4 84 1b 3f 9e ab 2d 3f 82 ad f1 be
       -1.2410382 0.6074965 0.6783999 -0.47202688
0003e0 1b 80 1b 3e 4f 55 d0 bf be e1 1c c0 f9 65 1d be
       0.15185587 -1.6276034 -2.4512782 -0.1537093
0003f0 31 02 da 3f 68 85 23 3f 3e 39 fe 3e c4 63 04 bf
       1.7031919 0.63875437 0.49653047 -0.5171473

lin1.weight f4 [16, 16]
000000 12 51 2c be 98 bf 2c 3e 9e bd 61 3e 38 01 ca bd
       -0.16827801 0.16869962 0.2204499 -0.09863514
000010 0e 10 7c be ea d9 4e 3e d0 b0 47 be 90 ce 3c bd
       -0.246155 0.20200315 -0.19501042 -0.04609543
000020 e0 32 2e 3d 88 8e 8a bd b0 28 1f 3d a0 6c 6f be
       0.042528987 -0.06765467 0.038857162 -0.23381281
000030 22 98 3b 3e 30 a4 84 bc ae 57 56 3e 8a 5e 38 3e
       0.18319753 -0.016191572 0.20931885 0.18004814
000040 d0 b3 d9 3d 7e aa 4f be 42 f3 7c 3e 52 55 78 be
       0.1063 -0.20279881 0.2470217 -0.24251297
000050 a0 dc 38 bd 4e e3 58 3e 8c f9 09 3e 70 01 c3 bc
       -0.04513228 0.2118046 0.13474101 -0.023804396
000060 62 cb 23 be c2 ff 60 3e 68 9a 2f be 70 75 97 3c
       -0.15995553 0.21972564 -0.17148745 0.018488616
000070 92 88 18 be 90 a4 57 3e f0 7c 91 3c c0 d8 9d bd
       -0.14895847 0.2105887 0.01775977 -0.077073574
000080 2a 95 27 3e 8e b0 0d be 9e f6 3f be 00 e0 f3 bc
       0.16365495 -0.13836882 -0.1874642 -0.029769897
000090 aa 9f 3e be 94 78 bd 3d 42 f0 57 be 74 df be 3d
       -0.18615595 0.09251514 -0.21087745 0.09319964
0000a0 e0 0d e3 bd 70 32 2a be 20 7f 51 3d a0 81 50 bc
       -0.11086631 -0.16620803 0.051146626 -0.0127262175
0000b0 30 bf 03 3d 08 05 a5 bd 70 57 5c 3e 30 a2 ac 3c
       0.032164752 -0.080576 0.2151773 0.02107343
0000c0 42 96 62 3e bc 15 f2 bd 40 0a d9 bd aa 86 6a 3e
       0.22127631 -0.11820552 -0.10597658 0.22902933
0000d0 c6 44 21 be 46 76 0b 3e b4 d3 5f be 4e c3 5c be
       -0.15748891 0.13619336 -0.21858102 -0.21558878
0000e0 bc 87 a0 bd 90 9a ee bd b4 da 8a bd 98 c6 84 bd
       -0.07838389 -0.11650574 -0.067799956 -0.06483191
0000f0 12 2b 48 3e 20 02 6a bd 3e 5a 6f 3e 00 63 da bb
       0.1954768 -0.057130933 0.23374268 -0.0066646338
000100 f0 20 fb bc 70 17 6e bd a6 90 37 3e 86 44 77 3e
       -0.030655354 -0.05812782 0.17926273 0.24147233
000110 ac 93 fc 3d 70 a1 e9 3c 5a 52 19 3e da 43 49 be
       0.12332854 0.028519362 0.14972821 -0.1965479
000120 3e 37 65 3e a0 7c b0 3c ba 84 53 be f0 56 87 bc
       0.22384354 0.0215438 -0.206561 -0.016520947
000130 06 16 38 be b0 13 dd 3c 9e ae 5a 3e 30 39 9d 3d
       -0.17977151 0.026986927 0.21355674 0.07676923
000140 58 f1 37 be 58 15 93 bd 3c a0 d9 3d 4a 6f 6d 3e
       -0.17963159 -0.07181805 0.106262654 0.23186985
000150 16 d0 12 be 68 2c a7 3d 8c 28 61 3e 4c eb 28 3e
       -0.14337191 0.08162767 0.21988124 0.16496009
000160 5a 74 52 be c0 30 cc bc 88 62 76 3e 94 c2 c8 bd
       -0.20552197 -0.02492559 0.24061024 -0.09802738
000170 d0 81 7a 3d f4 85 ec 3d 48 23 b4 bd e0 53 4f be
       0.061158955 0.11548987 -0.08795792 -0.2024684
000180 22 25 76 3e 00 78 41 3e e0 43 32 bc 24 22 ab bd
       0.24037603 0.18893433 -0.0108804405 -0.08356121
000190 a8 f3 a5 3d 9c a5 5c 3e a8 b8 9e bd 40 79 bc bd
       0.08103114 0.2154755 -0.07750064 -0.09202814
0001a0 a8 b6 a0 3d 4a 8f 3e 3e dc d5 a3 3d b6 cd 13 3e
       0.07847339 0.18609348 0.07999775 0.14433941
0001b0 90 2f c4 bc 92 6c 1a be 28 8f e1 3d 76 53 70 be
       -0.02394846 -0.15080479 0.11013633 -0.23469338
0001c0 28 3f 11 bd 10 1c 8c 3c 40 81 28 be 2c 0e b8 3d
       -0.03546062 0.017103225 -0.16455555 0.08987078
0001d0 e8 39 b9 3d 60 57 cb bc 9c 40 3e 3e c8 55 20 be
       0.09044248 -0.024821937 0.18579334 -0.15657723
0001e0 90 cf d7 3c e0 64 e4 bc 6c ab 4f 3e 3a 86 38 be
       0.02634409 -0.027880132 0.20280236 -0.18019953
0001f0 80 6c e2 3c 24 87 cc bd 00 02 4b 3c 72 1c 7f be
       0.027639627 -0.099867135 0.012390614 -0.24913195
000200 2c 18 35 3e 38 12 03 3e 48 66 f7 bd 34 1a 12 3e
       0.17685002 0.12799919 -0.120800555 0.14267808
000210 92 ce 23 3e 14 50 90 3d 40 6f e7 bc 08 b3 40 bd
       0.15996769 0.07046524 -0.02825129 -0.047045738
000220 24 6f d6 3d e6 f1 57 3e 00 10 e4 3a 52 94 08 be
       0.10470417 0.2108837 0.0017399788 -0.1333783
000230 ce 77 48 be 26 87 19 3e 94 43 f9 3d ba 4c 0a 3e
       -0.19576952 0.14992961 0.12171093 0.13505831
000240 60 09 12 be 78 8b 26 be b6 c8 29 be 8c 9b a9 bd
       -0.14261389 -0.1626414 -0.16580471 -0.08281621
000250 d0 f9 68 3e 9e 27 09 be dc 4d e7 3d 14 05 ec bd
       0.22751546 -0.13394019 0.11294147 -0.11524406
000260 00 e2 8b 3c 40 bd 97 3b 76 f0 34 be e0 d2 c1 bd
       0.017075539 0.0046307147 -0.17669854 -0.09464049
000270 d6 de 2d be 4a fe 5c 3e 54 d2 82 bd a0 80 55 3c
       -0.16979536 0.21581379 -0.06387773 0.013031155
000280 58 45 de 3d 6c dc e7 bd 1e d0 7b be 54 00 d4 3d
       0.1085307 -0.11321339 -0.24591109 0.10351625
000290 10 73 21 be e4 e9 53 3e 90 de 0e bd 00 aa d8 3a
       -0.15766549 0.20694691 -0.03488022 0.0016530156
0002a0 2c fb 77 be 40 0a 1d 3c 02 bd 21 be 6c 31 35 be
       -0.24216908 0.009584963 -0.15794757 -0.17694634
0002b0 90 31 b3 3d a0 ff cf 3d 6e 47 4d 3e 90 47 a4 3d
       0.08749688 0.101561785 0.2004678 0.08021462
0002c0 fc 52 67 3e 38 7c a2 3d 74 08 90 bd c6 b5 74 be
       0.2259025 0.07933849 -0.07032862 -0.23897466
0002d0 f4 e4 f5 bd ac 87 e5 bd 28 da 1a be 82 30 6a 3e
       -0.1200656 -0.11207518 -0.15122283 0.22870067
0002e0 b0 45 96 bd 60 5e d4 bc 28 7f 2a 3e 04 35 74 3e
       -0.073375106 -0.025923908 0.16650069 0.23848349
0002f0 3e 68 43 be 50 67 93 bd fc cc e0 bd aa 6b 76 be
       -0.19082734 -0.0719744 -0.10976598 -0.24064508
000300 80 ab 13 3e 26 63 7d 3e 72 a6 7e 3e 9e ae 13 be
       0.14420891 0.24744853 0.24868181 -0.1442208
000310 32 97 7d 3e f2 d2 0f 3e 04 d1 48 3e e0 42 1a 3c
       0.24764708 0.14045313 0.19610983 0.009415358
000320 02 9f 0b be 8c 4c 2f 3e 4e 8e 58 be 80 12 db bb
       -0.13634875 0.17119044 -0.21148035 -0.006685555
000330 34 81 de bd 9c 58 dc bd 60 79 0f 3e 1c 75 7d be
       -0.10864487 -0.107590884 0.14011145 -0.24751705
000340 5c be 58 be f0 2e d8 bd 8c 29 19 be bc ea 97 bd
       -0.21166366 -0.105558276 -0.14957255 -0.07417819
000350 80 84 b4 bd 54 fa 8f bd 54 b5 11 3e ee 63 59 3e
       -0.08814335 -0.07030168 0.14229327 0.21229526
000360 00 ce 06 3e 12 47 43 3e d8 b1 e0 bd b8 f4 1e 3e
       0.1316452 0.1907008 -0.10971421 0.1552304
000370 44 82 98 3d 22 a1 6b 3e 76 ab 01 3e 02 2d 28 be
       0.07446721 0.23010686 0.12663063 -0.16423419
000380 18 8b 46 be 1c 52 1a 3e 72 59 3c 3e f0 69 89 3d
       -0.19388998 0.15070385 0.18393496 0.06709659
000390 5a de 5d 3e 36 02 77 3e 74 73 3e be 0e e1 5c 3e
       0.21666852 0.24121937 -0.1859873 0.21570227
0003a0 9c d8 0f be 18 c5 69 3d ae 7c 3e 3e 52 f6 07 be
       -0.14047474 0.05707273 0.18602249 -0.13277557
0003b0 72 8b 6e 3e fa 19 2b 3e 3c 62 a0 bd 88 f7 c6 bd
       0.23295382 0.16709128 -0.07831237 -0.097151816
0003c0 ec 75 a4 bd 5a 8f 6e be 50 e9 5f 3e e4 36 f8 bd
       -0.08030304 -0.23296872 0.21866345 -0.121198446
0003d0 ea 1c 67 be 44 91 1b be a4 6b 78 3e be 6c 0a 3e
       -0.22569624 -0.15192133 0.24259812 0.13518044
0003e0 66 83 2f 3e 76 00 53 3e 9c 8a a2 bd 94 1e 9d 3d
       0.17139968 0.20605645 -0.07936594 0.07671848
0003f0 be ef 00 be 16 a6 7d be ac c6 49 be 9e a2 7f 3e
       -0.12591454 -0.24770388 -0.19704694 0.24964377

lin1.bias f4 [16]
000000 54 8c 72 be a0 15 91 bc c8 94 db 3d ac c2 5a be
       -0.23686343 -0.017710507 0.10721737 -0.21363324
000010 e2 c8 44 3e 52 e7 46 be 20 ae 18 bd 5c bb 0a be
       0.19217256 -0.19424179 -0.037275434 -0.13548034
000020 62 be 12 3e b8 a1 57 3e bc 7c 9d bd d0 89 a7 3c
       0.14330438 0.21057785 -0.07689807 0.020451456
000030 d6 69 53 be 74 f4 f8 bd 70 80 d5 3d f8 15 71 be
       -0.20645842 -0.12156001 0.10424888 -0.23543537

lin2.weight f4 [16, 16]
000000 f8 cd 25 bd 8e e4 6a be a4 40 7d 3e e0 91 8e bd
       -0.04047963 -0.22938749 0.2473169 -0.06961417
000010 00 04 f8 39 08 34 e8 3d de 4e 22 3e 20 7d 3c 3e
       0.00047305226 0.11338049 0.15850398 0.18407106
000020 58 15 ae 3d fc 20 3f be 4a ad 68 3e 84 37 d5 bd
       0.08500165 -0.18664926 0.22722355 -0.104109794
000030 20 9b 59 be 14 1e 13 be f0 21 8a bd 50 c3 7b bd
       -0.21250582 -0.14366943 -0.06744754 -0.06146556
000040 60 4c 0c bd a6 85 58 3e 94 05 7f be 80 89 c4 bd
       -0.034252524 0.21144733 -0.24904472 -0.095965385
000050 6a 61 5a be f4 ae 3c 3e 18 ca 44 3d 00 44 9f 39
       -0.21326223 0.18426114 0.048044294 0.00030377507
000060 42 84 2c be f0 d5 cd bd ea 9a 0c 3e ae 4f 30 3e
       -0.16847327 -0.10050571 0.1373097 0.17217895
000070 16 8a 12 3e 80 1a 29 3b e2 3a 00 be c0 42 41 3d
       0.14310488 0.0025803149 -0.12522462 0.0471828
000080 b2 23 2d 3e ec 2a 52 3e b0 6d 59 3e b4 4a de bd
       0.16908148 0.20524186 0.21233249 -0.10854092
000090 88 2b 4a bd aa fa 76 3e de f4 24 3e 40 82 cf 3d
       -0.04935792 0.24119058 0.16109034 0.10132265
0000a0 2c 9b 24 3e 8e f9 7e be f6 fb 4d be b4 47 4d 3e
       0.16074818 -0.24899885 -0.20115647 0.20046884
0000b0 34 d8 6b 3e e8 e1 78 be 24 54 e1 bd 42 b2 22 be
       0.23031694 -0.24304926 -0.11002377 -0.15888312
0000c0 58 04 47 3e dc 75 af 3d 00 7b 04 3c 9a 4e 6d 3e
       0.19435251 0.08567402 0.008085966 0.23174515
0000d0 ee 14 6d 3e b6 7b 17 be 50 10 0a 3e 88 44 5c 3e
       0.23152515 -0.14793286 0.13482785 0.21510518
0000e0 a8 b5 9e 3d ec f5 5d 3e c8 f3 2f bd 98 2f ac bd
       0.07749492 0.21675843 -0.042957097 -0.08407515
0000f0 00 6d 22 3b e0 35 3a 3d 60 0b 5f bc 94 d8 7d be
       0.0024784207 0.045461535 -0.013613552 -0.24789649
000100 0c 02 e5 3d 38 90 32 be 34 22 ac bd ac 09 bd 3d
       0.11182031 -0.17437828 -0.08404961 0.092303604
000110 c4 97 a1 bd 94 f9 f1 3d 04 73 fb bd 58 e2 7a 3e
       -0.07890275 0.118151814 -0.12277797 0.24500406
000120 f0 a9 86 3c 14 30 e3 3d 3e e1 2b 3e d0 ea 1e be
       0.016438454 0.110931545 0.16785142 -0.15519261
000130 58 e2 54 be 84 3e 2f 3e 88 0e 5c bd 90 1e 90 bc
       -0.20789468 0.17113692 -0.053724796 -0.017592698
000140 4a 07 31 3e d2 75 54 3e 50 69 2e 3e fa 7e 16 be
       0.17287937 0.2074807 0.17032361 -0.14696875
000150 30 f6 6f bd 88 b4 91 bd 8a 67 19 be 9a 6c 7a be
       -0.058584392 -0.07114512 -0.14980903 -0.2445549
000160 58 f2 08 3e 00 18 27 3d 70 01 97 bc a0 e2 01 3d
       0.13373697 0.040794373 -0.018433303 0.031710267
000170 9a d3 15 be 40 ad 30 bd 66 3e 75 be 50 19 ec bd
       -0.14631501 -0.043133974 -0.23949584 -0.115282655
000180 c8 2f 00 3e 14 58 62 3e 2e 2f 2c 3e 2c 4e 38 3e
       0.12518227 0.22103912 0.16814873 0.1799857
000190 20 84 20 bd 84 d7 72 3e 30 63 f4 3d 50 2f f9 bc
       -0.039188504 0.23715025 0.11932981 -0.030418068
0001a0 0c 65 5f be 98 4a 90 bd 54 db 43 3e 10 cd b4 bd
       -0.2181589 -0.07045478 0.19126636 -0.08828175
0001b0 34 81 66 3e 0c 04 ad 3d 60 66 70 3c 40 51 6e 3d
       0.22510225 0.084480375 0.014672846 0.058182955
0001c0 8a 7d 7d be f2 d7 5f be c2 92 0d 3e 00 aa ca 3d
       -0.2475492 -0.2185972 0.13825515 0.09895706
0001d0 5c d1 8e bd 80 38 ba bd b4 a6 91 3d 68 63 4b 3d
       -0.06973526 -0.09092808 0.07111874 0.049655348
0001e0 1a a6 76 be ac b8 d0 bd 00 46 b1 bd bc 82 e9 bd
       -0.240868 -0.10191473 -0.086559296 -0.11401889
0001f0 3e 3a 5c be d0 f4 a0 3c 16 93 44 be 62 bd 5c 3e
       -0.21506593 0.019647986 -0.19196734 0.21556619
000200 ac 03 5d be 36 54 53 be a0 ac a3 3d 10 17 05 3d
       -0.21583432 -0.20637593 0.0799191 0.032492697
000210 40 df 2a 3d 38 4f b1 3d fc c7 d0 3d 00 1e dc bc
       0.041716814 0.08657688 0.10194394 -0.026869774
000220 d2 a1 32 be 60 53 18 3d 18 60 1d be b8 4f 7e 3d
       -0.17444542 0.037188888 -0.15368688 0.062087744
000230 40 7a 2d be c0 08 e4 3d 0e 06 62 3e 72 2e 53 be
       -0.16941166 0.111344814 0.22072622 -0.20623186
000240 c4 6c 51 be f4 3c ce 3d 5c 03 51 be 72 98 63 be
       -0.20451647 0.1007022 -0.20411438 -0.22226122
000250 7c e9 6d 3e 54 61 b0 3d 30 5d 3e 3e f4 c2 81 3d
       0.23233598 0.08612314 0.18590236 0.063360125
000260 3c ef 96 3d 58 b9 0a 3e 00 52 5b be 5e 38 6f be
       0.07369849 0.13547266 -0.21418 -0.23361346
000270 a6 ca 49 be c8 b7 16 3d 44 a6 48 be f8 c2 2f 3d
       -0.1970621 0.03679636 -0.19594675 0.042910546
000280 c0 b6 17 bc 94 d0 a1 3d 20 13 b8 3c 9e b4 08 3e
       -0.00925988 0.07901111 0.022470057 0.1335015
000290 38 b9 06 3d 78 41 11 be ea b6 2a 3e 74 d0 3e be
       0.032891482 -0.1418513 0.16671339 -0.18634206
0002a0 d4 7f 68 be 2c 3e 8a bd 1e c6 64 be c0 58 70 3d
       -0.22705013 -0.067501396 -0.223412 0.05867839
0002b0 00 d0 ae b9 c8 f2 d8 3d 4a ff 4b be b0 d4 37 3d
       -0.00033342838 0.10593182 -0.19921604 0.04488057
0002c0 a0 55 21 bc f2 2c 59 be 04 bd e4 3d 4c 41 96 3d
       -0.009847075 -0.21208552 0.11168864 0.07336673
0002d0 f4 e0 a1 3d 8c a1 40 3e 0c c7 c2 3d 24 bc 90 3d
       0.079042345 0.18811625 0.095106214 0.07067135
0002e0 30 cb f9 bd 98 a1 fe bd 4c 99 cd 3d 20 83 36 3c
       -0.12196958 -0.12433165 0.10039005 0.011139661
0002f0 2e 28 06 3e 30 b2 e0 3c 10 ec 4d 3e 0c c9 34 be
       0.13101265 0.027428716 0.20109582 -0.17654818
000300 38 cb 8e bd 20 6d d7 3d a8 19 92 3d 32 8b 61 be
       -0.06972355 0.10518861 0.071338 -0.22025755
000310 60 9f 17 bc b0 51 f4 3c e6 9e 1c 3e 32 6b 60 be
       -0.009254307 0.029824108 0.1529499 -0.21915892
000320 10 1b 9d bd e8 9f a9 3d 30 dc f8 bd 74 9e 8f bd
       -0.076711774 0.08282453 -0.121513724 -0.070126444
000330 7e 6f 5a be e0 d1 0f bc b4 07 24 3e 18 95 29 bd
       -0.21331593 -0.008778065 0.16018564 -0.041401953
000340 38 ae 7b 3e 3c 75 51 be a0 6b f2 bd 30 8a 29 3e
       0.24578178 -0.20454878 -0.11836934 0.1655662
000350 90 36 92 bd e0 fb 16 3c d2 d9 6b 3e 60 ff d9 bc
       -0.07139313 0.009215325 0.2303231 -0.02661103
000360 44 71 50 3e b0 13 ea 3c 6c 35 a6 bd 88 20 93 3d
       0.20355707 0.02857384 -0.08115658 0.07183939
000370 e8 f4 a4 3d ac 69 e0 3d ac f9 9e bd 38 96 5a bd
       0.08054525 0.10957655 -0.07762465 -0.053365916
000380 00 68 c5 3c 44 07 95 3d 48 a6 dc bd f2 99 4b 3e
       0.024097443 0.072767764 -0.10773903 0.19882944
000390 f0 34 02 be e8 5e be bd 54 08 7b 3e 94 ca f3 bd
       -0.12715507 -0.09295446 0.24514896 -0.11903873
0003a0 90 ef 97 bc b0 39 07 3e 0a 26 4f 3e f2 f4 27 be
       -0.01854685 0.132056 0.20229355 -0.16402033
0003b0 04 eb 6a 3e f8 ba 14 bd 54 6d 9c 3d c2 fe 71 be
       0.22941214 -0.03631112 0.0763804 -0.23632339
0003c0 60 58 cc bd ac 35 f6 bd f0 fc 59 3d aa 23 02 3e
       -0.09977794 -0.12021956 0.053219736 0.12708917
0003d0 a8 75 68 3d 98 d7 3c 3e 00 25 c9 bb 16 dd 19 3e
       0.05675283 0.18441617 -0.006138444 0.15025744
0003e0 f0 a2 47 bd 80 ea f8 3d 4c f2 83 3d 8c 82 26 3e
       -0.048739374 0.12154102 0.06442699 0.16260737
0003f0 28 b5 97 bd 90 e6 cc bc 08 b3 40 3e 18 8e 9e 3d
       -0.074076 -0.025012285 0.18818295 0.07741946

lin2.bias f4 [16]
000000 fc 36 33 3e 3e 23 2f 3e 04 b1 00 3e 30 d3 8e 3d
       0.17501444 0.17103288 0.12567526 0.069738746
000010 e0 39 20 be 32 0f 3b be 3a e7 4f 3e 0e a1 0c be
       -0.15647078 -0.18267515 0.2030305 -0.13733312
000020 90 73 d5 3c 10 7c c5 3c 60 d7 6e 3c 1a 38 74 3e
       0.026056081 0.02410701 0.014577717 0.23849526
000030 00 8c 82 bb 6e 48 06 be 90 e0 f2 3d 5c 75 06 3e
       -0.0039839745 -0.13113567 0.11859238 0.13130707

graph_detector.graph_conv1.att_l f4 [1, 1, 64]
000000 cf 8c 99 3d 30 67 96 bc bb 61 27 bc 6e 18 fe bc
       0.0749756 -0.01835975 -0.010216172 -0.031017508
000010 94 c1 d8 bd ca eb ab 3c 28 c0 4c be e7 93 51 bd
       -0.10583797 0.020986456 -0.19995177 -0.05116644
000020 7a 9d a8 bd 09 d9 91 bc 98 c6 01 3e fd f9 10 be
       -0.08233161 -0.017803686 0.12673414 -0.14157863
000030 57 11 4f be 35 69 29 bd 3e 9d f3 bd 0d b9 1c 3d
       -0.20221458 -0.0413601 -0.11895226 0.038262416
000040 40 c1 1c bd 71 db 82 3d 68 5a 30 be 88 45 c8 bc
       -0.038270235 0.063895114 -0.17221987 -0.024447218
000050 52 e3 d2 bc 51 27 8d 3c 99 36 ec 3c 37 96 9d bd
       -0.02574316 0.017230662 0.028834628 -0.07694667
000060 0a b4 0d 3e f7 6b 8b bc d7 5e 92 bc a3 80 5d 3d
       0.1383821 -0.017019255 -0.017867489 0.054077756
000070 fb 5e 28 bc dd 61 f5 3c b5 a7 e3 bc ae b3 a1 3d
       -0.010276551 0.029953891 -0.02778993 0.07895599
000080 98 fd 34 bc 81 1c 6b bb 2c 9e 29 bc 76 1b 9f bb
       -0.01104679 -0.0035875144 -0.0103526525 -0.0048555685
000090 09 9f d7 bc 8f 57 47 bd 35 19 86 bb 7f 54 be bb
       -0.026320951 -0.048667487 -0.0040923604 -0.0058084126
0000a0 ad 11 51 3d b4 79 12 3e 22 74 4f bd 2e cc 1a 3c
       0.051042248 0.14304239 -0.050647862 0.009448094
0000b0 cb 6a 4f bd ef 76 71 3c 23 c2 25 3e 0e 15 05 bc
       -0.050638955 0.014737829 0.16187339 -0.008122696
0000c0 2d d4 85 3e 05 08 fb 3b 3c 4a 0b 3d 5a 9a 24 3e
       0.2613844 0.007660868 0.034006342 0.16074505
0000d0 94 72 60 3d 3b ce bd bc fe ee 1e 3e 63 0d cc bd
       0.05479677 -0.023169627 0.15520856 -0.09963491
0000e0 cd 72 fa bb 00 ef 15 be 21 28 0a bb de 9e db 3c
       -0.00764308 -0.14641953 -0.0021081048 0.026809152
0000f0 08 37 48 bd 44 8f f1 b8 15 6b 68 3d 14 98 e9 bc
       -0.048880607 -0.00011518461 0.056742746 -0.0285149

graph_detector.graph_conv1.att_r f4 [1, 1, 64]
000000 5a c7 42 be 5d 9c 3a 3d 56 6b 16 bf 06 07 8c 3e
       -0.19021359 0.045559276 -0.5875753 0.27349108
000010 43 9d a7 be c0 4e ab 3d a8 e2 3d 3d 0e 28 95 3e
       -0.3273717 0.0836463 0.046358734 0.29132122
000020 b6 40 c4 3e 6a 23 0d bd 20 b4 3d 3e 02 0c c1 be
       0.3833062 -0.0344576 0.18525743 -0.37704474
000030 14 eb 1f 3e d0 d5 cf bd 90 df a3 3e 3b c9 01 bf
       0.15617019 -0.101482034 0.32006502 -0.5069768
000040 05 29 90 bd 9b 84 88 bd ba 5c 6b be 14 b8 1e 3f
       -0.07039074 -0.066659175 -0.22984591 0.6199963
000050 a9 3a 7d be 57 a2 fd 3d f3 47 10 3e 05 17 0d 3d
       -0.24729408 0.123844795 0.14089946 0.03444578
000060 47 fb d2 be 55 84 8a 3e ec ad a5 be 30 97 52 3c
       -0.41207334 0.27054086 -0.32359254 0.012853429
000070 dc cc c3 3e 1e b7 b6 3b 4d 82 e3 be e3 b8 12 3e
       0.38242233 0.0055760285 -0.4443535 0.14328341
000080 5a 51 b7 be 47 4e 4f 3d 31 0f fa be 7b 69 94 3e
       -0.35804254 0.05061176 -0.48839715 0.28986725
000090 72 dc d5 3d db d5 4e be 31 25 73 be 1a 58 1e 3e
       0.10442437 -0.20198767 -0.23744656 0.15463296
0000a0 86 7a d6 3e 57 0c 2f 3e f5 53 fe be e6 4b 04 be
       0.41890353 0.17094551 -0.4967343 -0.12919578
0000b0 79 0b 15 bd e0 3f 89 3e 16 e1 5b be 70 5e 02 bd
       -0.036387894 0.26806545 -0.21472582 -0.031828344
0000c0 0b 20 3f 3e c0 43 ce be 33 85 97 3d 08 1d 43 3e
       0.18664567 -0.40286064 0.073984526 0.19054043
0000d0 e9 82 65 bd d0 90 bd be 43 fa da ba c2 d2 8d 3e
       -0.05603305 -0.37024546 -0.0016706664 0.27699858
0000e0 1b 72 94 be b6 5d 59 3e f3 21 ef be d9 e2 9d be
       -0.28993306 0.21227154 -0.4670559 -0.30837134
0000f0 3e e7 b7 be 8f 99 52 3d fd e1 ef 3d e8 62 ed 3e
       -0.3591861 0.051415976 0.11713026 0.46364522

graph_detector.graph_conv1.bias f4 [64]
000000 f3 12 89 bc b9 c9 8d bd 04 4d 78 3d b1 14 d6 3c
       -0.016732669 -0.06923241 0.060620323 0.026132913
000010 d2 5c 61 3d 44 a1 a2 bc 72 ff 3b bc 43 01 8f 3c
       0.05502016 -0.019852288 -0.011474477 0.017456656
000020 07 a2 a1 bc 4b 12 d2 bd 84 5b b5 3d c3 b0 53 3d
       -0.019730581 -0.10257395 0.08855346 0.051682245
000030 7c 2e 41 bd 01 42 16 3d a1 34 5a bd fb 0d b2 bc
       -0.04716347 0.03668404 -0.053272847 -0.021735182
000040 cd 62 e5 bb a1 90 3a bd 1a fe ac 3d 7d 91 80 bd
       -0.0070003034 -0.045548085 0.084469035 -0.0627775
000050 05 70 85 bb 8e fc dd bc 6d 31 09 bc 50 d8 ad 3d
       -0.0040721917 -0.027097967 -0.0083736 0.08488524
000060 61 fb 0f 3d c6 b1 0c 3d 92 02 c0 3d 28 6b bc 3c
       0.035151843 0.034349225 0.0937549 0.023000315
000070 da 17 b2 3d 35 7c 08 3d 78 e1 68 3d a0 0e 0d 3c
       0.086959556 0.033321578 0.05685565 0.008609444
000080 4a 41 6b 3d 0c ac 43 bd f7 65 65 3d 8c 92 4c 3d
       0.05743531 -0.0477715 0.056005444 0.049944445
000090 4e b0 bb bc 46 dd 04 3d dc 58 8d bd 08 8f 8d 3d
       -0.022911217 0.032437585 -0.06901714 0.06912047
0000a0 93 24 9c bd 8d 40 d6 bd d7 23 2e 3d 85 59 b4 bd
       -0.076241635 -0.10461531 0.04251465 -0.08806137
0000b0 12 dd 78 bd fc a2 01 3d 21 af 9b 3b c9 93 8a 3c
       -0.060757704 0.031649575 0.0047511016 0.016916173
0000c0 d8 87 1c bd 49 6e 52 3d 7a eb a4 3d b0 a9 0d 3d
       -0.03821549 0.051374707 0.08052726 0.034585655
0000d0 7a 5e 1e bd 04 11 4f 3d 33 fd 02 bd 82 10 ed 3c
       -0.03866432 0.050553337 -0.03197975 0.028938536
0000e0 1d f6 84 bc f8 b3 15 3d 17 a8 a4 bb f3 09 2f 3c
       -0.016230637 0.036548585 -0.0050249207 0.010683524
0000f0 eb f0 42 3d 7c 08 64 3d 4d 8c 79 3d 68 94 8f bd
       0.04759304 0.055672154 0.060924817 -0.07010728

graph_detector.graph_conv1.lin_l.weight f4 [64, 95]
000000 e8 0a 04 be 7c ee 2e 3c 39 a3 e3 bd d7 34 19 be
       -0.12894785 0.010676976 -0.111151166 -0.14961563
000010 6e e3 04 3e 99 2b 5d 3e c5 e1 04 be ff 9e 20 3e
       0.12977383 0.21598662 -0.12976749 0.15685652
000020 27 9c 29 3e dd 8f 05 be 9b 94 94 be 62 29 46 bd
       0.16563474 -0.1304316 -0.29019627 -0.04837931
000030 d5 bd 32 bd 42 41 48 be 14 7a 2a be 8a b9 ce 3c
       -0.04363807 -0.19556144 -0.16648132 0.025234956
000040 6f e9 b5 3d 37 0c 56 be 09 f6 e4 bd 98 04 e8 3d
       0.088824145 -0.20903097 -0.1117974 0.11329001
000050 21 93 ce bd f8 1c 8b 3d 35 6f 23 be 06 8a 1e 3e
       -0.10086656 0.06792635 -0.15960391 0.1548234
000060 f2 13 d5 bd 63 7a d6 bd 40 32 42 be 4c 84 b6 3d
       -0.10404195 -0.10472562 -0.18964481 0.089119524
000070 60 26 5b be c4 48 84 3d 65 20 ce bd 3d e9 a8 bc
       -0.21401358 0.064591914 -0.100647725 -0.02061903
000080 58 f8 7e be 69 cb 44 be d0 3e 6c 3c 7c f4 c4 3b
       -0.24899423 -0.1921822 0.014419273 0.00601059
000090 89 7f d7 3d d2 ba 1f 3e 8d ad 36 bd 97 e2 ae 3c
       0.10522372 0.1559861 -0.044599105 0.02134828
0000a0 14 40 0d 3e b9 6a 0b 3c 50 9a 0e 3e cd 11 fb bd
       0.13793975 0.008509331 0.13926053 -0.122592546
0000b0 ba c6 e2 b8 34 2a 65 3d 41 9f ba 3d fd e9 69 bd
       -0.000108135355 0.05594845 0.091124065 -0.057107914
0000c0 49 cc 66 bd 32 a6 ae 3c 49 63 03 3e 91 4d fe 3d
       -0.056347165 0.021319482 0.12830843 0.12417138
0000d0 00 ee 53 3c 1d 91 ea 3c f9 c4 d7 bd 02 71 fc bd
       0.012935162 0.028633649 -0.105356164 -0.12326242
0000e0 bf 14 c9 bb 16 75 b6 3d f9 1e 3d 38 7c af 00 3e
       -0.0061365063 0.08909051 4.5089957e-05 0.12566942
0000f0 dc bb 05 3e 3c a9 21 3e 46 3c 0a 3e 00 f8 99 3c
       0.13059944 0.15787214 0.13499555 0.018795013
000100 fc f3 f1 3d 8f 7a 05 be 16 17 db bc 17 b3 24 3e
       0.118141145 -0.13035034 -0.026744407 0.16083942
000110 db ba 48 3b 2a 51 82 bd f5 99 f1 bd 22 76 c9 3c
       0.0030628953 -0.06363137 -0.11796943 0.024592463
000120 80 8d 54 be 22 ba 47 bd f2 b5 d2 bd fc c7 2c be
       -0.20757103 -0.048761494 -0.102886096 -0.16873163
000130 19 f9 83 bd f7 59 12 be 6e 01 27 be b7 e3 a1 3e
       -0.06443996 -0.14292131 -0.16309139 0.31619045
000140 8b b1 23 3d bf 96 e3 bd d9 e5 1b 3e 12 6d 19 3e
       0.03996424 -0.11112737 0.15224399 0.14983013
000150 14 61 0e bd 3d f7 bd 3c af 3b 3f be 5d c2 ef 3d
       -0.03476055 0.023189181 -0.18675111 0.11706994
000160 ac db c7 3d 4d 3b 43 3e 8c a3 fb 3d ee 8f 4b 3e
       0.09758696 0.1906559 0.122870535 0.19879124
000170 6c 6a 41 3e 04 05 e3 be c7 57 34 be 1f 31 46 3d
       0.18888253 -0.44339764 -0.1761161 0.04838669
000180 2b 63 ec bd 01 b4 4d 3e bb 62 eb bd ce 86 b3 bc
       -0.11542352 0.20088197 -0.11493441 -0.021914866
000190 59 df 38 3d fe 13 c5 3d 26 c4 bc 3d 5a cc 50 bd
       0.045134876 0.09622954 0.092171 -0.050976135
0001a0 05 09 3a be 86 31 26 3d 43 c9 b2 3b 58 e9 11 be
       -0.18167503 0.040574573 0.005456121 -0.1424917
0001b0 35 eb 86 3c 27 a5 8a bd dc d5 c8 3c 65 27 c3 bd
       0.016469577 -0.067697816 0.024516039 -0.09528998
0001c0 78 ff 49 3e 3c 59 80 be d3 a9 0d be 20 3a 1f be
       0.1972636 -0.2506808 -0.13834314 -0.15549517
0001d0 23 a9 3f be 62 9a 08 be e7 9d de 3d 43 de 15 3d
       -0.18716864 -0.13340142 0.10869961 0.03658892
0001e0 9a 37 25 3e f2 0d 92 3d 9c d6 b9 bd 28 f7 3f bb
       0.16134492 0.07131566 -0.090741366 -0.0029291604
0001f0 e8 cf db bd ed 97 3d 3e b3 dc 55 3d 83 6e 06 bc
       -0.10733014 0.18514986 0.05221243 -0.008205059
000200 e3 66 04 3d 26 a5 81 be 70 05 4e bd 06 eb 4b 3d
       0.032324683 -0.2532131 -0.050298154 0.049784683
000210 db dd 13 be ee 17 53 be 48 1d d4 3d 7b 14 a5 bd
       -0.144401 -0.20614597 0.103571475 -0.08060547
000220 a6 a7 87 bc a3 20 38 3e b3 7a 09 3e b8 2e c6 3d
       -0.016559433 0.179812 0.13425712 0.0967688
000230 1b 1d 1b 3e 31 c9 b7 bd fc 42 d4 bd 31 0c bf bd
       0.15147822 -0.08973921 -0.10364339 -0.09328497
000240 bb e8 df bd b6 c7 be bd 42 5b 54 bb f0 fa fb bd
       -0.10933062 -0.093154356 -0.0032403027 -0.12303722
000250 2e 72 af bc 15 b5 53 bd 0e 2a 4a be 2b c2 0c be
       -0.02141675 -0.051686365 -0.19742605 -0.13745944
000260 84 43 50 bd 88 24 c6 bd 81 53 97 3c de ab e0 3d
       -0.050845638 -0.096749365 0.018472435 0.10970281
000270 16 f2 80 bd 8c 1e 22 3e 7c 76 97 3d 39 af f3 3d
       -0.06296174 0.15831965 0.07395646 0.118986554
000280 8f 45 ba 3d 8f 41 08 be 00 02 76 bd 19 94 91 bd
       0.090952985 -0.13306259 -0.0600605 -0.071083255
000290 f9 36 58 be 31 6e 86 bc 59 3a 45 be 2c 08 b4 bc
       -0.2111472 -0.016409965 -0.19260539 -0.021976553
0002a0 61 68 19 bc a3 39 0b 3d 1d 2a ea bd 59 0a 50 be
       -0.009363265 0.033990514 -0.11433814 -0.20316447
0002b0 00 4a d1 bd 9d c5 d0 bd 01 e8 29 be 19 c7 6e bd
       -0.102191925 -0.10193942 -0.16592409 -0.058295343
0002c0 26 17 67 3e 50 aa ae 3d 97 df 17 3d 50 ab 10 be
       0.22567424 0.08528578 0.037078466 -0.1412785
0002d0 9c fc 3e bd d4 dc 9b bd 42 8f 9d bd d4 41 64 bd
       -0.046627626 -0.07610479 -0.0769334 -0.05572684
0002e0 dc 49 19 bd b4 40 fc bd c4 63 90 3d c1 46 8f be
       -0.037423953 -0.12317029 0.07050279 -0.27983668
0002f0 fd 90 92 3e 28 bb d0 bd 82 26 60 bd 3b f0 8f 3d
       0.28626242 -0.10191947 -0.054724224 0.07028242
000300 4c d8 dc 3c af c2 e2 3b a8 67 18 3d 48 19 c1 bd
       0.026958607 0.0069201807 0.03720823 -0.0942865
000310 42 94 39 be 39 d1 7d 3e 9e 17 6d bd 1a ad 1a 3e
       -0.18122962 0.24786843 -0.05788385 0.15105096
000320 0f 32 ab bd 1c b0 eb 3d 54 1a e7 bd fa d5 86 bd
       -0.08359157 0.115081996 -0.112843186 -0.065837815
000330 ad 62 ee bd b9 df 2e bd d2 1e 49 bd a3 13 d3 3c
       -0.11639915 -0.042693827 -0.04910166 0.0257662
000340 e6 d2 24 be c4 7f 74 3d ca 2d 5d be d9 f2 e4 3c
       -0.16096076 0.05969216 -0.21599498 0.02794783
000350 47 6e 8d 3d 77 6e 44 3d b1 33 86 be 33 0e 2b be
       0.06905799 0.04795691 -0.26211312 -0.16704635
000360 91 20 dd bd 0d 38 f4 3c dc dc 37 3e 2c bc d5 bd
       -0.10797227 0.029811883 0.17955345 -0.104362816
000370 df a6 26 3e 1a b9 c7 bb c2 0c c6 bd 3c b4 8d 3d
       0.16274594 -0.006095064 -0.09670402 0.069191426
000380 1d e5 fa 3d 38 c0 10 3d 9d 2c 03 3e 00 8e 89 bd
       0.12250731 0.035339564 0.12809987 -0.067165375
000390 41 e6 d3 bb 72 1a 0a 3c 0a 9b 8e 3d 3d ba ce 3d
       -0.0064666574 0.008429157 0.06963165 0.10094116
0003a0 b0 b2 ce bd 4d 04 fd 3d 4f 57 e5 3c 38 73 bb 3d
       -0.10092676 0.12354336 0.027995734 0.091528356
0003b0 5c f6 1c 3e cc 20 a7 3d 22 64 b1 3d 74 a8 01 be
       0.15328354 0.081605524 0.08661677 -0.12661916
0003c0 da c3 f1 3d ee 62 ca 3d b2 3d f3 bd b0 44 2c bc
       0.11804934 0.098821506 -0.11877002 -0.010514423
0003d0 05 5a 69 be 48 dc b3 3d 62 b2 51 be 9e 4e d6 3d
       -0.22788246 0.0878225 -0.20478204 0.10464214
0003e0 cd 1f ba bd f4 0d 72 be b2 32 cb 3d 7e ef ab 3c
       -0.09088097 -0.23638135 0.09921779 0.020988222
0003f0 99 3a 83 3c cf 93 92 3d da b4 f9 3c 1f 01 4b be
       0.016019152 0.071570985 0.030481745 -0.19824646

graph_detector.graph_conv1.lin_r.weight f4 [64, 95]
000000 e8 0a 04 be 7c ee 2e 3c 39 a3 e3 bd d7 34 19 be
       -0.12894785 0.010676976 -0.111151166 -0.14961563
000010 6e e3 04 3e 99 2b 5d 3e c5 e1 04 be ff 9e 20 3e
       0.12977383 0.21598662 -0.12976749 0.15685652
000020 27 9c 29 3e dd 8f 05 be 9b 94 94 be 62 29 46 bd
       0.16563474 -0.1304316 -0.29019627 -0.04837931
000030 d5 bd 32 bd 42 41 48 be 14 7a 2a be 8a b9 ce 3c
       -0.04363807 -0.19556144 -0.16648132 0.025234956
000040 6f e9 b5 3d 37 0c 56 be 09 f6 e4 bd 98 04 e8 3d
       0.088824145 -0.20903097 -0.1117974 0.11329001
000050 21 93 ce bd f8 1c 8b 3d 35 6f 23 be 06 8a 1e 3e
       -0.10086656 0.06792635 -0.15960391 0.1548234
000060 f2 13 d5 bd 63 7a d6 bd 40 32 42 be 4c 84 b6 3d
       -0.10404195 -0.10472562 -0.18964481 0.089119524
000070 60 26 5b be c4 48 84 3d 65 20 ce bd 3d e9 a8 bc
       -0.21401358 0.064591914 -0.100647725 -0.02061903
000080 58 f8 7e be 69 cb 44 be d0 3e 6c 3c 7c f4 c4 3b
       -0.24899423 -0.1921822 0.014419273 0.00601059
000090 89 7f d7 3d d2 ba 1f 3e 8d ad 36 bd 97 e2 ae 3c
       0.10522372 0.1559861 -0.044599105 0.02134828
0000a0 14 40 0d 3e b9 6a 0b 3c 50 9a 0e 3e cd 11 fb bd
       0.13793975 0.008509331 0.13926053 -0.122592546
0000b0 ba c6 e2 b8 34 2a 65 3d 41 9f ba 3d fd e9 69 bd
       -0.000108135355 0.05594845 0.091124065 -0.057107914
0000c0 49 cc 66 bd 32 a6 ae 3c 49 63 03 3e 91 4d fe 3d
       -0.056347165 0.021319482 0.12830843 0.12417138
0000d0 00 ee 53 3c 1d 91 ea 3c f9 c4 d7 bd 02 71 fc bd
       0.012935162 0.028633649 -0.105356164 -0.12326242
0000e0 bf 14 c9 bb 16 75 b6 3d f9 1e 3d 38 7c af 00 3e
       -0.0061365063 0.08909051 4.5089957e-05 0.12566942
0000f0 dc bb 05 3e 3c a9 21 3e 46 3c 0a 3e 00 f8 99 3c
       0.13059944 0.15787214 0.13499555 0.018795013
000100 fc f3 f1 3d 8f 7a 05 be 16 17 db bc 17 b3 24 3e
       0.118141145 -0.13035034 -0.026744407 0.16083942
000110 db ba 48 3b 2a 51 82 bd f5 99 f1 bd 22 76 c9 3c
       0.0030628953 -0.06363137 -0.11796943 0.024592463
000120 80 8d 54 be 22 ba 47 bd f2 b5 d2 bd fc c7 2c be
       -0.20757103 -0.048761494 -0.102886096 -0.16873163
000130 19 f9 83 bd f7 59 12 be 6e 01 27 be b7 e3 a1 3e
       -0.06443996 -0.14292131 -0.16309139 0.31619045
000140 8b b1 23 3d bf 96 e3 bd d9 e5 1b 3e 12 6d 19 3e
       0.03996424 -0.11112737 0.15224399 0.14983013
000150 14 61 0e bd 3d f7 bd 3c af 3b 3f be 5d c2 ef 3d
       -0.03476055 0.023189181 -0.18675111 0.11706994
000160 ac db c7 3d 4d 3b 43 3e 8c a3 fb 3d ee 8f 4b 3e
       0.09758696 0.1906559 0.122870535 0.19879124
000170 6c 6a 41 3e 04 05 e3 be c7 57 34 be 1f 31 46 3d
       0.18888253 -0.44339764 -0.1761161 0.04838669
000180 2b 63 ec bd 01 b4 4d 3e bb 62 eb bd ce 86 b3 bc
       -0.11542352 0.20088197 -0.11493441 -0.021914866
000190 59 df 38 3d fe 13 c5 3d 26 c4 bc 3d 5a cc 50 bd
       0.045134876 0.09622954 0.092171 -0.050976135
0001a0 05 09 3a be 86 31 26 3d 43 c9 b2 3b 58 e9 11 be
       -0.18167503 0.040574573 0.005456121 -0.1424917
0001b0 35 eb 86 3c 27 a5 8a bd dc d5 c8 3c 65 27 c3 bd
       0.016469577 -0.067697816 0.024516039 -0.09528998
0001c0 78 ff 49 3e 3c 59 80 be d3 a9 0d be 20 3a 1f be
       0.1972636 -0.2506808 -0.13834314 -0.15549517
0001d0 23 a9 3f be 62 9a 08 be e7 9d de 3d 43 de 15 3d
       -0.18716864 -0.13340142 0.10869961 0.03658892
0001e0 9a 37 25 3e f2 0d 92 3d 9c d6 b9 bd 28 f7 3f bb
       0.16134492 0.07131566 -0.090741366 -0.0029291604
0001f0 e8 cf db bd ed 97 3d 3e b3 dc 55 3d 83 6e 06 bc
       -0.10733014 0.18514986 0.05221243 -0.008205059
000200 e3 66 04 3d 26 a5 81 be 70 05 4e bd 06 eb 4b 3d
       0.032324683 -0.2532131 -0.050298154 0.049784683
000210 db dd 13 be ee 17 53 be 48 1d d4 3d 7b 14 a5 bd
       -0.144401 -0.20614597 0.103571475 -0.08060547
000220 a6 a7 87 bc a3 20 38 3e b3 7a 09 3e b8 2e c6 3d
       -0.016559433 0.179812 0.13425712 0.0967688
000230 1b 1d 1b 3e 31 c9 b7 bd fc 42 d4 bd 31 0c bf bd
       0.15147822 -0.08973921 -0.10364339 -0.09328497
000240 bb e8 df bd b6 c7 be bd 42 5b 54 bb f0 fa fb bd
       -0.10933062 -0.093154356 -0.0032403027 -0.12303722
000250 2e 72 af bc 15 b5 53 bd 0e 2a 4a be 2b c2 0c be
       -0.02141675 -0.051686365 -0.19742605 -0.13745944
000260 84 43 50 bd 88 24 c6 bd 81 53 97 3c de ab e0 3d
       -0.050845638 -0.096749365 0.018472435 0.10970281
000270 16 f2 80 bd 8c 1e 22 3e 7c 76 97 3d 39 af f3 3d
       -0.06296174 0.15831965 0.07395646 0.118986554
000280 8f 45 ba 3d 8f 41 08 be 00 02 76 bd 19 94 91 bd
       0.090952985 -0.13306259 -0.0600605 -0.071083255
000290 f9 36 58 be 31 6e 86 bc 59 3a 45 be 2c 08 b4 bc
       -0.2111472 -0.016409965 -0.19260539 -0.021976553
0002a0 61 68 19 bc a3 39 0b 3d 1d 2a ea bd 59 0a 50 be
       -0.009363265 0.033990514 -0.11433814 -0.20316447
0002b0 00 4a d1 bd 9d c5 d0 bd 01 e8 29 be 19 c7 6e bd
       -0.102191925 -0.10193942 -0.16592409 -0.058295343
0002c0 26 17 67 3e 50 aa ae 3d 97 df 17 3d 50 ab 10 be
       0.22567424 0.08528578 0.037078466 -0.1412785
0002d0 9c fc 3e bd d4 dc 9b bd 42 8f 9d bd d4 41 64 bd
       -0.046627626 -0.07610479 -0.0769334 -0.05572684
0002e0 dc 49 19 bd b4 40 fc bd c4 63 90 3d c1 46 8f be
       -0.037423953 -0.12317029 0.07050279 -0.27983668
0002f0 fd 90 92 3e 28 bb d0 bd 82 26 60 bd 3b f0 8f 3d
       0.28626242 -0.10191947 -0.054724224 0.07028242
000300 4c d8 dc 3c af c2 e2 3b a8 67 18 3d 48 19 c1 bd
       0.026958607 0.0069201807 0.03720823 -0.0942865
000310 42 94 39 be 39 d1 7d 3e 9e 17 6d bd 1a ad 1a 3e
       -0.18122962 0.24786843 -0.05788385 0.15105096
000320 0f 32 ab bd 1c b0 eb 3d 54 1a e7 bd fa d5 86 bd
       -0.08359157 0.115081996 -0.112843186 -0.065837815
000330 ad 62 ee bd b9 df 2e bd d2 1e 49 bd a3 13 d3 3c
       -0.11639915 -0.042693827 -0.04910166 0.0257662
000340 e6 d2 24 be c4 7f 74 3d ca 2d 5d be d9 f2 e4 3c
       -0.16096076 0.05969216 -0.21599498 0.02794783
000350 47 6e 8d 3d 77 6e 44 3d b1 33 86 be 33 0e 2b be
       0.06905799 0.04795691 -0.26211312 -0.16704635
000360 91 20 dd bd 0d 38 f4 3c dc dc 37 3e 2c bc d5 bd
       -0.10797227 0.029811883 0.17955345 -0.104362816
000370 df a6 26 3e 1a b9 c7 bb c2 0c c6 bd 3c b4 8d 3d
       0.16274594 -0.006095064 -0.09670402 0.069191426
000380 1d e5 fa 3d 38 c0 10 3d 9d 2c 03 3e 00 8e 89 bd
       0.12250731 0.035339564 0.12809987 -0.067165375
000390 41 e6 d3 bb 72 1a 0a 3c 0a 9b 8e 3d 3d ba ce 3d
       -0.0064666574 0.008429157 0.06963165 0.10094116
0003a0 b0 b2 ce bd 4d 04 fd 3d 4f 57 e5 3c 38 73 bb 3d
       -0.10092676 0.12354336 0.027995734 0.091528356
0003b0 5c f6 1c 3e cc 20 a7 3d 22 64 b1 3d 74 a8 01 be
       0.15328354 0.081605524 0.08661677 -0.12661916
0003c0 da c3 f1 3d ee 62 ca 3d b2 3d f3 bd b0 44 2c bc
       0.11804934 0.098821506 -0.11877002 -0.010514423
0003d0 05 5a 69 be 48 dc b3 3d 62 b2 51 be 9e 4e d6 3d
       -0.22788246 0.0878225 -0.20478204 0.10464214
0003e0 cd 1f ba bd f4 0d 72 be b2 32 cb 3d 7e ef ab 3c
       -0.09088097 -0.23638135 0.09921779 0.020988222
0003f0 99 3a 83 3c cf 93 92 3d da b4 f9 3c 1f 01 4b be
       0.016019152 0.071570985 0.030481745 -0.19824646
