Model/checkpoint/Graph_Conv_AE_har_clean/31641-G.ckpt (torch, 711311 bytes, 58 tensors)

projection f4 [1, 18, 79, 79]
00000000: fc32 263d 63e3 05bd 1b6f 65bc 44ad 79bd
00000010: fcec e6bd c66f 053e 5c48 bfbd f6ed ddbc
00000020: c72d c3bc b570 fdbc 767e 623d 58ee f1bd
00000030: a516 b1bc c916 2e3d 12f7 e4bc 429e b23d
00000040: 6093 92bd 3ef3 45be 0229 80bc e967 1abe
00000050: 5a8e aabc fe87 c63c 5894 0abe 8dde f2bd
00000060: 4605 a0bd 82b1 cbbd 67dc bb3d 9df9 993d
00000070: 1acc 6bbd 3bc0 fc3c 9ac1 913d 65c4 0abe
00000080: 3c50 b13d 2542 bd3d c469 a43c 892f e1bc
00000090: cf9b 0b3d 46b0 dcbd 2dd0 1ebe 57a9 52be
000000a0: 047c 633c c635 01be bdf2 6abd a733 213d
000000b0: f188 f8bd c26c b7bd 05f3 ef3b afb2 9cbb
000000c0: 5a01 363e 3846 f4bc 5a30 2dbe 2e47 e7bd
000000d0: 93bf 89bd b0e2 00bd 945e abbd 826a 32bd
000000e0: a4d2 89bd 4004 2dbe bb07 3c3d 70c5 cdbd
000000f0: 01c3 abbc 39ae 1fbd d019 04be 2558 04bd
00000100: 98ef 403d 598e 1c3d b9c3 f63d 8cc9 f23c
00000110: 4a2c af3d 40dd cc3d a1e7 e03d 89f4 fb3b
00000120: 9b49 12be d45d 433e d187 c23c c3a3 153e
00000130: 6132 48bd 5449 9f3d 0488 e6bd d9da 303e
00000140: cee4 38bd f4c8 863d d2df 443e f211 01be
00000150: 4a82 eb3d 449f ef3d 2190 853e 6943 aabe
00000160: d934 953d 4f3f f43c 69d2 243d 8af1 5a3e
00000170: ee55 03bf 2646 4a3e 2095 95bc be44 c73c
00000180: 255f a53e ba1f e1bd 48e0 20be 1080 7c3e
00000190: e7c3 89bc cb91 bb3d 6cfe 933e 17d1 393e
000001a0: b729 933d 2ed1 f0bc 6fc8 adbd 2527 c63b
000001b0: 3d97 613e aced c13d dfc4 1ebe 56e6 f3bc
000001c0: 63d6 c53e 6522 493d cd82 a8bc 0fcc cebc
000001d0: 29dc a1be c8f9 0cbe 8833 3b3e 2583 cd3d
000001e0: e706 103e a074 d2bd 7470 53be 40b4 10be
000001f0: c571 be3e 3b33 10be d707 91bd ea25 1abe
00000200: 7aed be3d 2767 61be 6446 89be d9b4 73be
00000210: 6e5c c8bb 83d6 46be 12c6 143e 5546 83bc
00000220: 8a6d 02be 600c aabd 6e01 61bd 1037 3fbe
00000230: 7b35 4bbe 51a2 333e e439 56be 112d 6cbe
00000240: cd82 a63d 29f7 5e39 0ce7 4b3e b910 a63d
00000250: cb89 13bb 0024 293e cbfc ba3e d8c5 e13a
00000260: d607 ac3d 46e8 51bd fdcb 0f3d da05 04be
00000270: f2f3 4abe 7d7a ee3d d1aa 86bd 50bd 583e
00000280: 8f89 a63a 37e0 103e f9f5 18bd e519 87bd
00000290: 6efc 033e 92f4 9e3d 217e 093e 9b3c 27bd
000002a0: daeb 61bd 7ed9 78bd 0bce c8bd 5f32 053c
000002b0: 7802 263e a691 e0bd 6a99 d7bb a401 95bc
000002c0: e047 f3bd 397e a63b 041e 1b3e 678f 713c
000002d0: 0d26 4f3c 7901 72bd a640 6f3b ef87 3c3d
000002e0: 312e e8bd 4861 6ebe 115d f4bd bb58 58be
000002f0: 0e58 d53d d2f0 a63d 77a6 31be 46d7 e33d
00000300: 8102 d4bd 4873 c9ba 6afd 043e 8ebe 3e3d
00000310: d59e 4b3d 28dc 0b3e 6aeb 06be b2fc 8fbd
00000320: 6665 0d3e a985 633e 2b2d 663e f0c2 6f3e
00000330: 304e f9bd ec45 97bd 7891 e9bd b73e 2abe
00000340: 0b57 2a3e 72ce 5cbc c03d 2e3d 1a74 4b3e
00000350: d602 f23d 8996 d63d 87c1 0dbd 035e 0c3e
00000360: 7a0b 0f3e d8b2 4d3e ee09 dc3d 29f5 d7bd
00000370: f824 1bbe 2813 383a 248d 2d3d 4354 94bd
00000380: c32a b5bc ec5a 16be d830 18be 4da5 853d
00000390: 9031 46be 8f9d 0bbe f6bc 4d3e 690e 64bd
000003a0: a9c5 bdbc 2e99 a9bd a683 723d 4d4e 44bd
000003b0: 72be d13d dc1c b3bc 8240 42bc 05f0 bdbc
000003c0: 4ce5 253d a564 e23c 1c3e a8bd 1dd5 8dbd
000003d0: bdb1 7f3d 2385 c9bd 4642 723d 4c04 993d
000003e0: 1d59 973c 052f 66bc eff6 a7bd 22f9 5b3b
000003f0: a20c 913c 8989 d93c fd0d b73c 2363 6dbd
0.040575966 -0.032687556 -0.01400354 -0.060956255 -0.1127567 0.1303092 -0.09339973 -0.027091008
-0.02382554 -0.030937532 0.055296384 -0.118130386 -0.021617243 0.0425022 -0.027949844 0.087215915
-0.07157016 -0.19331071 -0.015644554 -0.15078701 -0.020819832 0.024234768 -0.13533151 -0.118588544
-0.07813506 -0.09945966 0.09172898 0.07518313 -0.057567693 0.030853381 0.07117005 -0.13551481
0.086578816 0.09241132 0.020069964 -0.027488487 0.034084138 -0.10775809 -0.155091 -0.2057241
0.013884548 -0.12618169 -0.0573604 0.0393559 -0.121354945 -0.08956291 0.0073226714 -0.004782043
0.17773953 -0.02981864 -0.16912976 -0.11292873 -0.06725993 -0.031466186 -0.08367649 -0.043558605
-0.0672963 -0.16896152 0.04590581 -0.10047424 -0.020967009 -0.03898451 -0.12900472 -0.032310624
0.047103494 0.03822169 0.1204905 0.02963712 0.08553369 0.100031376 0.1098168 0.007689063
-0.14285891 0.19078761 0.023746403 0.14613251 -0.04887617 0.07777658 -0.11256412 0.17270984
-0.04514008 0.065812975 0.19226006 -0.12604502 0.1149946 0.117002994 0.26086524 -0.33254555
0.072854705 0.029815344 0.040239725 0.21381202 -0.51302993 0.19753322 -0.018259585 0.024324771
0.32299152 -0.109923795 -0.15710557 0.24658227 -0.016817046 0.09158667 0.28905046 0.18146168
0.07185691 -0.02939662 -0.08485495 0.006047147 0.22030349 0.094691604 -0.15504788 -0.029772919
0.38640127 0.049105067 -0.020570183 -0.025243787 -0.3161328 -0.13767159 0.18281376 0.100347795
0.14065133 -0.10276151 -0.20648366 -0.1413126 0.37196174 -0.14082043 -0.070815735 -0.15053526
0.09322639 -0.22012006 -0.26811516 -0.23799457 -0.006114534 -0.19417767 0.14528683 -0.016024748
-0.12737098 -0.083031416 -0.054933004 -0.18673348 -0.1984462 0.17542388 -0.20920521 -0.23064066
0.08130417 0.00021263644 0.19912356 0.08108658 -0.002251255 0.16517639 0.3652099 0.00172251
0.08399932 -0.051246904 0.035106648 -0.12892857 -0.1981962 0.116444565 -0.065755494 0.21165967
0.001270579 0.14148031 -0.037343953 -0.06596736 0.12889263 0.07761492 0.1342702 -0.040829282
-0.055156566 -0.06075429 -0.098049246 0.008129685 0.16211879 -0.1096528 -0.0065795677 -0.018189259
-0.118789434 0.005080965 0.15148169 0.014743662 0.012643349 -0.059083436 0.003650704 0.046028074
-0.11336935 -0.23279297 -0.119318135 -0.21127598 0.10417186 0.081514016 -0.17348658 0.111250445
-0.1035204 -0.001536944 0.12987295 0.046568446 0.04971202 0.13658202 -0.13175741 -0.0703062
0.13808212 0.22218956 0.22478168 0.23414207 -0.12173116 -0.073863834 -0.11404699 -0.16625486
0.16634767 -0.013476955 0.04253936 0.19868508 0.11816947 0.10477931 -0.03460839 0.13707738
0.13969222 0.20087755 0.107440814 -0.105448075 -0.15150821 0.00070218975 0.04237093 -0.07242634
-0.022115117 -0.14683121 -0.14862382 0.06525669 -0.19354844 -0.13634323 0.20091614 -0.055677805
-0.02316554 -0.0828117 0.05920758 -0.047926236 0.10241403 -0.021864347 -0.0118562 -0.02318574
0.040501878 0.027635882 -0.082149714 -0.06925414 0.062425364 -0.09839847 0.059145235 0.07471523
0.01847511 -0.014049296 -0.08201396 0.0033565243 0.01770622 0.02655484 0.022345537 -0.057955872

sensor_embedding.weight f4 [18, 16]
00000000: bad3 6bbf 1f8a 0abf a2d4 d53d 1352 dfbc
00000010: 7402 683f 02cf 84bf 13dd 8ebf 1693 a3bf
00000020: 253c 4fbe 36d0 383f 65fe 01be 0c4e 3ebf
00000030: 9a42 293f f792 32be d619 08bf b268 18bf
00000040: d15c 0c3f 0b63 003d baed 06c0 c0b3 cdbd
00000050: 1ee5 803e ff49 d9be 7988 f0bf 495c 883f
00000060: 3159 95bf d497 9fbf 22c6 ef3e 6935 04bf
00000070: 16b3 cebe cefd 7b3e 72d3 01c0 82c1 0a3f
00000080: 11f0 0840 5503 94be 1a43 a33e 3099 c1bf
00000090: 263a a13f 5658 dcbf 1880 d0bd f771 0fbf
000000a0: b056 b0be daf9 133f db45 3f3f 96e9 ee3e
000000b0: e532 3bbf b258 9dbd 5bff d8bf 2fbb 893f
000000c0: db06 42bd 7eb4 a53f aebc 943e 6b7f a93f
000000d0: 2a24 e4bf c46e babf 053e d7bf 7e25 8d3c
000000e0: 68c9 013e dc70 913f 619e 4f3e ae40 223f
000000f0: 780d 8ebf 6e88 81bf 6dec 15bf 2432 663f
00000100: 912a 203f 9021 aa3f 0d1a 303f 62b1 ad3c
00000110: 6a6f a4be 3578 87bf eabb ca3d d128 6bbe
00000120: 2c57 f7bf 5b8d 473c f318 64bf 9280 e4be
00000130: 7cd8 83be b4d8 3ebf 5a8c adbf 9312 4bbf
00000140: 18db bebe ac0f 343f 04c7 6d3e f10e aebf
00000150: 5ae6 b83f 9c1d 453f c239 fe3e fbee 22bf
00000160: d6b4 a0bf caf1 cd3e 9a12 bebe c933 563e
00000170: 5e71 bfbf 85a2 b43f c6a1 cd3e af86 46bf
00000180: 27f9 9f3f 8076 8f3f 2cbf e43d e113 953f
00000190: 45fd 5abc 0c31 d0be d135 833f 23f7 ba3d
000001a0: 35ae 8d3e cb0c aabf 659f 45bf a97d 0d3f
000001b0: 7399 96bf 7490 773e b685 473f e911 32bf
000001c0: bd2a 613e 7f8c 613e dfaa 993f 1698 a23e
000001d0: 4594 883f 069e 303f 2320 3bc0 b13c 43bc
000001e0: 7a4e 84be add0 b1bd f93c 4d3f 75da 6f3f
000001f0: 20bd bd3e 2409 2fbe 892a ccbd 6746 c9bf
00000200: 34e1 87bf 7647 1ec0 2890 4e3e dce6 0ebe
00000210: 1d25 a33e 5bb9 2fbf a0c1 903f e4e4 96bf
00000220: c0f7 d7bf 1c00 b6be 9bc3 b03c b301 5ebf
00000230: 9b24 1ebf 44ad e83e 77f2 5bbf 61f0 5a3c
00000240: 236c 9f3f fbd6 8d3e de1d 083e b5ff 27bf
00000250: 9f9b 2f3c 8bcf 8cbe ae1c c33f e178 c33d
00000260: 60e3 603f f733 af3f a31d d7be d16b f83e
00000270: 4224 9f3f 51ea f7bd 5750 6e3e e0c7 6a3f
00000280: 05df 2940 b357 e2bf 8bb1 00be 7e6d d13f
00000290: 0b7e 0ac0 ad8f b93f 7716 0dbf d409 3dbf
000002a0: 6f56 7cbe 0938 3cbf ffc2 1bbe 6128 c3bf
000002b0: 714f bdbd d8c4 3b3f dc37 973e 4003 cdbf
000002c0: b6b9 e23d 4f5c e33d 6334 543e b5bb 0f3f
000002d0: 41c6 443f d74a 18bf c228 4bbf 0701 a33f
000002e0: 346b 1e40 2f27 8a3f 0a4c b13f 15cd 04c0
000002f0: 9046 ccbe bc20 e0be 4a28 c0be 558a 94be
00000300: 437f 2f3f 8ab5 ed3f 6ce8 1a3e 8999 e5bf
00000310: 20d8 40be 033d a73e f34f 5fbf 66e3 51bf
00000320: b16a 86bf 87f2 2fbf c890 87bf ba22 6e3f
00000330: 887f 993d 7e40 aa3e ed2f 3d3f ed8b 8bbe
00000340: 9bc3 d23e db27 cf3c a871 6c3f 0f5b 603f
00000350: cbfb 743e 8efa fc3f 8d42 b6bf aa3f e63e
00000360: 380b 053d cf9a 163f 0c64 9cbf 22f4 bbbe
00000370: 08eb 89be b257 843f 97bb 0340 a4af 9fbc
00000380: aaba 493e 048a 8cbf 3507 75be 7313 853f
00000390: 4b4e 9fbe 1c67 7e3f 9ebf a03f 0831 e1bd
000003a0: 7805 8a3e 0322 abbf 0430 d63f 8c6b 993e
000003b0: a1f0 c43f 2943 c63e d424 9d3f 104e 07c0
000003c0: ad0f 99bf 5161 9e3e 36d1 8abe f3ab 943f
000003d0: 1ed8 b1bf a926 5b3e 144e a23c 37ee ac3f
000003e0: 8d44 ffbe e6c8 1d3f 9319 77bf afd8 be3f
000003f0: d8b5 5d3f 3443 3fbf 19db f43f c7ba 1dbf
-0.92119944 -0.54117006 0.10440947 -0.027260816 0.90628743 -1.0375674 -1.1161216 -1.2779262
-0.20237787 0.72192705 -0.126947 -0.7433784 0.6611725 -0.17438875 -0.5316442 -0.5953475
0.54829127 0.031344455 -2.1082597 -0.1004405 0.25174803 -0.42439267 -1.8791648 1.0653163
-1.1667844 -1.2468209 0.4683085 -0.51644 -0.40371007 0.24608538 -2.0285306 0.5420152
2.1396525 -0.28908792 0.31887132 -1.5124874 1.259587 -1.7214458 -0.10180682 -0.5603327
-0.34441137 0.5780312 0.74715966 0.46662587 -0.73124534 -0.07682933 -1.6952928 1.0760249
-0.04736982 1.2945707 0.290502 1.324201 -1.7823536 -1.4565053 -1.6815802 0.017229792
0.12674487 1.1362567 0.2027526 0.63379943 -1.109786 -1.011976 -0.5856388 0.8992026
0.6256495 1.3291492 0.6878975 0.021202747 -0.32116252 -1.0583559 0.09899123 -0.22964789
-1.9323478 0.012179698 -0.8910057 -0.4462934 -0.25751102 -0.7454941 -1.3558457 -0.79325217
-0.3727653 0.70336413 0.2322045 -1.359831 1.4445298 0.76998305 0.4965344 -0.63645905
-1.2555187 0.40223533 -0.37123567 0.20918192 -1.4956472 1.4112097 0.40162486 -0.7754926
1.249791 1.1208038 0.11169276 1.1646692 -0.013366048 -0.4066242 1.0250798 0.09129169
0.27671972 -1.3285154 -0.7719634 0.5526987 -1.1765579 0.24176198 0.779384 -0.6955858
0.2198896 0.22026251 1.2005271 0.31756657 1.0670248 0.68991125 -2.9238365 -0.011916325
-0.25841123 -0.0868238 0.8017116 0.93692714 0.37058353 -0.1709333 -0.099690504 -1.572461
-1.0615602 -2.4731116 0.20172179 -0.13955253 0.31864253 -0.68642205 1.130909 -1.1788602
-1.6872482 -0.35546958 0.021577647 -0.8672134 -0.61774606 0.4544469 -0.85916847 0.013362975
1.2454876 0.2770308 0.13292643 -0.6562455 0.010718255 -0.27502093 1.5243127 0.0954454
0.87846947 1.3687733 -0.420148 0.48519757 1.243294 -0.12105239 0.23272835 0.91711235
2.654237 -1.7683014 -0.12567727 1.6361539 -2.163943 1.4496971 -0.55112404 -0.7384312
-0.24642347 -0.73523 -0.15211104 -1.5246698 -0.09243668 0.73347235 0.29534805 -1.6016617
0.11070578 0.11101591 0.20723109 0.56145793 0.7686501 -0.59489197 -0.79359066 1.2734689
2.4752932 1.0793208 1.385133 -2.0750172 -0.39897585 -0.43774974 -0.37530738 -0.2901179
0.6855356 1.8571026 0.15127724 -1.793748 -0.18832445 0.32663736 -0.8723137 -0.8198761
-1.050131 -0.6872944 -1.0591059 0.9302174 0.07495028 0.3325233 0.73901254 -0.27255192
0.4116486 0.02528756 0.92360926 0.87638944 0.23924176 1.9763963 -1.423906 0.44970447
0.032481402 0.5882997 -1.2218032 -0.36709696 -0.26937127 1.0339262 2.0583246 -0.019492932
0.19700113 -1.0979619 -0.2392853 1.039656 -0.3111442 0.9937608 1.2558477 -0.1099568
0.26957297 -1.3369755 1.6733403 0.29964864 1.5385934 0.38723114 1.2276864 -2.1141396
-1.1957909 0.30933622 -0.2711274 1.1614975 -1.3894079 0.21401466 0.019812621 1.3510197
-0.49856988 0.6163467 -0.965234 1.4909877 0.86605597 -0.7471192 1.9129363 -0.61613125

lin1.weight f4 [16, 16]
00000000: 6631 473e 7888 43be 7ef0 5cbe 282e c1bd
00000010: f8e6 36bd 68cc f2bd d07b 59bd e475 b13d
00000020: 0c51 7e3e 0020 eebc 80ed 7abc e883 75bd
00000030: 948b bdbd a0c4 a93c a696 7f3e 9839 9bbd
00000040: b0b4 7c3e 6411 8a3d ac44 1e3e 54fc 013e
00000050: 6c62 98bd 40d1 c9bc a294 273e a07d a4bc
00000060: b06b cfbd 908f 733e 6c4f 8a3d d428 f03d
00000070: 2edd 413e bc8f 8dbd 547f 3bbe dcc9 c93d
00000080: 886e 0c3d f0cf 11bd b8e8 02be 0a96 2c3e
00000090: 6856 90bd e48c 5e3e e0f0 603e 74f2 043e
000000a0: a2f2 31be 9414 7f3e 7e39 6f3e 84a6 79be
000000b0: d8a0 7bbe 1cdc 00be 00ea c1ba 4026 38be
000000c0: 34d3 663e d050 a23c 2810 5e3d c063 7f3e
000000d0: a497 483e c0b6 2a3e a8a2 70be c81c 00bd
000000e0: 8093 25bd 705d 90bd f620 543e c406 73be
000000f0: 3299 13be 0c4b fd3d 3c43 d33d da47 123e
00000100: dee9 2bbe c61d 623e 4c18 a43d 76c0 4abe
00000110: c070 52bc b06c 7abd 50d8 e83d 407d 37bd
00000120: 1ca5 173e 28b0 b5bd 38f4 05bd 2856 85bd
00000130: aa65 5bbe e8b3 6b3d 0cf8 d83d 8889 e53d
00000140: 1656 0b3e f8a6 2fbd baca 17be 2295 1cbe
00000150: b072 1dbd 9c85 fd3d d46e 2c3e fcb2 3c3e
00000160: 1437 c0bd 78ca 783e 5c91 88bd 4ce9 f83d
00000170: e823 af3d 78e4 793e 3242 2bbe 2858 46be
00000180: 5051 1ebe 6c89 45be b05b 6d3e cc8f 9e3d
00000190: 3ee6 47be 68dc e3bd 22a9 7fbe 224b 3ebe
000001a0: 18ef 503d 7291 22be 78a3 4e3e 38f3 db3d
000001b0: 8498 b6bd 1ac1 513e e8ee 3b3d 581d cf3d
000001c0: 069f 503e e0c8 70bd bc44 0bbe 7c44 51be
000001d0: 40ef 493c 402b 32bc ce9c 3f3e 32a6 363e
000001e0: 0055 6ebe 20b7 753e 90a4 253d 48f5 9c3d
000001f0: d406 03be c833 62be b007 a83d 304a 02bd
00000200: fc0a b53d 00f8 043c 6ca5 133e 5478 fcbd
00000210: 0482 433e e055 163d eeb3 48be 10e1 debc
00000220: 20d6 66bd e09a 783d f60c 5f3e badf 0fbe
00000230: 84aa 5bbe 9c16 723e fe86 733e e06d dd3d
00000240: 8eda 59be 3896 183e 4e2e 53be 92ba 543e
00000250: 18e7 72bd 38d8 ed3d ec4e b43d 0896 2d3d
00000260: 80ec fa3d c020 233c 8cfd e93d f01b e1bc
00000270: c00b cdbd aec9 533e 30af 243e f86b 183d
00000280: 80a2 293c 2063 ed3c 8080 163d 74c5 dbbd
00000290: d80a bb3d 825d 593e 50a7 983d c834 35be
000002a0: f4df 9dbd f2aa 3abe 6054 bdbd 1261 7f3e
000002b0: d6dc 06be 8257 643e e084 e8bc 74a9 8b3d
000002c0: 7cde 37be 44fd 02be c0f5 fabd 541d 8ebd
000002d0: b4a7 9e3d 76a3 053e 9898 7bbe 4001 c73c
000002e0: 5424 c2bd 443d 663e 389e 123d c80a 5fbd
000002f0: 0c8f 2abe 54e8 e2bd f41a 45be 3842 75bd
00000300: c42e d83d 0006 a5ba 6688 65be 8ee9 73be
00000310: 289f 8fbd d8b9 acbd ec23 ba3d c4c4 523e
00000320: 38cf 9cbd 7ea3 62be 1045 7c3e 40b4 cd3b
00000330: 02a5 363e be78 6d3e 103e 853d 48b4 dabd
00000340: 8620 773e 726e 10be be4c 353e 3094 68be
00000350: a686 4abe de71 1cbe 6e76 26be c0ad a0bc
00000360: aa10 103e f0b9 703e 1856 223d d8c0 9a3d
00000370: 18fc d7bd 2053 38bd 2484 2d3e 705b f1bd
00000380: ac53 eebd 8c66 103e 4cea a7bd 8297 383e
00000390: 02cd 17be 9242 0fbe be79 3dbe 4860 663d
000003a0: aecf 453e ac5a 13be 78e7 5fbe 88fa 3c3d
000003b0: bcd3 b9bd 88d7 99bd 12be 623e 40fd 43bd
000003c0: e021 c7bd d4f0 113e 00e3 51bb dc56 0c3e
000003d0: 2839 223d b06e 003d 98ba 25bd 9881 2ebd
000003e0: 6093 e8bc 70ae 623d b856 5dbe 7827 f8bd
000003f0: a02f 13be 3a6c 6a3e b042 183e 10dd de3d
0.19452438 -0.19095027 -0.21576115 -0.09432632 -0.044653863 -0.11855394 -0.053096592 0.08665064
0.24835604 -0.029067993 -0.0153154135 -0.05994025 -0.09255138 0.02072364 0.24959812 -0.075793445
0.24678302 0.06741598 0.15455884 0.12693912 -0.074406475 -0.024635911 0.16365293 -0.020079434
-0.10127962 0.23785233 0.0675343 0.11726537 0.1893203 -0.06912181 -0.1831029 0.09852955
0.0342851 -0.035598695 -0.12784088 0.1685411 -0.07047731 0.21733433 0.21966887 0.12983114
-0.17377713 0.24910194 0.23361775 -0.24379927 -0.24573076 -0.12583965 -0.0014794469 -0.17983341
0.22541505 0.019813925 0.054214627 0.24940395 0.19589096 0.16671276 -0.23499548 -0.031277448
-0.04042387 -0.07049072 0.20715699 -0.2373305 -0.14413908 0.1236783 0.10315558 0.14285222
-0.16788432 0.2208167 0.08012447 -0.1979998 -0.0128442645 -0.06113881 0.11369383 -0.044797182
0.14809078 -0.0887149 -0.03270361 -0.065105736 -0.214255 0.05754462 0.10594186 0.11207873
0.13607058 -0.042883843 -0.14823428 -0.15291265 -0.038439453 0.123789996 0.16839153 0.18427652
-0.09385505 0.24295986 -0.0666835 0.12153873 0.085517704 0.2440356 -0.1672447 -0.19369566
-0.15460706 -0.19290704 0.23179507 0.07742271 -0.19521424 -0.111260235 -0.24966863 -0.18583348
0.051009268 -0.15875795 0.20179546 0.1073975 -0.08915809 0.20483819 0.045882136 0.10113019
0.20373163 -0.05878532 -0.13600439 -0.20436281 0.012325108 -0.010874569 0.1871216 0.17836836
-0.23274612 0.23995638 0.040440142 0.07663971 -0.12795573 -0.22090065 0.08204591 -0.031809032
0.08839986 0.008115768 0.14418572 -0.12327638 0.19092566 0.03670299 -0.19599888 -0.027206928
-0.05635655 0.060694575 0.21782288 -0.14050189 -0.21451765 0.23641437 0.23781964 0.108119726
-0.21274778 0.14901054 -0.20623133 0.20774296 -0.05930242 0.11613506 0.08804116 0.04237941
0.1225214 0.009956539 0.11425313 -0.027479142 -0.10012007 0.20682403 0.16082454 0.037212342
0.010353684 0.02897793 0.03674364 -0.107310206 0.09132928 0.21227077 0.07453787 -0.17695916
-0.07708731 -0.18229273 -0.09244609 0.24939373 -0.1317018 0.22299007 -0.028383672 0.0681943
-0.17955965 -0.12791926 -0.12253904 -0.06939188 0.077468306 0.13050637 -0.24569929 0.024292588
-0.09479585 0.22484308 0.03579542 -0.05445364 -0.1665613 -0.11079469 -0.19248563 -0.059877604
0.10555795 -0.0012590289 -0.22415313 -0.23819563 -0.070127785 -0.084338844 0.09088883 0.20582873
-0.07656711 -0.2213268 0.2463572 0.006277591 0.17836383 0.2319059 0.06505978 -0.10678917
0.241335 -0.14104632 0.17705056 -0.22712779 -0.19777927 -0.15277812 -0.16256115 -0.0196141
0.14068857 0.2350843 0.039632887 0.07556313 -0.1054613 -0.04500115 0.16944939 -0.117850184
-0.11637053 0.14101619 -0.081989855 0.18026546 -0.14824298 -0.13990238 -0.18503472 0.056244165
0.19317505 -0.14390057 -0.21865642 0.046137363 -0.09073588 -0.075118124 0.22142819 -0.04784894
-0.09723258 0.14252025 -0.0032026172 0.13705009 0.03960529 0.03135556 -0.040461153 -0.04260406
-0.028390586 0.055342138 -0.21615112 -0.12116903 -0.14373636 0.22892848 0.1486919 0.10882008

lin1.bias f4 [16]
00000000: 10fb cc3d 04d8 80bd e0d3 043c 18d6 1f3e
00000010: 2c7f 173e 0056 69bb a0c0 e2bc b89d 2fbe
00000020: 2019 cf3c d412 953d 0c30 a8bd 02f9 4bbe
00000030: 5e71 6a3e 8c25 b23d 06f1 753e c0bc afbd
0.10008824 -0.06291202 0.008107156 0.15609014 0.14794606 -0.0035604239 -0.027679741 -0.17150009
0.025280535 0.07278982 -0.08212289 -0.19919208 0.22894809 0.08698568 0.24017724 -0.08580923

lin2.weight f4 [16, 16]
00000000: f807 a0bd e4e0 d5bd 382d 60be 0ada 133e
00000010: 589f 863d 2cf8 4e3e 62a2 203e 286e d83d
00000020: 221e 613e 6861 50be 1c04 a53d 80ce 1b3b
00000030: d6e5 423e 2437 eabd d632 7b3e 8028 be3b
00000040: 00fc d9bb b093 65bd e05d 393c 469f 0a3e
00000050: 9002 14be 7c13 513e 8251 433e f897 c7bd
00000060: 2c89 a83d b88c c43d d04c e93c 80f8 2abb
00000070: 9601 243e 2cb2 923d 2649 7f3e cc73 84bd
00000080: d0c5 5abe de98 32be 7e24 6f3e b880 2bbd
00000090: d820 b83d 48c9 1b3e 422b 003e 4219 2ebe
000000a0: 0411 c3bd 7a6c 10be d417 ee3d 680a 673e
000000b0: ac6e 6a3e 543e a63d 20b4 6e3e 0445 e4bd
000000c0: f2fd 573e 2cfa 253e 702f 7a3e 0638 063e
000000d0: 180d 3ebd 6869 8abd 0af3 6b3e 042e 49be
000000e0: ea44 253e 0299 2a3e 88f9 20be c0ef 7fbc
000000f0: c8ef 3a3d d224 3fbe be65 4bbe 6ed5 13be
00000100: e0ef 093e 0045 3cbd 28ea 84bd 641c ee3d
00000110: 5e7f 4fbe 0895 01be 94a4 1f3e a03b bcbc
00000120: 0e81 08be 809b 113b e4ee 45be 087c 113e
00000130: 801e 093e 0040 4fb9 b077 ea3c 5244 403e
00000140: 88c9 67bd 80df 16be 2a58 10be 10b6 50bd
00000150: f8b8 4bbd 1a1f 563e 2427 e63d ca10 79be
00000160: c402 debd 5c61 70be 16ce 1bbe f035 e73d
00000170: c8be 34be f024 67bd ac95 893d b6e1 413e
00000180: 2c09 a43d f803 373e 9072 bbbc f8dc 78bd
00000190: ac8e fb3d 56a1 17be 7865 98bd ec01 0b3e
000001a0: 72d9 573e d40b 133e 1645 063e c0c0 113c
000001b0: 2005 2ebc 185f ac3d 0c75 553e 26d6 27be
000001c0: 2642 75be 402c 39be 7443 71be 407a 723d
000001d0: b8a6 153d f404 f7bd 3895 6f3d 56e2 4f3e
000001e0: 3c31 9e3d a061 c3bc 36bf 473e f494 fa3d
000001f0: c485 8dbd c096 4fbd 001e dcba e87c 1d3d
00000200: 8442 2bbe 30ed 1ebe 1eba 393e e040 a2bc
00000210: 304f fc3d 5062 9cbd 8819 e5bd 14de aa3d
00000220: dcca 28be c0e8 2e3e ec33 19be 1ee9 103e
00000230: d807 2a3d fa48 55be e0b6 07be d402 eb3d
00000240: 00a8 0cbc 74dc f0bd 6062 26bc f073 5b3e
00000250: 86f2 1bbe f0db c3bc b8a8 c93d d833 e23d
00000260: 7cd8 58be c00f 4ebd c060 82bc b070 013e
00000270: 80aa fbbb 340b 853d f200 7d3e aca5 ae3d
00000280: 18e9 413d e09a 4bbe c0ef f73b 86f0 57be
00000290: b034 62bd 10db f9bc 1284 31be 20d3 fcbc
000002a0: 9213 6ebe 5041 93bc 40a1 a63c b652 173e
000002b0: 708b 85bc e0d9 05be 3a27 5b3e a074 21bc
000002c0: 0495 173e 7c23 443e 00ea f63a f00e c93d
000002d0: bcee 5bbe be9c 313e 34c9 49be 20e0 0dbc
000002e0: 1840 00bd 70d6 60bd 2021 2fbc 58f8 26bd
000002f0: 6616 013e 2846 04be 700a e33d 0055 e93b
00000300: 2010 93bd c4ae b2bd f09e d5bc b46d 553e
00000310: 4899 b53d 4466 35be e846 7abe c85d 0dbe
00000320: 60f7 e0bc 9069 e33d 94e1 00be 7cfc febd
00000330: a88c f83d b262 413e d224 4ebe f055 20be
00000340: 7ce8 ee3d 14f8 d53d 7848 223e 220f 2c3e
00000350: 72f2 56be 20bb 7f3e e062 b23c 081f 7c3e
00000360: c605 6fbe 34b2 e7bd 90ad 37bd 80a7 5cbd
00000370: a010 4d3e 305a a2bc 6c60 ce3d f494 cb3d
00000380: 241b 1cbe f2e7 063e 5032 2ebd 089e d2bd
00000390: 06a3 273e eae7 273e 6026 40bd ccc2 313e
000003a0: 0003 a8bd 10e3 b5bd ba1d 55be 0084 57bc
000003b0: d45b 0fbe 84ee 4dbe 8005 723b 9457 96bd
000003c0: f428 893d 4cd2 ed3d 80c7 cdbd 88bb ae3d
000003d0: 469d 453e c224 48be 1ae2 203e e0dc 41bc
000003e0: 007e 9e3c c070 0dbd e883 d2bd 362d 223e
000003f0: 2a15 043e 32a2 7e3e 9025 8a3c ac69 563e
-0.0781402 -0.10443285 -0.2189225 0.14438644 0.06573361 0.20211858 0.15686944 0.10567886
0.21984151 -0.20349658 0.080574244 0.0023774207 0.19032988 -0.114362985 0.24531111 0.005803168
-0.006652355 -0.05604905 0.011313885 0.1353732 -0.14454103 0.20417589 0.19074062 -0.097457826
0.082292885 0.095971525 0.02847901 -0.002608806 0.1601623 0.0716289 0.24930248 -0.06467399
-0.21364522 -0.17441127 0.23353764 -0.041870803 0.089906394 0.15213501 0.12516502 -0.17001823
-0.0952473 -0.1410388 0.116256386 0.22562563 0.2289378 0.08117357 0.233109 -0.11145976
0.21092966 0.16208714 0.24432158 0.13107309 -0.046399206 -0.06758386 0.23041931 -0.1964646
0.1613957 0.1665993 -0.15720189 -0.015621126 0.04563883 -0.1866639 -0.1986303 -0.14436886
0.13470411 -0.04596424 -0.06489974 0.11626509 -0.2026343 -0.12654507 0.15590125 -0.02297765
-0.1333048 0.002221793 -0.19329411 0.1420747 0.13390541 -0.000197649 0.028621525 0.18776062
-0.05658868 -0.14733696 -0.14096132 -0.05095488 -0.049736947 0.20910302 0.11237934 -0.24322811
-0.10840371 -0.2347464 -0.15215334 0.11289585 -0.17650902 -0.05643171 0.06718001 0.18933758
0.08009562 0.17872608 -0.022881776 -0.060757607 0.12283072 -0.14807639 -0.07441229 0.13574952
0.21079043 0.14359981 0.13112292 0.008896053 -0.010621339 0.08416575 0.20845431 -0.16390285
-0.23951015 -0.18083286 -0.23560888 0.059198618 0.03653595 -0.120614916 0.058491915 0.20301184
0.077242345 -0.023850262 0.19506535 0.12235442 -0.069102794 -0.050680876 -0.0016793609 0.038449198
-0.16724592 -0.15520167 0.18137404 -0.019806325 0.12319791 -0.07635939 -0.1118651 0.08343139
-0.16483635 0.17080975 -0.14961213 0.14151427 0.041511387 -0.2082862 -0.13253355 0.11475149
-0.008584976 -0.11760798 -0.01015529 0.21430945 -0.15229234 -0.023908585 0.09846634 0.11045045
-0.21176332 -0.05030799 -0.015915275 0.12640643 -0.0076802373 0.064962775 0.24707392 0.08527693
0.047341436 -0.19883299 0.007566422 -0.21087846 -0.055226028 -0.030499965 -0.17335537 -0.030862391
-0.23249653 -0.01797548 0.020340562 0.14777645 -0.01630184 -0.13071394 0.21401682 -0.009854466
0.14802939 0.19154161 0.0018838048 0.09817302 -0.21477789 0.17344949 -0.19705659 -0.008659393
-0.031311125 -0.054892004 -0.01068905 -0.040764183 0.126062 -0.12917387 0.11085975 0.0071207285
-0.0718081 -0.0872474 -0.026076764 0.2084263 0.08867127 -0.17714792 -0.24441111 -0.13805306
-0.027461708 0.11104119 -0.12586051 -0.12450501 0.12136203 0.18885306 -0.20131233 -0.15657783
0.116654366 0.10447708 0.15847957 0.16802648 -0.20990923 0.24973726 0.021775663 0.24621212
-0.23342046 -0.113132864 -0.044843256 -0.053870678 0.20025873 -0.019818395 0.10076985 0.0994052
-0.15244728 0.13174418 -0.04252845 -0.10284048 0.16370782 0.16397062 -0.046911597 0.17359465
-0.08203697 -0.08881199 -0.20812121 -0.01315403 -0.13999873 -0.20110518 0.0036929548 -0.07340923
0.06697264 0.116123766 -0.10047817 0.085318625 0.19298276 -0.19545272 0.15711251 -0.011832446
0.01934719 -0.034531355 -0.10279065 0.15837559 0.12898698 0.2486656 0.016863614 0.20938748

lin2.bias f4 [16]
00000000: bc4e e53d f00d 833c 4848 4bbe 0077 63bd
00000010: 3ee1 483e 54d7 5ebe 0008 b639 126d 143e
00000020: c225 00be 3084 763d 145f 18be 34d0 303e
00000030: 0e64 523e 80c2 f73d 5467 3c3e e062 7a3c
0.11196658 0.015997857 -0.19851792 -0.05553341 0.19617173 -0.21761829 0.00034719706 0.14494732
-0.12514403 0.060184658 -0.1488002 0.17266923 0.2054598 0.12097645 0.18398792 0.015282363

graph_detector.graph_conv1.att_l f4 [1, 1, 64]
00000000: d1cf 633d 7fc5 fc3c 0ffd 08be e24e 513e
00000010: 75ba 5b3d 77c9 b5bc a95d 843c a25f af3d
00000020: 5dfc 153e ae85 0cbd da25 273e 2621 c8bd
00000030: 0e57 b4bd 04ef 953c 2ae0 8d3d 4b99 2dbc
00000040: dfc2 bebd bfb9 ba3c fc02 ee3a 9dcb 573e
00000050: ddd2 9d3d 8422 993c 8889 c13c 6f47 24be
00000060: 6869 d73d ef54 cd3b 55b9 c3bd 9624 eb3c
00000070: fc39 89be 8714 853e 851c 813e 1a7f 183d
00000080: b12d 42be 80c8 d7bb b4c7 cb3c 8b20 4e3e
00000090: 96a7 953b d986 80bb 42b9 80bc 6b65 6ebd
000000a0: 0def b33c 5fda afbd 3f16 dabd 59d6 293e
000000b0: b793 293d ea32 9e3c 29a3 333e 4c13 643e
000000c0: 50b8 87bc b963 c3bc 40ef 64bc 9df5 a73e
000000d0: e327 473d df12 293d f4a9 d83c 1bd3 f2bb
000000e0: 7d2b 343c 8178 823d 1646 373d f94b 1d3d
000000f0: 6cf8 bebd cef9 4b3c 5342 8a3e a468 c1be
0.05561811 0.030855892 -0.13377784 0.20440248 0.053644616 -0.022190792 0.016157942 0.085631624
0.1464705 -0.034307174 0.16323033 -0.097719476 -0.08805667 0.018302448 0.069275215 -0.01059563
-0.093145125 0.022793649 0.0018158848 0.21073766 0.077062346 0.018693216 0.02362515 -0.16042875
0.105181515 0.0062662284 -0.09556834 0.028703969 -0.2680205 0.25992224 0.2521707 0.03723059
-0.18962742 -0.0065851808 0.0248755 0.20129602 0.004567097 -0.003922325 -0.015713338 -0.05820219
0.021964574 -0.08586573 -0.10648774 0.16585673 0.041400637 0.019311387 0.1754271 0.22272986
-0.01656738 -0.023851262 -0.013973057 0.32804576 0.048622023 0.041277763 0.026448227 -0.0074104196
0.010996697 0.063706405 0.044744574 0.03840253 -0.093247265 0.012449695 0.27003726 -0.37775147

graph_detector.graph_conv1.att_r f4 [1, 1, 64]
00000000: 8dd3 ec3d b12e 903b 57ec 9d3c 0833 85bd
00000010: d5ee 193e 6382 873e 4a49 82be 2e58 303e
00000020: e5f2 fdbc 5659 9d3e 4d33 e33e 25a3 b1bd
00000030: fb73 7f3e 0624 0ebe 3858 12be fbbf d93c
00000040: 0589 e5bd 737f 963e 10f9 a73c 021a b9bc
00000050: cb73 223d 3bf2 06be 97f2 103e 9609 d63e
00000060: a7ba 773e dcd5 493c a81c 7ebe 06bb c33e
00000070: f649 8dbe 854d a03e 5bbc 5c3e b30c 07be
00000080: 549a f7bd 6d18 09be 7c10 07be 7af3 87be
00000090: 567b e3bd b6f0 fc3d c6e5 183e 6402 a8be
000000a0: 64bf dbbd 3a5e 9fbe b80f 6f3d c938 5fbe
000000b0: 6526 0d3d 9316 babc c1e9 963e da5e 043e
000000c0: 267d adbe 05d9 c23e c067 4f3e 3793 913e
000000d0: 24f3 563e bf33 373e 9ea2 bfbc fbc5 c8be
000000e0: fc7a aabd ccbb 7bbd 4df3 173c 3f73 243d
000000f0: 937d 233e c652 27be 1d53 ad3e faee af3d
0.115637876 0.0044000973 0.019277735 -0.06503874 0.15032513 0.26466665 -0.2544654 0.17221138
-0.03099961 0.3073222 0.44375077 -0.086736955 0.24946587 -0.1388093 -0.14291465 0.026580801
-0.11207775 0.2939411 0.020504504 -0.02259541 0.03966121 -0.13178341 0.1415504 0.41804188
0.24192296 0.012319054 -0.24815619 0.38228625 -0.2759549 0.31309143 0.21556227 -0.13188438
-0.12089983 -0.13388224 -0.13189882 -0.26552945 -0.11107509 0.123505995 0.14931402 -0.32814324
-0.10729864 -0.31126577 0.0583646 -0.21799006 0.034460444 -0.022715842 0.29475215 0.12926808
-0.33884543 0.38056198 0.20254421 0.2843263 0.20991188 0.17890833 -0.023392972 -0.39213547
-0.08324239 -0.061458394 0.009274316 0.04014897 0.15965872 -0.1634017 0.33852473 0.08590503

graph_detector.graph_conv1.bias f4 [64]
00000000: cdce 21bd b409 be3c e2bf 77bc 4c97 37bc
00000010: 2a3e 593c 62b9 223c 0492 2ebd 9840 f53c
00000020: 9ef3 c4bb 8718 7c3c a606 813d efa1 a33c
00000030: 65f5 83bc f1a4 b63a b49b 9fbc f234 32bd
00000040: f2dc 243d 48f5 ce3b 4181 7d3d 5af6 503c
00000050: dbae 833c 85e0 2fbb f18d 0cbd de7d e23c
00000060: bcd0 8e3d 55cc ae3c 8b8b 4a3c fe0b 913b
00000070: c8f6 5b3d ca66 8bbd e98b 9f3c 8db1 633b
00000080: 3025 58bd f277 06bd b972 5e3b 3ffc 123c
00000090: f35f 1f3d c6de b53c f79b 253d 48c7 febb
000000a0: 37a0 f8bc 2205 703b 30d0 7e3c 6bcc 07bd
000000b0: 4f7c 35bd dd79 013c 2194 243c e565 b73c
000000c0: 69b9 c53c 4d51 25bd 8ad5 d9bc 8d4a 76bd
000000d0: 287b 8f3c 7907 563d 4bae 2d3c 0b5e 02bc
000000e0: d083 09bd a706 063c 1260 d93c cf1e b9ba
000000f0: 5e7b b33c 2138 a4bc 1eb5 f2bc eb1b 183b
-0.03950386 0.023197986 -0.015121432 -0.011205506 0.01325945 0.009931894 -0.04261972 0.029938027
-0.0060104867 0.015386707 0.06300096 0.019974677 -0.016108224 0.0013934654 -0.019483425 -0.043507524
0.040249772 0.006315861 0.061890844 0.012754047 0.016074589 -0.0026836705 -0.034315053 0.027647909
0.06973407 0.021337667 0.012362371 0.0044264784 0.053702146 -0.06806715 0.019475894 0.003474328
-0.05276984 -0.032829233 0.0033942892 0.008971273 0.038909864 0.022200953 0.040431943 -0.007775221
-0.030349834 0.0036624153 0.015552565 -0.033153933 -0.044308003 0.00790259 0.010045082 0.022387454
0.024136262 -0.040360738 -0.026591081 -0.06012969 0.01751478 0.05225322 0.010600637 -0.007956992
-0.03357297 0.008180297 0.026535068 -0.0014123562 0.021909412 -0.020046296 -0.029627379 0.002321

graph_detector.graph_conv1.lin_l.weight f4 [64, 95]
00000000: 292f c0bd 37eb adbd c4fb 6d3d e6f5 2dbc
00000010: 361e a3bc 5459 0d3e 6c45 683d e5cc abbc
00000020: 24d0 1f3e 450e dc3b bba2 ecbd ad26 8e3d
00000030: 0574 a3ba 0746 883d 55ad c7bc 6fc4 363c
00000040: 9322 893d f310 803c 479f a03d b554 273e
00000050: 8f6c 913c 2975 e4bd eaa4 03bd c456 55bd
00000060: cb1f 093d a9e0 803d c6e4 e4bd a495 123c
00000070: 7816 82bd ec01 793d 3ae4 af3d 82b0 3ebd
00000080: d1ee 7e3d c384 b33d aca3 7fbd 0466 bebd
00000090: 8c71 94bd f748 cfbd 3f97 ca3d 178a 003d
000000a0: 6d9a d6bd 6788 b6bc 4278 ba3c 2166 43bd
000000b0: 731a 1ebc 79a0 2c3e 5146 1c3e 753e d1bc
000000c0: 05ec 993d b312 c0bd 6487 54bd 4d31 093e
000000d0: 0bb6 0f3e a4b5 c83d 5b2d 9cbd 4cbe a13d
000000e0: a37e b2bd e48b 2ebe fa2f 01bd dcb3 bd3d
000000f0: cdb9 163e 91e8 273e 5fa5 f8bd a3f5 ec3d
00000100: 63e0 0fbe 2127 fabc 7b07 53bc 1a46 9a3c
00000110: 3678 b7ba 9a74 cfbb 564b 62bd 0bdb 20bd
00000120: 5b26 1e3e 5c2f 283e 2d5f bd3d bf7a 813e
00000130: 8a56 a83d f988 ed3d 5a82 a33d e3c5 62bb
00000140: caf9 6dbd f849 043e e45d 46bc 6f14 843e
00000150: 3838 a43e 2158 cd3d 4025 a23d 8f97 413e
00000160: 0cd6 323e 8ff5 37bc f1d5 40bc bc82 333c
00000170: 9989 0c3e 52f9 edbd a7b3 543c df2a f83d
00000180: 6652 b13d 0213 263c 83e4 cabd e001 23be
00000190: d156 2cbd f5fd d23d 09ec 6b3d 2d46 59bc
000001a0: 18d4 cdbb b967 8f3d 1260 ba3d 4321 3bbd
000001b0: 31dd 0d3c 2079 c03d 4fde 383e 5d7b 86bc
000001c0: 339e 0c3d 5dde 83bd 2eae 143d b08a 803d
000001d0: 5e80 1dbe 2df4 843c 8893 70bd 32fd 9e3d
000001e0: 7720 56bd e0d8 053d d510 e73c fb54 573d
000001f0: ecb1 293d 0538 a8bb 708f 0a3e 5ae3 1abd
00000200: 7efa 15be 2410 293c 2636 b53d 6cd5 19be
00000210: 06c0 a53d cd4e 0dbe d1bc 2c3e d0d2 eebd
00000220: b074 c03d af21 e1bd 5152 193e 4592 1e3d
00000230: dbb5 023e fd89 77bd ffd9 ab3d 245b 6abd
00000240: d592 4e3b 4a49 b3bd 1057 d33d c892 a53d
00000250: bb7e 6f3d 8224 dbbd 7d05 193e dfcb 2c3e
00000260: c551 803d a74f 15bd 3e51 43ba a484 20be
00000270: dd23 26be a43c 553d 1bd8 78bc 1ada e4bb
00000280: 4739 8a3d ac05 11be aff0 ae3c 73c4 ae3d
00000290: 313b 85bd 6f93 383e 30f5 fcbb 27d1 a1bd
000002a0: a744 413d 088a 23bd a25d debd e532 953c
000002b0: 71a8 ddbd e86e 953d 11c3 763e 0d69 3f3e
000002c0: 7293 b7bd 08bc 9d3d de33 a13e 7ce1 f63e
000002d0: c8a5 e7bd fa72 4d3e f1f9 4bbd cf6e 723e
000002e0: c057 c1be 005e 293e 81f2 1ebe 5b7b a73e
000002f0: ef04 7c3e dc2e 4e3e 6f86 563d 3f07 d7bd
00000300: 568e 0a3e 17ae bb3c 46af 22be f93c 84bc
00000310: bdea 7c3d a6d4 6cbe 766c 14be fa43 833c
00000320: 27d3 bcbc 9c1c 713e cbd4 06bd 6cc9 3cbc
00000330: d049 1dbe d4b3 063e ffc8 97bd 2dba c2bb
00000340: 294b a13d f870 e4bc 18d5 bbbd 7587 983d
00000350: 14c1 fe3d 752f 11be dda4 d13c 6bd7 97bd
00000360: cbff 00be 21c9 21be ec98 36be 9c92 c73d
00000370: f018 60bd d07b 0cbd 2f19 843d ebb6 943d
00000380: 09b0 03bc d8be ee3c a9ad b8bc a46f 143e
00000390: 8522 c63d 3bc0 9a3d 7f0a 2c3d b50a ca3d
000003a0: fe26 d0bd dc58 eb3c 294d 1bbd 7129 833d
000003b0: 840d 05be 1206 f53d 970f 2a3e fb3f abbc
000003c0: 4675 cabd c262 4a3c 8ba2 76bd edf8 56bd
000003d0: fefb ac3d 6fe7 3b3e 13e3 fdbd f7fe 7b3d
000003e0: b9ff 1cbe 1bdd 923d be87 aa3d 1493 07bd
000003f0: ea82 1fbd 7ffc bb3d 8ae6 b53c 72dc b13d
-0.09383995 -0.08492129 0.05810143 -0.010617709 -0.019911867 0.13803607 0.05670683 -0.020971725
0.15606743 0.0067155682 -0.11554476 0.069409706 -0.001247049 0.06653982 -0.024374643 0.011155232
0.06696048 0.015633082 0.0784288 0.16340907 0.01775196 -0.11155159 -0.032139696 -0.0520847
0.033477586 0.062928505 -0.111764476 0.00894681 -0.06351942 0.06079285 0.08588453 -0.04655505
0.06223947 0.08765557 -0.06241195 -0.09296802 -0.0724822 -0.10121339 0.09892129 0.031381693
-0.10478673 -0.022281839 0.022762422 -0.04770482 -0.009649861 0.1685809 0.15261199 -0.025542477
0.0751572 -0.093785666 -0.05188693 0.13397713 0.14034288 0.0980027 -0.07625838 0.078976244
-0.0871556 -0.17045552 -0.031539895 0.09262821 0.14719315 0.16397311 -0.12140917 0.11570289
-0.1405044 -0.030536236 -0.012880201 0.018832255 -0.0013997618 -0.0063310387 -0.055247627 -0.039271396
0.15444319 0.16424316 0.09246669 0.2528896 0.08219631 0.11598391 0.07983847 -0.0034602813
-0.058099546 0.12918842 -0.012107346 0.2579684 0.32074142 0.10026575 0.07917261 0.18905471
0.17464465 -0.011227979 -0.011769758 0.0109564625 0.13724364 -0.1161982 0.012982286 0.12117552
0.086582944 0.010136368 -0.099068664 -0.15918684 -0.042074982 0.10302345 0.057598148 -0.01326136
-0.006281387 0.070022054 0.09100355 -0.045686018 0.008658693 0.09398103 0.18053554 -0.016416246
0.034330558 -0.06438897 0.036298923 0.062764525 -0.15381 0.016229713 -0.058734447 0.07763137
-0.052277055 0.03267753 0.028206268 0.052571278 0.041429445 -0.005133631 0.1353128 -0.037814476
-0.14646336 0.01031879 0.088482186 -0.1502282 0.08093266 -0.13799591 0.16868903 -0.11661303
0.093972564 -0.10992753 0.14972807 0.038713712 0.12764685 -0.06043433 0.08391189 -0.057215825
0.0031520624 -0.08754213 0.1031934 0.08084637 0.05847047 -0.10700323 0.149435 0.16874646
0.06265596 -0.036452916 -0.00074507657 -0.15675598 -0.16224618 0.052059785 -0.015188242 -0.0069840075
0.06749206 -0.1416232 0.021355001 0.085335635 -0.065054305 0.18024991 -0.0077196583 -0.07901221
0.047184613 -0.03992656 -0.10857703 0.018212745 -0.10823143 0.07296544 0.2409785 0.18692417
-0.0896367 0.0770188 0.31484884 0.48218906 -0.11310917 0.20063391 -0.04979891 0.23675083
-0.3776226 0.16539764 -0.15522195 0.327113 0.24611257 0.20135063 0.0523743 -0.10499429
0.1353086 0.022910161 -0.15887174 -0.016142355 0.0617473 -0.23127994 -0.144945 0.016023625
-0.023049904 0.2354607 -0.03291778 -0.011522632 -0.15360188 0.13154536 -0.07411384 -0.005942604
0.07875664 -0.027885899 -0.09171504 0.074477114 0.124391705 -0.1417826 0.025591308 -0.074141346
-0.12597577 -0.15799381 -0.17831773 0.097447604 -0.054711282 -0.034297764 0.06450116 0.07261451
-0.0080375755 0.029143736 -0.022543745 0.14495713 0.09674553 0.07556196 0.042002197 0.098653235
-0.10163687 0.028728895 -0.037915383 0.06404389 -0.12993437 0.119640484 0.1660751 -0.020904532
-0.098856494 0.012352647 -0.060213607 -0.052483488 0.08446501 0.18350004 -0.123968266 0.06152245
-0.15331925 0.07171079 0.08326672 -0.03309925 -0.03894321 0.09179019 0.022204656 0.08684625

graph_detector.graph_conv1.lin_r.weight f4 [64, 95]
00000000: 292f c0bd 37eb adbd c4fb 6d3d e6f5 2dbc
00000010: 361e a3bc 5459 0d3e 6c45 683d e5cc abbc
00000020: 24d0 1f3e 450e dc3b bba2 ecbd ad26 8e3d
00000030: 0574 a3ba 0746 883d 55ad c7bc 6fc4 363c
00000040: 9322 893d f310 803c 479f a03d b554 273e
00000050: 8f6c 913c 2975 e4bd eaa4 03bd c456 55bd
00000060: cb1f 093d a9e0 803d c6e4 e4bd a495 123c
00000070: 7816 82bd ec01 793d 3ae4 af3d 82b0 3ebd
00000080: d1ee 7e3d c384 b33d aca3 7fbd 0466 bebd
00000090: 8c71 94bd f748 cfbd 3f97 ca3d 178a 003d
000000a0: 6d9a d6bd 6788 b6bc 4278 ba3c 2166 43bd
000000b0: 731a 1ebc 79a0 2c3e 5146 1c3e 753e d1bc
000000c0: 05ec 993d b312 c0bd 6487 54bd 4d31 093e
000000d0: 0bb6 0f3e a4b5 c83d 5b2d 9cbd 4cbe a13d
000000e0: a37e b2bd e48b 2ebe fa2f 01bd dcb3 bd3d
000000f0: cdb9 163e 91e8 273e 5fa5 f8bd a3f5 ec3d
00000100: 63e0 0fbe 2127 fabc 7b07 53bc 1a46 9a3c
00000110: 3678 b7ba 9a74 cfbb 564b 62bd 0bdb 20bd
00000120: 5b26 1e3e 5c2f 283e 2d5f bd3d bf7a 813e
00000130: 8a56 a83d f988 ed3d 5a82 a33d e3c5 62bb
00000140: caf9 6dbd f849 043e e45d 46bc 6f14 843e
00000150: 3838 a43e 2158 cd3d 4025 a23d 8f97 413e
00000160: 0cd6 323e 8ff5 37bc f1d5 40bc bc82 333c
00000170: 9989 0c3e 52f9 edbd a7b3 543c df2a f83d
00000180: 6652 b13d 0213 263c 83e4 cabd e001 23be
00000190: d156 2cbd f5fd d23d 09ec 6b3d 2d46 59bc
000001a0: 18d4 cdbb b967 8f3d 1260 ba3d 4321 3bbd
000001b0: 31dd 0d3c 2079 c03d 4fde 383e 5d7b 86bc
000001c0: 339e 0c3d 5dde 83bd 2eae 143d b08a 803d
000001d0: 5e80 1dbe 2df4 843c 8893 70bd 32fd 9e3d
000001e0: 7720 56bd e0d8 053d d510 e73c fb54 573d
000001f0: ecb1 293d 0538 a8bb 708f 0a3e 5ae3 1abd
00000200: 7efa 15be 2410 293c 2636 b53d 6cd5 19be
00000210: 06c0 a53d cd4e 0dbe d1bc 2c3e d0d2 eebd
00000220: b074 c03d af21 e1bd 5152 193e 4592 1e3d
00000230: dbb5 023e fd89 77bd ffd9 ab3d 245b 6abd
00000240: d592 4e3b 4a49 b3bd 1057 d33d c892 a53d
00000250: bb7e 6f3d 8224 dbbd 7d05 193e dfcb 2c3e
00000260: c551 803d a74f 15bd 3e51 43ba a484 20be
00000270: dd23 26be a43c 553d 1bd8 78bc 1ada e4bb
00000280: 4739 8a3d ac05 11be aff0 ae3c 73c4 ae3d
00000290: 313b 85bd 6f93 383e 30f5 fcbb 27d1 a1bd
000002a0: a744 413d 088a 23bd a25d debd e532 953c
000002b0: 71a8 ddbd e86e 953d 11c3 763e 0d69 3f3e
000002c0: 7293 b7bd 08bc 9d3d de33 a13e 7ce1 f63e
000002d0: c8a5 e7bd fa72 4d3e f1f9 4bbd cf6e 723e
000002e0: c057 c1be 005e 293e 81f2 1ebe 5b7b a73e
000002f0: ef04 7c3e dc2e 4e3e 6f86 563d 3f07 d7bd
00000300: 568e 0a3e 17ae bb3c 46af 22be f93c 84bc
00000310: bdea 7c3d a6d4 6cbe 766c 14be fa43 833c
00000320: 27d3 bcbc 9c1c 713e cbd4 06bd 6cc9 3cbc
00000330: d049 1dbe d4b3 063e ffc8 97bd 2dba c2bb
00000340: 294b a13d f870 e4bc 18d5 bbbd 7587 983d
00000350: 14c1 fe3d 752f 11be dda4 d13c 6bd7 97bd
00000360: cbff 00be 21c9 21be ec98 36be 9c92 c73d
00000370: f018 60bd d07b 0cbd 2f19 843d ebb6 943d
00000380: 09b0 03bc d8be ee3c a9ad b8bc a46f 143e
00000390: 8522 c63d 3bc0 9a3d 7f0a 2c3d b50a ca3d
000003a0: fe26 d0bd dc58 eb3c 294d 1bbd 7129 833d
000003b0: 840d 05be 1206 f53d 970f 2a3e fb3f abbc
000003c0: 4675 cabd c262 4a3c 8ba2 76bd edf8 56bd
000003d0: fefb ac3d 6fe7 3b3e 13e3 fdbd f7fe 7b3d
000003e0: b9ff 1cbe 1bdd 923d be87 aa3d 1493 07bd
000003f0: ea82 1fbd 7ffc bb3d 8ae6 b53c 72dc b13d
-0.09383995 -0.08492129 0.05810143 -0.010617709 -0.019911867 0.13803607 0.05670683 -0.020971725
0.15606743 0.0067155682 -0.11554476 0.069409706 -0.001247049 0.06653982 -0.024374643 0.011155232
0.06696048 0.015633082 0.0784288 0.16340907 0.01775196 -0.11155159 -0.032139696 -0.0520847
0.033477586 0.062928505 -0.111764476 0.00894681 -0.06351942 0.06079285 0.08588453 -0.04655505
0.06223947 0.08765557 -0.06241195 -0.09296802 -0.0724822 -0.10121339 0.09892129 0.031381693
-0.10478673 -0.022281839 0.022762422 -0.04770482 -0.009649861 0.1685809 0.15261199 -0.025542477
0.0751572 -0.093785666 -0.05188693 0.13397713 0.14034288 0.0980027 -0.07625838 0.078976244
-0.0871556 -0.17045552 -0.031539895 0.09262821 0.14719315 0.16397311 -0.12140917 0.11570289
-0.1405044 -0.030536236 -0.012880201 0.018832255 -0.0013997618 -0.0063310387 -0.055247627 -0.039271396
0.15444319 0.16424316 0.09246669 0.2528896 0.08219631 0.11598391 0.07983847 -0.0034602813
-0.058099546 0.12918842 -0.012107346 0.2579684 0.32074142 0.10026575 0.07917261 0.18905471
0.17464465 -0.011227979 -0.011769758 0.0109564625 0.13724364 -0.1161982 0.012982286 0.12117552
0.086582944 0.010136368 -0.099068664 -0.15918684 -0.042074982 0.10302345 0.057598148 -0.01326136
-0.006281387 0.070022054 0.09100355 -0.045686018 0.008658693 0.09398103 0.18053554 -0.016416246
0.034330558 -0.06438897 0.036298923 0.062764525 -0.15381 0.016229713 -0.058734447 0.07763137
-0.052277055 0.03267753 0.028206268 0.052571278 0.041429445 -0.005133631 0.1353128 -0.037814476
-0.14646336 0.01031879 0.088482186 -0.1502282 0.08093266 -0.13799591 0.16868903 -0.11661303
0.093972564 -0.10992753 0.14972807 0.038713712 0.12764685 -0.06043433 0.08391189 -0.057215825
0.0031520624 -0.08754213 0.1031934 0.08084637 0.05847047 -0.10700323 0.149435 0.16874646
0.06265596 -0.036452916 -0.00074507657 -0.15675598 -0.16224618 0.052059785 -0.015188242 -0.0069840075
0.06749206 -0.1416232 0.021355001 0.085335635 -0.065054305 0.18024991 -0.0077196583 -0.07901221
0.047184613 -0.03992656 -0.10857703 0.018212745 -0.10823143 0.07296544 0.2409785 0.18692417
-0.0896367 0.0770188 0.31484884 0.48218906 -0.11310917 0.20063391 -0.04979891 0.23675083
-0.3776226 0.16539764 -0.15522195 0.327113 0.24611257 0.20135063 0.0523743 -0.10499429
0.1353086 0.022910161 -0.15887174 -0.016142355 0.0617473 -0.23127994 -0.144945 0.016023625
-0.023049904 0.2354607 -0.03291778 -0.011522632 -0.15360188 0.13154536 -0.07411384 -0.005942604
0.07875664 -0.027885899 -0.09171504 0.074477114 0.124391705 -0.1417826 0.025591308 -0.074141346
-0.12597577 -0.15799381 -0.17831773 0.097447604 -0.054711282 -0.034297764 0.06450116 0.07261451
-0.0080375755 0.029143736 -0.022543745 0.14495713 0.09674553 0.07556196 0.042002197 0.098653235
-0.10163687 0.028728895 -0.037915383 0.06404389 -0.12993437 0.119640484 0.1660751 -0.020904532
-0.098856494 0.012352647 -0.060213607 -0.052483488 0.08446501 0.18350004 -0.123968266 0.06152245
-0.15331925 0.07171079 0.08326672 -0.03309925 -0.03894321 0.09179019 0.022204656 0.08684625

graph_detector.conv1.weight f4 [64, 64, 2]
00000000: 7abf 58be b662 24bb 2d2a e8be cab0 10bf
00000010: c233 bcbb 0109 79bc 457f 73be f025 54be
00000020: 4f01 06be 9660 fabd a992 80bd 2f05 913c
00000030: fe6c 473d 92b8 abbc f3da fdbd 6df9 4abe
00000040: 9de2 b3bd 5369 40be 0495 48be 926b 94bd
00000050: f6f7 e9bd 9df9 9dbe b1f7 343d a612 10be
00000060: e453 7f3e 5145 4b3e e94d a93d c598 a83a
00000070: cdba 1ebe f9fc 15bd 6c55 f13c dad9 16be
00000080: b847 863d 5194 8fbd 365d 57be 40cd d13c
00000090: 9b7d bfbd 1d28 5c3d fba9 b9be 70a7 b8be
000000a0: c2fb 3fbe 2577 7dbe 4aca 71bd d9fd b43d
000000b0: 6eaa 41be c411 13bd 12a9 8a3c 4ffb d93d
000000c0: 8082 0abd c324 03bd 5e07 71be 46c8 e7bd
000000d0: e768 443e 262b 8f3d 7e19 81be b55a b5be
000000e0: 9563 0f3e 95b4 d93c 6993 4bbe d501 63be
000000f0: ad91 19bc 90b0 e5bd dfe9 00be c059 a7bd
00000100: 27de 6a3e e434 993e e490 18be 82f0 9b3d
00000110: cf74 9a3a 21c6 b23d b68f 56be 97fa 96be
00000120: 8212 353e 5263 223e 7542 4a3c 18bd 94bd
00000130: 1da2 dabd 8148 9dbd 265e bf3e 1f51 d43e
00000140: fb44 d03d bee5 24bd 9990 5d3d b3b7 bd3d
00000150: f34b e63d 572a 3b3e 4a98 96be e563 9dbe
00000160: 2794 77bd de35 58bd 54b6 1f3e 8f4d 463e
00000170: 0313 0fbe 91a4 44be 1f7c 8cbd 62d4 fdbd
00000180: b9f2 15be 3325 993c 3944 dbbc 9d34 a5bd
00000190: bfc0 a5bc 739a 9b3d feb8 03be 2bbb 75be
000001a0: c71d d2bc 6b14 7c3d 74be c7bc 1b2a 01bd
000001b0: 7dc4 bdbe 1742 acbe d1f0 b73d c252 e83c
000001c0: 8de4 f0bd 1b79 733d 1fd1 993c 6c25 503d
000001d0: 8f6b 0dbe 3e3f 65be f81c a83d bd73 1a3d
000001e0: 4d94 4d3e 7a0d f03d e4af 9c3d 49b0 ae3b
000001f0: 5091 56be e418 6ebe b548 0d3c da3a e23d
00000200: 2fc5 b3bd 3d62 c63d 5f70 d4bd 486c 003d
00000210: ec8c 12bd 6115 b03d 624f 6a3d 6a3d 6d3d
00000220: 34f9 1abd e421 eb3c ac2d 683d b714 42bd
00000230: 330e 163c 550b 36bc 7ef5 b7bd 1d31 073d
00000240: 8c08 b63c 6a98 a1ba ab5a c2bb 0b0d d7bb
00000250: 6f45 b3bd 1d11 163c 401d 8a3c 3075 873b
00000260: 1c39 46bd a522 1b3e a2da 7a3d 643d 023d
00000270: 9323 e93c 74cd bcbc 7259 be3c 4ac4 4abd
00000280: 104b 90bc 9ecd be3d 27a5 96ba 96ad 943d
00000290: d74b 693d e35b 06be 1a73 ae3c b52b 76bd
000002a0: 5c5e 65bc db60 063d 719a 323d 93bd b1bd
000002b0: 8416 093d c3a8 17be a9ef 41bd 3d64 9a3c
000002c0: ad53 5f3d 0b09 3ebd 23bb 4a3d 6c6f e1bc
000002d0: 1460 e33c 52cd 71bc a568 c2bd 4726 4ebc
000002e0: 4657 0739 bbd6 cebc 5841 05bc acd2 203d
000002f0: 855a acbd 817b c43c 1473 8c3d 5e4a 6cbb
00000300: 8a60 213a 6c71 793d e4c2 563c e8ac 903d
00000310: 7e9f 46bd ada5 a3bc 6fbb 123c 1e73 7cbd
00000320: 3900 ba3d d6fe f5bc 568b 5dbd 79b8 ba3c
00000330: 8665 67bd 1032 5f3d 0110 dabc e0de 173c
00000340: d5a5 013e 2d5b 1ebd 6e09 32bd 81f8 47bd
00000350: 99d5 ea3c 3700 39bd 233d 5bbb b0a7 a6bd
00000360: a52d 85bd 0ab6 153d fd1f c6bd 140d a13c
00000370: ba6e 26bd 4766 24bd 2785 523b acfa a93c
00000380: 6d86 03bd 84a0 57bd 9f37 3fbd ba79 be3d
00000390: 5eb2 14be d23f 363e 9eee 92bc c4a0 993d
000003a0: 2db4 493d 8119 d2bc b539 383d bca2 88bd
000003b0: 0840 a73d 8038 383c bf43 dabb fffb 58bd
000003c0: e38e c73d 6d2e 00bd d23c 2a3d ca3b 85bd
000003d0: 3fe9 b83d c30d 883d 9676 23bd c4d7 ecbc
000003e0: 78bc 13bd f069 7a3d f2bd 803c 0a0c 00bd
000003f0: e98d 33bc d184 f33b b3a4 40bd 39a9 843d
-0.21166793 -0.002508325 -0.45344678 -0.5651976 -0.0057434747 -0.015199901 -0.23779018 -0.20717597
-0.13086437 -0.122254536 -0.06277973 0.017702667 0.048687927 -0.020962033 -0.12395277 -0.19821711
-0.087834574 -0.18790178 -0.19588095 -0.0724708 -0.11424248 -0.30854502 0.04418153 -0.14069614
0.24934345 0.19850661 0.08266813 0.0012862912 -0.15500946 -0.036618207 0.029459678 -0.14731541
0.06556648 -0.07010711 -0.21031651 0.025610566 -0.09350129 0.053749193 -0.36262497 -0.36065245
-0.18748382 -0.24752481 -0.05903081 0.0883748 -0.1891267 -0.035905614 0.016926322 0.106436364
-0.03381586 -0.03201748 -0.23537967 -0.11317496 0.19180642 0.06990652 -0.25214761 -0.35420766
0.14002831 0.026575366 -0.19880451 -0.22168668 -0.009373111 -0.11215317 -0.12589215 -0.08171415
0.22936307 0.29923165 -0.14899021 0.076142326 0.0011784079 0.08729196 -0.20953259 -0.2948806
0.17682841 0.158582 0.012344946 -0.07262629 -0.10675452 -0.07679845 0.37376517 0.4146814
0.10169407 -0.04025816 0.054092977 0.092635535 0.11244955 0.1827787 -0.29413062 -0.30740276
-0.060444023 -0.052785747 0.15596896 0.19365524 -0.13972096 -0.19203402 -0.06859612 -0.123940244
-0.14643373 0.018694496 -0.02676593 -0.08066676 -0.02023351 0.07597818 -0.12863538 -0.2399718
-0.025648965 0.06154291 -0.024382807 -0.031534296 -0.3706397 -0.33644173 0.08981479 0.028359775
-0.117623426 0.059441667 0.018776475 0.05081694 -0.13810562 -0.22387406 0.0820865 0.037708033
0.20076104 0.117213205 0.07650736 0.0053310734 -0.2095387 -0.23251683 0.008623292 0.11046381
-0.08777844 0.09686706 -0.103729956 0.031353265 -0.035778925 0.08597828 0.05720461 0.057919897
-0.037835315 0.028702684 0.05668418 -0.047383036 0.009158659 -0.0111111 -0.08982371 0.033005822
0.022220872 -0.0012328748 -0.0059312186 -0.006562834 -0.08753478 0.009159354 0.01685965 0.004133843
-0.048394307 0.15149935 0.06124366 0.031796828 0.028459346 -0.023047186 0.02323601 -0.049503602
-0.017613918 0.09316562 -0.0011493311 0.072596714 0.056957092 -0.1312099 0.02129512 -0.060100276
-0.013999548 0.032807212 0.043604318 -0.086787365 0.03346874 -0.14810471 -0.0473477 0.018846625
0.05452316 -0.046395343 0.049494874 -0.02751895 0.027755775 -0.014758425 -0.094926156 -0.012582368
0.00012907115 -0.025248876 -0.008133255 0.039263412 -0.08415703 0.023984673 0.06857887 -0.0036055068
0.0006156048 0.060899183 0.013107989 0.07064229 -0.048491947 -0.019976461 0.00895582 -0.06163322
0.09082074 -0.030028742 -0.05408796 0.022793042 -0.056493305 0.054491103 -0.02661896 0.009269446
0.12660916 -0.03866117 -0.043466024 -0.048820976 0.028666304 -0.04516622 -0.0033453188 -0.081374526
-0.06502847 0.03655056 -0.0967407 0.019659556 -0.04063294 -0.0401366 0.0032122822 0.020749412
-0.03211062 -0.052643314 -0.046683904 0.09300561 -0.14521167 0.17797783 -0.017936047 0.07501367
0.049244095 -0.025646927 0.04497691 -0.06671664 0.0816651 0.011243939 -0.006660908 -0.052974697
0.0974405 -0.031294275 0.04156191 -0.065055445 0.09028863 0.0664325 -0.039908014 -0.028911479
-0.03606841 0.061136186 0.015715573 -0.03126148 -0.010959127 0.0074316044 -0.04703207 0.06477589
