Model/checkpoint/Graph_Conv_AE_har_clean/31641-G.ckpt (torch, 711375 bytes, 58 tensors)

projection f4 [1, 18, 79, 79]
0.090122886 -0.007705692 0.05624096 -0.059682813 -0.021204062 0.065401666 -0.00866529 -0.007141697
-0.09766624 -0.102007404 0.051558327 -0.035347298 -0.046942748 -0.06428317 -0.023334118 0.04730189
-0.14532514 0.10297568 -0.107366025 -0.022600692 0.11178487 0.09152716 -0.10211071 0.15563776
-0.013909372 -0.07782572 0.055095747 0.019513002 -0.05898441 -0.035553005 -0.07787135 -0.14382535
-0.05811062 0.06917213 0.05554023 -0.063359864 -0.0506842 0.018379336 0.08442314 0.060589146
0.12300335 -0.038915385 -0.07506668 0.008834892 -0.12291177 0.103617504 -0.07112279 -0.16038606
-0.049194206 -0.08577504 -0.16391942 -0.088987656 0.09839216 -0.04290419 -0.006698676 0.029590642
-0.10601462 0.037368584 0.19282079 0.1550404 -0.0545478 0.10023132 -0.09069361 -0.02289228
-0.10732257 0.008242122 0.033017155 -0.012574314 0.17155519 -0.020646663 0.020815218 0.14112939
0.030446464 -0.098852105 0.031739745 0.10297751 0.03793028 0.24078435 -0.085168526 -0.033752583
0.21776955 0.0067035425 -0.12509565 0.18745403 -0.15689734 -0.1876108 0.103796475 0.020785034
0.1295138 -0.02008244 0.029305922 0.022984063 -0.032591846 -0.304719 0.04258004 -0.06477248
-0.17090248 -0.04533694 0.20578565 -0.14848544 -0.0024302462 -0.27762046 0.17709255 -0.14928249
-0.2073293 0.0468184 0.094328456 -0.13962443 -0.035112567 -0.22680877 0.04079885 0.037736326
-0.105152145 -0.115869015 -0.1308394 -0.283248 0.16480209 -0.03925029 0.017826153 -0.08600588
-0.08597056 -0.20185225 0.10018686 0.04654951 0.24725664 0.034042336 -0.03930228 -0.0024650649
0.06407224 -0.12856531 -0.16160178 0.16317351 -0.26493475 -0.01877925 0.18203421 -0.27973124
-0.040732957 0.23959255 0.20289053 -0.20415533 0.20301826 -0.068097614 0.13894959 -0.16273431
-0.1200606 -0.09317468 0.018300416 0.08139197 -0.058697768 0.18574478 0.3065492 -0.075397335
-0.034811627 -0.20389645 0.07115185 0.076057866 0.16008098 -0.18244606 0.007778871 0.0146893645
0.003154237 -0.013215247 0.03427612 -0.086566195 -0.040562935 -0.14120421 0.09363966 0.11700702
0.043367457 -0.020450179 0.07435676 -0.005947449 0.05404653 0.013272026 0.12529157 -0.15325673
0.092582904 0.11838629 -0.17789821 -0.20441483 0.023335045 -0.19611049 -0.022503613 0.07590941
-0.074183404 -0.03473832 -0.079824336 0.027406719 0.084192134 0.11529881 0.01636633 -0.076014385
-0.10197919 0.029924493 0.0058579417 0.058605965 -0.060145855 0.04187019 -0.112688616 -0.010153005
0.12661488 -0.020696701 0.090877615 -0.14063792 0.049072128 0.13683777 0.113107234 0.20665012
0.06704682 0.02725221 -0.08831537 0.016708488 -0.10193805 0.023809375 0.10240189 0.0036168671
-0.13007373 -0.19609588 0.038176484 -0.08158476 0.08119328 0.061610032 0.0936889 0.023427717
-0.039698206 -0.057934765 -0.071274556 0.07688926 0.028270101 -0.15965676 0.035217073 0.038820237
-0.108144484 -0.052869562 0.049868077 -0.1378019 0.02999666 0.027943403 0.07440369 -0.046503052
0.079711944 -0.028754747 -0.08925192 0.0042200806 0.021840325 0.07065673 0.006987845 -0.008936085
0.017625969 0.09331464 0.047098175 -0.03358571 -0.07172135 0.18349303 -0.08351596 0.004954001
00000000: 5992 b83d 0880 fcbb ec5c 663d f775 74bd
00000010: 24b4 adbc 4ff1 853d dcf8 0dbc e604 eabb
00000020: 3d05 c8bd 42e9 d0bd d32e 533d 54c8 10bd
00000030: 0a47 40bd e5a6 83bd 3127 bfbc a0bf 413d
00000040: 1dd0 14be eae4 d23d b8e2 dbbd 1625 b9bc
00000050: 77ef e43d 9772 bb3d 6c1f d1bd 815f 1f3e
00000060: 22e4 63bc 1763 9fbd 14ac 613d bbd9 9f3c
00000070: a399 71bd 07a0 11bd 047b 9fbd f446 13be
00000080: 6705 6ebd 1eaa 8d3d 277e 633d d1c2 81bd
00000090: 3c9a 4fbd 4390 963c 0ae6 ac3d 532c 783d
000000a0: 2ee9 fb3d bd65 1fbd 8fbc 99bd 39c0 103c
000000b0: 2bb9 fbbd 6a35 d43d d3a8 91bd 3e3c 24be
000000c0: dd7f 49bd d3aa afbd 7eda 27be 293f b6bd
000000d0: d481 c93d 4ebc 2fbd 9180 dbbb 1368 f23c
000000e0: 311e d9bd cd0f 193d d072 453e e9c2 1e3e
000000f0: 846d 5fbd 1446 cd3d 92bd b9bd 9788 bbbc
00000100: f0cb dbbd f709 073c ff3c 073d 7f04 4ebc
00000110: 2aac 2f3e 3123 a9bc ad84 aa3c 3984 103e
00000120: dd6a f93c f972 cabd 8901 023d dfe5 d23d
00000130: c85c 1b3d 2c90 763e d66c aebd 2640 0abd
00000140: fbfe 5e3e 64a9 db3b 1319 00be f3f3 3f3e
00000150: b2a9 20be 0c1d 40be 3f93 d43d 6045 aa3c
00000160: 449f 043e ee83 a4bc f912 f03c 1349 bc3c
00000170: 077f 05bd 2104 9cbe 6868 2e3d 6fa7 84bd
00000180: 0f01 2fbe 3ab3 39bd 79b9 523e 910c 18be
00000190: c444 1fbb 4524 8ebe c057 353e 82dd 18be
000001a0: 224e 54be a7c4 3f3d 472f c13d b5f9 0ebe
000001b0: 32d2 0fbd 8f40 68be b21c 273d 6891 1a3d
000001c0: 025a d7bd bc4c edbd c4fa 05be e205 91be
000001d0: e1c1 283e e9c4 20bd 2708 923c da23 b0bd
000001e0: 5511 b0bd 5bb2 4ebe c52e cd3d b3aa 3e3d
000001f0: d830 7d3e fa6f 0b3d 6dfb 20bd ed8c 21bb
00000200: 4e38 833d a0a6 03be f07a 25be f516 273e
00000210: 87a5 87be f1d6 99bc 2d67 3a3e ef38 8fbe
00000220: 9ad7 26bd c057 753e 89c2 4f3e 180e 51be
00000230: 05e4 4f3e c376 8bbd cd48 0e3e d3a3 26be
00000240: 55e2 f5bd 5ed2 bebd c1ea 953c d5b0 a63d
00000250: 126d 70bd e133 3e3e 04f4 9c3e eb69 9abd
00000260: a396 0ebd 3bca 50be 10b8 913d 3ac4 9b3d
00000270: 45ec 233e 24d3 3abe e6e5 fe3b a9ab 703c
00000280: 51b7 4e3b c384 58bc 1e65 0c3d 9e49 b1bd
00000290: 5225 26bd d697 10be 26c6 bf3d 60a1 ef3d
000002a0: 13a2 313d 2287 a7bc 5b48 983d d1e2 c2bb
000002b0: e55f 5d3d e972 593c 6f4c 003e 55ef 1cbe
000002c0: 1b9c bd3d 8374 f23d f32a 36be 1f52 51be
000002d0: 2329 bf3c 30d1 48be 7f59 b8bc 6576 9b3d
000002e0: 78ed 97bd c549 0ebd f17a a3bd 0e84 e03c
000002f0: ed6c ac3d c821 ec3d af12 863c 6ead 9bbd
00000300: 77da d0bd 3624 f53c faf3 bf3b cf0c 703d
00000310: 805b 76bd 1480 2b3d 4ac9 e6bd ca58 26bc
00000320: 55a7 013e 218c a9bc 0b1e ba3d 6303 10be
00000330: dbff 483d 331f 0c3e c4a4 e73d 179c 533e
00000340: d84f 893d 0740 df3c b0de b4bd 3de0 883c
00000350: e5c4 d0bd e10b c33c 15b8 d13d f608 6d3b
00000360: 0c32 05be 5ccd 48be f25e 1c3d e915 a7bd
00000370: aa48 a63d cd5a 7c3d f7df bf3d 7ceb bf3c
00000380: 969a 22bd 014d 6dbd 65f8 91bd 1e78 9d3d
00000390: b396 e73c 107d 23be c73f 103d f801 1f3d
000003a0: db7a ddbd c18d 58bd 7842 4c3d f11b 0dbe
000003b0: 8ebb f53c 90e9 e43c f660 983d fc79 3ebd
000003c0: 0440 a33d 138f ebbc b6c9 b6bd 9a48 8a3b
000003d0: 7bea b23c 7ab4 903d 4bfa e43b a868 12bc
000003e0: 5664 903c bf1b bf3d 04ea 403d 2b91 09bd
000003f0: a5e2 92bd 99e5 3b3e 6a0a abbd 2c55 a23b

sensor_embedding.weight f4 [18, 16]
-0.26500952 0.09532991 2.0724292 -0.54526407 0.11409742 0.8447731 0.36820647 -2.049547
0.93767965 -1.160126 1.072116 -0.22919808 0.94017476 -0.26044217 -1.0047793 0.58008856
1.7180679 -0.7422274 1.4978976 -1.0599349 -1.3657303 0.3087719 -0.22472274 0.7888322
-0.32408136 0.33427376 0.4501361 0.5471148 0.30549258 0.847599 -0.15471302 0.06470746
1.1769629 -0.74432033 -0.1315062 -0.16613145 -0.101649836 1.556215 -0.015972419 -1.0303605
1.7553037 -0.64527166 0.32491016 -2.0816753 0.6818479 0.8132895 -1.667119 0.8891122
-0.94933844 1.0188345 1.4572841 0.5371989 1.5852625 -1.4967606 -1.3106881 0.21442997
-0.6764808 0.6326697 0.04569064 1.3569243 -0.85332286 -1.9063284 0.49065593 -0.03103035
-1.1703763 -1.6431948 -1.6985768 0.80458057 -1.931889 -0.42808107 -1.270985 0.46442902
-1.0883462 -1.9447227 -1.0530397 -0.9362061 0.18431774 0.36493194 1.032212 2.7080302
0.3746048 -1.7122658 -0.18828325 0.7950866 0.27529082 -0.67251503 1.1681352 1.4935101
-0.95214784 0.40334946 0.09812158 0.7921532 0.627731 -0.06925288 0.7248707 -1.1137381
-0.7427742 1.1550958 0.9830857 -0.6608267 -0.7623795 1.3257393 -0.44384542 -1.9843038
0.7214341 1.502982 0.27941844 -0.58131343 -0.6984774 -1.1653246 -1.7770541 -0.10818253
1.842597 -0.608285 0.26717612 1.4933788 1.3561743 0.68768936 -0.515858 -1.1785549
0.8771765 0.49968198 0.14478345 3.130993 -1.9900851 -1.699867 0.43458337 0.22228831
0.39712843 0.12288744 0.24497592 0.3333318 1.369915 -1.4538276 -0.19477364 -0.3804974
-0.23341234 0.25371328 0.41043216 2.0167496 0.5514246 0.2350687 -0.605137 -0.25553754
-0.549557 0.8230603 -2.1606622 1.6206597 0.5026347 0.8281373 1.2388157 0.5687501
-0.25138128 -0.81904787 0.0933398 -0.6675467 -1.0442641 2.3178346 0.3847935 0.52116245
-1.1327025 -0.4128789 0.34983388 0.8524257 -0.7353316 -0.6789695 -0.9907733 1.4075263
0.85306776 -1.1959457 -0.96458036 0.84070015 -0.6307552 -1.7945322 0.3223366 -2.1742003
-0.004526792 -1.3768345 0.45767257 -1.0643013 2.2176409 -0.53907305 -0.65956265 -0.21798266
-0.21650262 -0.6967178 0.39029574 0.04915726 -1.4724686 -0.66256523 -1.0652767 -0.333218
-2.0708508 -1.464199 -0.9306214 1.9186453 0.22419791 0.622027 -0.362181 -0.73030573
1.8163877 -1.6435297 -0.02133724 -0.40735117 -0.07295165 1.1916628 0.25789598 -0.8705541
0.4381732 -1.738679 0.05867647 -0.6402393 0.5124777 -1.3418008 -2.6517918 -0.014320821
0.52011615 1.1402787 1.0368838 -0.7687841 1.2675402 -0.393746 -1.821639 1.0380131
-0.79412067 0.19724138 -0.99155176 -0.24269012 -3.0120704 0.38834348 1.1443282 -0.33606476
0.77530104 -1.1534961 -0.00071798346 1.015404 -0.9701966 -0.8792077 -0.13295309 0.2790562
0.1344151 1.4321473 0.7023994 -0.92553395 0.32614672 0.10268849 -0.5767654 0.631353
0.18869452 0.5396768 0.79138386 -0.22932793 -0.21235636 -0.5810749 -0.5399268 -0.083290465
00000000: 54af 87be 543c c33d aea2 0440 6d96 0bbf
00000010: e8ab e93d 0d43 583f 8f85 bc3e c72b 03c0
00000020: c60b 703f 027f 94bf 193b 893f e7b2 6abe
00000030: 4baf 703f ad58 85be 9c9c 80bf af80 143f
00000040: a6e9 db3f 9d02 3ebf 1cbb bf3f f2ab 87bf
00000050: 40d0 aebf 5a17 9e3e b81d 66be e8f0 493f
00000060: feed a5be ee25 ab3e 3d78 e63e b70f 0c3f
00000070: 8669 9c3e 40fc 583f 176d 1ebe 5885 843d
00000080: b8a6 963f c78b 3ebf 90a9 06be 5d1e 2abe
00000090: ca2d d0bd 0e32 c73f 97d8 82bc dae2 83bf
000000a0: cbad e03f 8630 25bf a05a a63e 2b3a 05c0
000000b0: 958d 2e3f be33 503f 2864 d5bf db9c 633f
000000c0: d807 73bf 2b69 823f 4988 ba3f de85 093f
000000d0: e2e9 ca3f da95 bfbf a1c4 a7bf 8893 5b3e
000000e0: d92d 2dbf a4f6 213f 1c26 3b3d b2af ad3f
000000f0: 5e73 5abf 9202 f4bf 4137 fb3e 5c33 febc
00000100: e4ce 95bf 3554 d2bf f76a d9bf fef8 4d3f
00000110: 2448 f7bf 712d dbbe a3af a2bf a4c9 ed3e
00000120: ee4e 8bbf acec f8bf 01ca 86bf 34ab 6fbf
00000130: cabd 3c3e 5cd8 ba3e 861f 843f 5e50 2d40
00000140: 33cc bf3e 872b dbbf 53cd 40be cc8a 4b3f
00000150: ebf2 8c3e f229 2cbf 7485 953f 572b bf3f
00000160: f6bf 73bf d283 ce3e f8f3 c83d 8dca 4a3f
00000170: fbb2 203f 74d4 8dbd 2091 393f f88e 8ebf
00000180: 7326 3ebf 2eda 933f 81ab 7b3f f02b 29bf
00000190: 4e2b 43bf d3b1 a93f b53f e3be abfd fdbf
000001a0: e8af 383f b761 c03f ef0f 8f3e f5d0 14bf
000001b0: 6acf 32bf 5b29 95bf 8276 e3bf cd8e ddbd
000001c0: 38da eb3f 91b8 1bbf 4fcb 883e 0927 bf3f
000001d0: 1f97 ad3f 690c 303f 450f 04bf e3da 96bf
000001e0: a48e 603f 51d6 ff3e 1d42 143e 3062 4840
000001f0: 1cbb febf 3e95 d9bf b681 de3e 8c9f 633e
00000200: 6b54 cb3e 69ac fb3d f8da 7a3e 77aa aa3e
00000210: 6059 af3f 0617 babf be72 47be 8ed0 c2be
00000220: a503 6fbe b5e6 813e 2a24 d23e 6d12 0140
00000230: 2a2a 0d3f d9b5 703e 42ea 1abf d1d5 82be
00000240: c4af 0cbf 14b4 523f 4a48 0ac0 c771 cf3f
00000250: abac 003f ce00 543f 8391 9e3f 9b99 113f
00000260: 0cb5 80be 1fad 51bf f028 bf3d 57e4 2abf
00000270: 72aa 85bf 6757 1440 a703 c53e e76a 053f
00000280: 65fc 90bf dd64 d3be 6d1d b33e 9238 5a3f
00000290: b13e 3cbf f2d0 2dbf 52a3 7dbf d229 b43f
000002a0: a662 5a3f c014 99bf bdee 76bf 2038 573f
000002b0: 2c79 21bf 3bb3 e5bf 4e09 a53e 1926 0bc0
000002c0: 7c55 94bb 1d3c b0bf 0f54 ea3e 063b 88bf
000002d0: d4ed 0d40 b100 0abf 19d9 28bf d936 5fbe
000002e0: ddb2 5dbe 195c 32bf d8d4 c73e 2059 493d
000002f0: da79 bcbf e09d 29bf fd5a 88bf 8d9b aabe
00000300: d288 04c0 df6a bbbf 343d 6ebf 2b96 f53f
00000310: 2394 653e 293d 1f3f ca6f b9be 51f5 3abf
00000320: 647f e83f 2e5f d2bf 6fcb aebc 5590 d0be
00000330: ad67 95bd 6888 983f f10a 843e a2dc 5ebf
00000340: 3d58 e03e 098d debf bd56 703d b9e6 23bf
00000350: bd31 033f 21c0 abbf f5b6 29c0 e0a1 6abc
00000360: 5526 053f a7f4 913f 9cb8 843f 09cf 44bf
00000370: c23e a23f 1399 c9be 772b e9bf 9ddd 843f
00000380: 7e4b 4bbf a5f9 493e 56d6 7dbf c283 78be
00000390: c3c5 40c0 f5d4 c63e 5979 923f ae10 acbe
000003a0: 217a 463f c3a5 93bf 0e37 3cba c2f8 813f
000003b0: ce5e 78bf c113 61bf db24 08be 74e0 8e3e
000003c0: 1da4 093e 9a50 b73f 72d0 333f cbef 6cbf
000003d0: b4fc a63e 584e d23d e6a6 13bf 5aa0 213f
000003e0: 2339 413e 4228 0a3f 2298 4a3f f1d4 6abe
000003f0: f273 59be 53c1 14bf a538 0abf 3194 aabd

lin1.weight f4 [16, 16]
0.18273675 0.13791576 0.248788 0.16332963 0.042252988 -0.16347626 0.04806155 -0.1288
-0.15486327 -0.021012306 -0.22541294 0.22355992 0.15348655 0.086577624 -0.08214548 -0.060213834
0.0010561645 0.02182728 0.062809974 0.026981473 -0.12129411 0.14585435 -0.13451916 0.1765179
0.11959225 -0.1620811 -0.20462298 -0.15421322 -0.023343176 -0.20276669 -0.086624205 0.17091134
0.10411951 -0.07856318 0.05240947 0.01643762 0.033189237 0.110976726 0.19505402 0.20409676
-0.0049442053 0.021603078 -0.028713703 -0.18701968 -0.19858566 -0.028965503 -0.01011917 0.028170556
-0.11414692 0.027126998 0.07369655 -0.042805105 -0.17999423 -0.12629274 -0.19759575 -0.051436037
0.07253739 0.10406557 0.0039053857 0.052322 0.06558946 0.12697643 -0.027389258 0.09710851
0.1217511 0.106042355 -0.13762486 -0.20910555 0.14796343 0.13735121 -0.08498794 0.14469576
-0.18814182 -0.07119158 0.14442798 -0.0060742497 -0.19354686 -0.115948826 0.007679105 0.18198156
0.20529374 -0.22084099 0.07632235 -0.016191304 -0.15189338 0.07202843 -0.015881985 -0.16479969
-0.05502826 0.09152657 0.018104047 -0.06942636 -0.07270852 0.23048079 -0.12674946 -0.12084207
-0.05137083 -0.21983483 -0.2041845 0.2319768 -0.21826738 0.1714611 0.16874012 0.21424681
0.043316245 0.08548653 0.19379899 0.19318792 -0.06819615 -0.018709004 -0.048762858 0.16442266
-0.13240671 0.23259774 0.05195853 -0.20480907 -0.24875483 -0.013152391 -0.18693727 -0.24629158
0.114180386 0.00081306696 -0.19589642 -0.048306078 0.18908471 0.018302202 0.1139569 -0.24782047
-0.021984935 0.057196736 0.15596214 0.1407916 0.023435503 -0.08866221 -0.21214831 -0.038787216
0.22988185 -0.019043803 -0.12917218 -0.24298689 0.057775527 0.09199539 0.13350844 0.15303907
-0.13701737 0.17170233 0.04344493 0.23070005 0.2053285 0.16541389 0.15657884 0.17285222
-0.16836604 -0.025149465 0.106212765 0.009457439 0.12174627 0.14955935 0.07005784 -0.10144767
-0.24325651 0.16353106 -0.018198818 -0.003558278 0.1856569 0.072223455 0.086324215 0.11694881
0.08099842 0.06561482 0.22052419 -0.24130005 -0.1587891 0.19937047 -0.18189272 -0.20658955
0.06427598 -0.109796226 -0.13898227 -0.19121614 -0.12855169 0.09337896 -0.23126015 0.09924638
0.18290499 -0.23608357 -0.025333822 -0.12284747 0.051267236 -0.11890924 0.047338814 0.18282667
-0.19803339 0.17496514 0.22647592 0.13994995 -0.19095165 -0.008021772 0.0029266477 0.18975577
0.06356388 -0.12281129 0.098564595 0.14671612 -0.09698352 0.22329059 0.037596643 0.24463743
-0.11039567 0.048335522 0.17528778 0.15195283 -0.2342399 -0.10527122 0.17429242 0.19533056
-0.0026481152 -0.17141595 -0.009451151 0.1888153 0.053478986 0.18387482 0.053411186 -0.24638724
0.06887171 -0.18027005 -0.09731367 0.09145421 0.0006260574 0.057785243 0.09462401 -0.120298386
-0.086348504 0.15076187 -0.1519213 0.17447707 -0.16566494 0.119810045 -0.16364068 -0.13958696
0.06787431 0.10015634 -0.2456831 0.101947635 0.00901553 0.018666416 0.17241645 -0.13539776
-0.20176247 0.20833704 -0.08390322 0.025802195 0.18829918 -0.028312773 -0.066711634 0.058559418
00000000: 581f 3b3e ca39 0d3e 48c2 7e3e e23f 273e
00000010: 7811 2d3d 5266 27be 30dc 443d 26e4 03be
00000020: 7a94 1ebe 0022 acbc a6d2 66be e4ec 643e
00000030: 942b 1d3e 9c4f b13d e43b a8bd c8a2 76bd
00000040: 006f 8a3a 20cf b23c 84a2 803d 4008 dd3c
00000050: 0c69 f8bd d85a 153e 64bf 09be 1cc1 343e
00000060: c8ec f43d 96f8 25be b088 51be 12ea 1dbe
00000070: 303a bfbc 12a2 4fbe 0868 b1bd 6203 2f3e
00000080: 9c3c d53d bce5 a0bd 50ab 563d 30a8 863c
00000090: 70f1 073d c447 e33d 3ebc 473e befe 503e
000000a0: 0003 a2bb f0f8 b03c 0039 ebbc 1682 3fbe
000000b0: 0a5a 4bbe 1049 edbc e0ca 25bc f0c5 e63c
000000c0: dcc5 e9bd 7039 de3c 38ee 963d 6854 2fbd
000000d0: 6850 38be e252 01be 8a56 4abe 98ae 52bd
000000e0: 7c8e 943d 5420 d53d 80f1 7f3b 984f 563d
000000f0: c453 863d 1c06 023e 705f e0bc d4e0 c63d
00000100: a458 f93d bc2c d93d 88ed 0cbe c41f 56be
00000110: ba83 173e cca5 0c3e 280e aebd 202b 143e
00000120: 40a8 40be e4cc 91bd eee4 133e 800a c7bb
00000130: 2631 46be 9476 edbd 00a1 fb3b 6059 3a3e
00000140: 8638 523e 2424 62be e44e 9c3d a0a3 84bc
00000150: f089 1bbe a483 933d f01a 82bc 40c1 28be
00000160: 5065 61bd 4872 bb3d f04e 943c 682f 8ebd
00000170: 34e8 94bd 2803 6c3e 9cca 01be 0c7c f7bd
00000180: 386a 52bd 621c 61be be15 51be 548b 6d3e
00000190: 7c81 5fbe 8093 2f3e 36ca 2c3e 8463 5b3e
000001a0: 606c 313d 9013 af3d 3e73 463e 0ed3 453e
000001b0: 6caa 8bbd a043 99bc 90bb 47bd 6a5e 283e
000001c0: a095 07be 1a2e 6e3e 78d2 543d 78b9 51be
000001d0: 96b9 7ebe 207d 57bc 7c6c 3fbe dc33 7cbe
000001e0: 68d7 e93d 0024 553a 1299 48be 98dc 45bd
000001f0: 6c9f 413e 80ee 953c 3c62 e93d a6c4 7dbe
00000200: c019 b4bc 2047 6a3d 8ab4 1f3e ac2b 103e
00000210: d0fb bf3c 8894 b5bd 683d 59be 58df 1ebd
00000220: 2666 6b3e c001 9cbc b645 04be 8ed1 78be
00000230: 08a6 6c3d 1468 bc3d 70b6 083e 46b6 1c3e
00000240: 484e 0cbe bcd2 2f3e 50f3 313d a23c 6c3e
00000250: a241 523e 4262 293e 3456 203e 2c00 313e
00000260: 2668 2cbe 4006 cebc 1486 d93d 60f3 1a3c
00000270: 1c56 f93d 1626 193e 7c7a 8f3d ccc3 cfbd
00000280: 3c18 79be b074 273e b015 95bc 0032 69bb
00000290: d81c 3e3e e4e9 933d c0ca b03d dc82 ef3d
000002a0: 80e2 a53d 1061 863d 18d1 613e 5c17 77be
000002b0: 9c99 22be c627 4c3e 1642 3abe 368c 53be
000002c0: 20a3 833d d8dc e0bd 5e51 0ebe 2ace 43be
000002d0: 0ea3 03be 783d bf3d 76cf 6cbe b041 cb3d
000002e0: 724b 3b3e e4bf 71be e088 cfbc 7497 fbbd
000002f0: 98fd 513d b086 f3bd 58e6 413d ea36 3b3e
00000300: 44c9 4abe 102a 333e 4ee9 673e 0a4f 0f3e
00000310: d488 43be c06d 03bc 00cd 3f3b 564f 423e
00000320: c82d 823d 7c84 fbbd 3cdc c93d c03c 163e
00000330: 4c9f c6bd 4aa6 643e f0fe 193d 3c82 7a3e
00000340: 2017 e2bd 78fb 453d a47e 333e 8699 1b3e
00000350: 96dc 6fbe 7098 d7bd b679 323e bc04 483e
00000360: 008c 2dbb aa87 2fbe 00d9 1abc cc58 413e
00000370: c80c 5b3d ae49 3c3e b0c5 5a3d f04c 7cbe
00000380: 9c0c 8d3d b698 38be 644c c7bd 584c bb3d
00000390: 001e 243a 38b0 6c3d 3cca c13d 005f f6bd
000003a0: 7cd7 b0bd 5261 1a3e 4291 1bbe 1eaa 323e
000003b0: 12a4 29be f85e f53d 6c91 27be e2ef 0ebe
000003c0: b001 8b3d c41e cd3d 5a94 7bbe ecc9 d03d
000003d0: e0b5 133c 50ea 983c f08d 303e b6a5 0abe
000003e0: d29a 4ebe 4e56 553e 74d5 abbd 205f d33c
000003f0: 80d1 403e 30f0 e7bc 1ca0 88bd 00dc 6f3d

lin1.bias f4 [16]
0.2057372 -0.1759586 0.24268007 -0.069650024 -0.2121005 -0.2263883 -0.050970167 0.011631757
0.105062306 0.087423295 -0.063887596 0.14910617 0.09865001 -0.08221483 0.046038 -0.18988594
00000000: c6ac 523e 7e2e 34be 2081 783e aca4 8ebd
00000010: e030 59be 56d2 67be 18c6 50bd 2093 3e3c
00000020: e82a d73d fc0a b33d 80d7 82bd 4aaf 183e
00000030: 0409 ca3d 4060 a8bd 5892 3c3d 7671 42be

lin2.weight f4 [16, 16]
-0.107543975 0.1427804 0.1438317 0.14100626 0.22668761 -0.1992068 0.019396603 0.022933096
-0.02807939 0.10945737 0.023774207 -0.013408482 0.10629895 -0.081118196 0.24031079 0.05801621
0.060284287 -0.08294675 0.18600765 -0.0800437 0.16845539 -0.034208983 0.0013868511 -0.080432236
-0.127022 0.059985727 -0.07274029 0.20286119 0.038437337 -0.08294785 0.11958644 0.21707532
0.048411906 -0.1395351 0.23815209 -0.12377152 0.045214534 0.0021576881 0.1258086 -0.20779297
0.0723837 0.072548985 0.19208503 -0.013136148 0.054885507 0.1750783 0.05843517 0.24044934
-0.11569378 -0.20191047 0.059692144 -0.17893592 -0.15165132 0.2006951 0.014368713 0.0034308732
0.08364451 -0.090358436 -0.22387615 0.07303128 0.19111273 -0.08278048 0.034228176 -0.10565913
0.024356365 -0.14997178 0.055860877 0.1472967 -0.22854635 0.062438965 0.09024313 -0.1348576
0.022752702 0.09551734 -0.24115708 0.006914377 0.11854407 -0.23973835 -0.06582382 -0.10178667
-0.13885945 -0.06284627 -0.20362785 0.016410321 0.22692806 0.21037251 -0.017851323 0.246595
0.014448017 -0.17836729 -0.04762605 0.004651785 -0.027205527 0.11756152 0.1528179 -0.022657037
-0.19032177 0.0008113384 -0.12230408 -0.034109533 0.1348522 -0.0053133667 0.056890637 0.0038825572
-0.13838705 -0.23875636 -0.08098981 0.01787582 0.010787398 0.13120243 0.10291448 0.23925668
-0.16033864 -0.1481156 0.14162031 -0.11001444 -0.09860939 -0.07550347 0.24772578 -0.13791531
0.10131517 -0.21741793 0.0720022 0.049649477 -0.016800523 0.2235837 -0.0059883595 -0.16260138
-0.063405454 -0.1725078 -0.05625695 0.012637079 0.102924466 -0.12040618 0.13954026 -0.039097607
-0.11861378 0.04804051 -0.0067730546 0.15453857 0.10149157 0.20151511 0.1423814 -0.20073718
-0.043159842 0.20022348 -0.051534593 0.21895242 -0.20054862 -0.17879671 0.07783672 0.032737285
0.12950265 -0.046250165 0.06782824 -0.099562556 0.15096694 -0.21209168 -0.17743185 0.075552344
0.115689814 -0.05006838 -0.12954274 0.19638792 0.0926379 -0.012036711 0.24212986 -0.22789258
0.14810774 -0.23263499 0.1955075 -0.08170968 -0.18765849 0.072668105 0.04706505 -0.033542454
0.16386625 0.1098004 -0.19933158 -0.13189203 -0.15613616 0.14300254 -0.061389267 -0.12167606
-0.20773548 -0.020294815 -0.06205547 -0.09923431 -0.1775668 -0.22507286 -0.22567636 -0.03057447
0.024789333 0.18257901 0.0437091 -0.12041521 -0.11855769 0.16588524 -0.027338892 -0.07758403
-0.05646327 -0.037566245 -0.21851075 -0.2247236 -9.468198e-05 0.1803833 0.19897157 -0.011502624
0.16016194 -0.23280221 -0.17472893 0.0605717 0.1701566 0.23520458 -0.08746794 -0.007962763
0.2324467 0.045290798 -0.2355605 0.097506315 -0.20108199 -0.20048368 0.19499952 0.17445531
-0.06396097 0.029397339 -0.22688773 0.22040772 -0.065513104 0.038672566 0.037349373 -0.13698688
-0.06796399 0.014513999 0.13342518 -0.08080986 0.14213473 -0.18953201 0.24355152 -0.0979
-0.20646355 0.016372621 0.1938093 0.11618379 -0.103796065 0.035832793 0.14950964 -0.22242743
0.11527637 -0.20451319 0.20031562 0.22100559 0.052534014 -0.09062499 0.21460062 -0.027917892
00000000: 0440 dcbd 0635 123e 9e48 133e f263 103e
00000010: cc20 683e defc 4bbe a0e5 9e3c 30de bb3c
00000020: c006 e6bc 302b e03d 20c2 c23c 40af 5bbc
00000030: 44b3 d93d 4c21 a6bd 0814 763e 68a2 6d3d
00000040: a8ec 763d fcdf a9bd ca78 3e3e f4ed a3bd
00000050: 927f 2c3e b81e 0cbd 00c7 b53a a8b9 a4bd
00000060: 0e12 02be 98b3 753d dcf8 94bd d8ba 4f3e
00000070: 7870 1d3d 90e0 a9bd bce9 f43d fe48 5e3e
00000080: 904b 463d 4ae2 0ebe 24de 733e ec7b fdbd
00000090: e032 393d 0068 0d3b f8d3 003e aec7 54be
000000a0: e83d 943d 9094 943d f0b1 443e 0039 57bc
000000b0: a0cf 603d ba47 333e b859 6f3d 5a38 763e
000000c0: dcf0 ecbd 9ec1 4ebe c07f 743d fa3a 37be
000000d0: 7c4a 1bbe 0483 4d3e c06a 6b3c 80d8 603b
000000e0: d04d ab3d d80d b9bd ca3f 65be 6c91 953d
000000f0: 0eb3 433e d088 a9bd d832 0c3d d063 d8bd
00000100: 0087 c73c 3492 19be 60ce 643d f2d4 163e
00000110: 0e08 6abe 00c0 7f3d 64d1 b83d 1c18 0abe
00000120: e063 ba3c 989e c33d e2f1 76be 0092 e23b
00000130: 3cc7 f23d f87d 75be a4ce 86bd 8875 d0bd
00000140: 2c31 0ebe 8cb5 80bd d283 50be f06e 863c
00000150: d45f 683e e46b 573e f03c 92bc 6683 7c3e
00000160: 60b7 6c3c eaa5 36be 8813 43bd 006e 983b
00000170: 20de debc 18c4 f03d 4c7c 1c3e 409b b9bc
00000180: b6e3 42be 00b0 543a 907a fabd 70b6 0bbd
00000190: b216 0a3e c01b aebb 2806 693d 8072 7e3b
000001a0: 56b5 0dbe 8c7c 74be fcdd a5bd 5070 923c
000001b0: a0bd 303c ee59 063e d4c4 d23d b4ff 743e
000001c0: d02f 24be 9eab 17be ea04 113e 404f e1bd
000001d0: b8f3 c9bd 90a1 9abd d4ab 7d3e ac39 0dbe
000001e0: 547e cf3d cea2 5ebe e475 933d 405d 4b3d
000001f0: 40a1 89bc 20f3 643e 003a c4bb fa80 26be
00000200: b8da 81bd e2a5 30be b06d 66bd c00b 4f3c
00000210: 10ca d23d 8497 f6bd a4e3 0e3e d024 20bd
00000220: c8eb f2bd 20c6 443d 80f0 ddbb 5c3f 1e3e
00000230: d0da cf3d fa59 4e3e 6ecc 113e 0c8e 4dbe
00000240: 60c8 30bd 6207 4d3e f015 53bd 1035 603e
00000250: 9e5c 4dbe 7c16 37be dc68 9f3d 8817 063d
00000260: 589c 043e d070 3dbd 88e9 8a3d 74e7 cbbd
00000270: 1497 1a3e 902e 59be b2b0 35be 30bb 9a3d
00000280: c8ee ec3d 8014 4dbd daa6 04be ea19 493e
00000290: f0b8 bd3d a035 45bc e4f0 773e ac5c 69be
000002a0: 8ea9 173e de37 6ebe 1e33 483e 6857 a7bd
000002b0: 8c29 40be 04d3 943d 48c7 403d d063 09bd
000002c0: 8ecc 273e 08df e03d 941d 4cbe b40e 07be
000002d0: 28e2 1fbe 426f 123e 5073 7bbd 4c31 f9bd
000002e0: 9cb8 54be 5041 a6bc e02d 7ebd 5c3b cbbd
000002f0: 12d4 35be 8079 66be b417 67be 5077 fabc
00000300: 0013 cb3c fef5 3a3e 5008 333d 409c f6bd
00000310: 60ce f2bd d2dd 293e d0f5 dfbc 60e4 9ebd
00000320: 0846 67bd 10df 19bd 48c1 5fbe f21d 66be
00000330: 0090 c6b8 66b6 383e 34bf 4b3e 8075 3cbc
00000340: 7e01 243e b463 6ebe 24ec 32be 081a 783d
00000350: 883d 2e3e 78d9 703e 6422 b3bd 4076 02bc
00000360: 8206 6e3e d882 393d c636 71be 64b1 c73d
00000370: 70e8 4dbe 984b 4dbe f4ad 473e 6aa4 323e
00000380: f8fd 82bd b0d2 f03c 4255 68be 90b2 613e
00000390: bc2b 86bd 2067 1e3d a8fb 183d 4a46 0cbe
000003a0: b430 8bbd 20cc 6d3c 9ca0 083e a47f a5bd
000003b0: c48b 113e ae14 42be 9265 793e cc7f c8bd
000003c0: 2e6b 53be e01f 863c f275 463e c4f1 ed3d
000003d0: 0893 d4bd 68c5 123d 0e19 193e 04c4 63be
000003e0: 0416 ec3d e86b 51be 8a1f 4d3e 4a4f 623e
000003f0: e82d 573d 9899 b9bd 44c0 5b3e 10b4 e4bc

lin2.bias f4 [16]
-0.13881996 0.012299478 0.1225923 -0.21456668 0.05330226 -0.035411507 0.028550297 -0.017618626
-0.039035738 0.013752669 0.120307535 -0.23447806 0.13767442 0.008821398 0.17714229 -0.0052960515
00000000: d226 0ebe c083 493c ac11 fb3d 5eb7 5bbe
00000010: 7853 5a3d a80b 11bd 50e2 e93c f054 90bc
00000020: f0e3 1fbd e052 613c cc63 f63d 041b 70be
00000030: 86fa 0c3e a087 103c ca64 353e 808a adbb

graph_detector.graph_conv1.att_l f4 [1, 1, 64]
-0.09244552 -0.22086214 0.20173953 0.09424859 0.15466334 -0.28275985 0.25882548 0.1744293
-0.30758005 -0.32499278 0.07627565 -0.30739924 -0.041432753 -0.28599057 0.2584437 -0.0065390887
-0.009173098 0.08601147 -0.27212498 -0.11648339 -0.44327682 -0.27553746 0.012202235 -0.0016244205
0.18691243 0.01926443 0.04857532 0.43797788 -0.10548589 0.1793694 0.23945658 -0.048293523
0.10934588 -0.5394273 0.06235298 -0.003072099 0.14723141 0.023384117 -0.043128178 -0.4395833
0.26254812 0.038986333 -0.024055105 -0.020484354 -0.19073579 -0.041266147 0.24274325 0.009595809
0.054549176 0.3563421 -0.07181277 -0.11132093 0.13027664 0.2933932 -0.1180804 0.12826781
0.25283968 -0.14458966 0.0010190633 -0.18471745 0.34558657 0.076427296 0.02016337 -0.3207414
00000000: 1454 bdbd af29 62be cf94 4e3e 6805 c13d
00000010: 1160 1e3e e6c5 90be c684 843e 989d 323e
00000020: 227b 9dbe 7465 a6be 6836 9c3d 6f63 9dbe
00000030: 64b5 29bd 5b6d 92be bc52 843e da45 d6bb
00000040: c34a 16bc c826 b03d f753 8bbe d88e eebd
00000050: 2ef5 e2be 3f13 8dbe e2eb 473c 82ea d4ba
00000060: f965 3f3e 70d0 9d3c eaf6 463d a33e e03e
00000070: fc08 d8bd 9dac 373e 1b34 753e 6ecf 45bd
00000080: bcf0 df3d e817 0abf d765 7f3d 4555 49bb
00000090: d5c3 163e 0c90 bf3c 2ca7 30bd 1011 e1be
000000a0: b56c 863e 22b0 1f3d 360f c5bc cece a7bc
000000b0: 3e50 43be b106 29bd b091 783e bd37 1d3c
000000c0: f56e 5f3d 7972 b63e 9312 93bd 3afc e3bd
000000d0: 3d67 053e a237 963e 23d4 f1bd a358 033e
000000e0: 3474 813e 500f 14be 1792 853a 9226 3dbe
000000f0: b9f0 b03e ea85 9c3d a72d a53c 3738 a4be

graph_detector.graph_conv1.att_r f4 [1, 1, 64]
-0.13584717 -0.13236658 -0.14269027 0.12698345 0.23251766 -0.18650803 -0.004763162 0.17276682
-0.1674652 0.1930327 -0.050176106 0.23144497 -0.15335168 -0.16134879 0.3258058 -0.14141567
0.08813239 0.041201167 -0.2650065 -0.4100367 -0.0044636414 -0.17092569 -0.017725112 0.122049436
0.1131198 0.18997592 -0.1007526 -0.02559602 -0.040241785 0.22349459 0.059275936 0.02521351
0.12490354 0.108730875 0.011565001 -0.06896424 0.2285214 -0.1396349 0.24070042 0.15754485
-0.05677616 -0.043338045 -0.06649525 -0.11240304 0.038205657 -0.16461475 -0.09397719 0.16142972
0.07943478 -0.16853088 -0.14328757 0.1873866 0.29822528 -0.34752285 0.13598864 0.16316386
0.29842246 0.033906117 -0.28139517 -0.086190864 0.28177693 0.038027436 -0.25235316 0.16344741
00000000: 851b 0bbe 1b8b 07be 661d 12be f307 023e
00000010: 1c19 6e3e f6fb 3ebe 4d14 9cbb c9e9 303e
00000020: ff7b 2bbe 5daa 453e 7685 4dbd e9ff 6c3e
00000030: 3908 1dbe 9e38 25be 05d0 a63e 45cf 10be
00000040: c17e b43d 8ec2 283d efae 87be 55f0 d1be
00000050: bd43 92bb 2507 2fbe 4134 91bc 0ef5 f93d
00000060: 5bab e73d 0c89 423e 6157 cebd bfae d1bc
00000070: 92d4 24bd c4db 643e 53cb 723d 908c ce3c
00000080: 6dcd ff3d 4bae de3d 217b 3d3c 203d 8dbd
00000090: 8401 6a3e 74fc 0ebe 2c7a 763e 7053 213e
000000a0: 1e8e 68bd 3c83 31bd a92e 88bd 9133 e6bd
000000b0: 897d 1c3d c590 28be 1d77 c0bd d54d 253e
000000c0: b4ae a23d 5c93 2cbe fab9 12be 46e2 3f3e
000000d0: fcb0 983e 84ee b1be 9b40 0b3e 6d14 273e
000000e0: d4ca 983e 24e1 0a3d 0713 90be d684 b0bd
000000f0: 1145 903e a8c2 1b3d 6f34 81be c25e 273e

graph_detector.graph_conv1.bias f4 [64]
0.090981185 -0.02411694 -0.038858104 -0.05228385 -0.050032947 0.03971279 -0.061425366 -0.08891015
0.07915711 0.017671784 -0.013555572 0.06405265 0.010925841 0.033679903 -0.009628401 0.07107303
0.12945995 -0.011982684 -0.072994664 -0.011534209 0.025309974 0.048170213 -0.109055504 -0.058418207
0.05216765 0.012027026 -0.067362204 -0.11495981 0.014042563 0.06340652 -0.14652635 0.04581796
-0.036608424 0.026232272 -0.11774477 0.042836715 -0.009183368 -0.015467078 0.07020017 0.043285713
-0.03785198 0.024413 0.07414115 -0.050756086 0.04729407 0.049391523 -0.13661432 -0.066910565
-0.11796145 -0.08669392 0.005886537 0.035858244 -0.04870149 -0.11397924 -0.006402719 -0.02097808
-0.10832001 -0.0608821 0.04411402 -0.055238828 -0.05140407 -0.04696056 -0.01405232 0.1486695
00000000: 5854 ba3d e490 c5bc ad29 1fbd 9727 56bd
00000010: 59ef 4cbd e1a9 223d 2a99 7bbd 8616 b6bd
00000020: 1f1d a23d 6bc4 903c 3118 5ebc 092e 833d
00000030: 4c02 333c f0f3 093d 71c0 1dbc bd8e 913d
00000040: 2691 043e 0553 44bc 3a7e 95bd fbf9 3cbc
00000050: dd56 cf3c 214e 453d 7e58 dfbd ee47 6fbd
00000060: bfad 553d 010d 453c 32f5 89bd 0d70 ebbd
00000070: c712 663c 47db 813d 010b 16be 9dab 3b3d
00000080: b7f2 15bd 10e5 d63c 2c24 f1bd 8d75 2f3d
00000090: d675 16bc a169 7dbc 1bc5 8f3d 5c4c 313d
000000a0: ae0a 1bbd c6fd c73c 51d7 973d 9de5 4fbd
000000b0: 6db7 413d c44e 4a3d a0e4 0bbe 6808 89bd
000000c0: c695 f1bd 958c b1bd dae3 c03b 18e0 123d
000000d0: 377b 47bd f36d e9bd e6cd d1bb 39da abbc
000000e0: e2d6 ddbd 825f 79bd e7b0 343d 1c42 62bd
000000f0: 138d 52bd b759 40bd b43b 66bc d13c 183e

graph_detector.graph_conv1.lin_l.weight f4 [64, 95]
0.05229351 0.08582982 0.14287636 -0.15309082 0.06229043 -0.15490267 -0.18276083 0.009254178
-0.10310071 0.031797394 0.0758338 -0.15944825 0.04125334 -3.8473616e-05 0.07323758 0.1931747
0.0017294596 -0.06953813 0.07020431 -0.022313409 0.13884303 0.1414061 0.115139656 -0.13890037
-0.10164538 0.12065264 -0.24877557 -0.030314846 0.021254385 -0.07485237 -0.1814759 0.055074733
-0.14731467 -0.1813543 -0.10800344 -0.040108345 0.0008661209 0.113278545 0.19879152 0.0049297833
-0.02130491 0.11592263 0.037046846 -0.21438268 -0.022287862 0.11563379 0.13033696 0.16509688
-0.1136569 -0.13556567 -0.037329778 0.11683918 -0.107905075 0.01877775 0.0028657047 0.13234098
0.018471815 0.0649235 -0.1686946 -0.047457732 0.17793033 -0.15831989 0.055902462 -0.22522376
-0.044637997 -0.013007933 0.05252356 0.06693042 0.012268358 0.08398238 0.15850374 -0.09950796
-0.11345027 0.14121991 0.06260422 0.012625629 0.06320135 -0.0403032 -0.14423642 0.27233762
-0.2530633 0.21912265 -0.180708 -0.061712734 0.25232476 0.26877296 -0.24364567 -0.03891428
0.18534483 0.051080678 0.12501195 -0.14672068 -0.17413026 -0.109965675 0.085168935 -0.15397955
-0.07791981 0.12178556 0.110113114 -0.14771436 -0.20784649 0.15382455 -0.0696364 0.092353754
0.043213673 -0.026681151 0.0010492236 -0.017016036 0.05076929 -0.06484207 0.118337385 0.12760736
-0.098200545 0.041157156 0.0015745951 -0.12031179 0.05295451 0.19208236 0.091183916 0.24009414
-0.10735493 -0.031472195 -0.03507444 0.12749763 0.0920055 -0.16114733 0.11748468 0.15309247
-0.026138786 -0.03234839 0.14243692 -0.11218307 0.15907696 0.074695915 -0.1690609 -0.15716513
-0.041397482 -0.15738751 0.0013994173 0.009959371 0.034833215 0.06607006 -0.0045579136 0.051525507
0.086660564 -0.21503788 0.061830934 0.041471872 0.035798118 0.026605751 0.10338852 -0.039166722
0.04799392 -0.15804468 -0.020291207 -0.049469985 -0.08448116 -0.09867483 -0.12769584 0.09377446
0.18531181 0.10427502 0.062397026 0.12690216 -0.007986061 -0.028429195 -0.089500725 -0.05968475
0.0876624 0.050623555 0.02197624 0.03287664 -0.019525178 -0.11190615 -0.19504528 0.14390434
-0.20128247 0.059683844 0.33826742 -0.068376444 0.15847225 0.0326432 0.11001222 0.054089308
0.074563004 0.08559561 0.15652291 0.13802007 -0.10465033 0.11658933 0.12155394 0.023045046
-0.04730913 0.1289907 0.07807069 0.12941688 -0.20517215 0.040345922 -0.063694336 -0.06484009
-0.057380833 -0.17885193 -0.11192957 -0.21489559 0.022079548 -0.15992163 0.024900042 0.0036726112
0.042079672 -0.034275744 0.038247116 -0.109998375 -0.101085074 0.050706614 -0.10354229 -0.12293455
-0.1207906 -0.21979333 -0.12476688 -0.031786986 0.066908985 0.09505719 0.052343618 -0.04832689
0.18188678 -0.22065641 -0.14048727 0.09180359 -0.11435521 0.11024639 0.01103467 -0.11660732
0.05117771 -0.015139937 -0.10434854 0.15182061 0.07574839 0.009417751 0.19576955 -0.21475257
-0.08964117 0.1536827 0.11732342 0.019386636 0.044536076 0.017266236 -0.09572728 -0.06750883
0.02175031 -0.079823725 -0.17652716 0.059962504 0.011206043 0.021729749 -0.069809675 0.046754953
00000000: b831 563d 8bc7 af3d 2e4e 123e d7c3 1cbe
00000010: 4024 7f3d ce9e 1ebe a825 3bbe d69e 173c
00000020: 7726 d3bd fc3d 023d c04e 9b3d 6746 23be
00000030: 43f9 283d bb5e 21b8 96fd 953d 97cf 453e
00000040: 09af e23a 026a 8ebd 47c7 8f3d 9cca b6bc
00000050: de2c 0e3e c3cc 103e 57ce eb3d e63b 0ebe
00000060: 742b d0bd bb18 f73d 06bf 7ebe d756 f8bc
00000070: ad1d ae3c 334c 99bd d1d4 39be 0b96 613d
00000080: a8d9 16be f1b4 39be e830 ddbd a648 24bd
00000090: 640c 633a 95fe e73d 0190 4b3e 058a a13b
000000a0: a287 aebc d868 ed3d 6fbe 173d 2287 5bbe
000000b0: 0995 b6bc 69d1 ec3d 0d77 053e 280f 293e
000000c0: f3c4 e8bd bad1 0abe 1ce7 18bd 6149 ef3d
000000d0: 56fd dcbd ccd3 993c 8cce 3b3b 6584 073e
000000e0: 3452 973c 9df6 843d 47be 2cbe 0a63 42bd
000000f0: 5e33 363e 9c1e 22be fbf9 643d 0fa1 66be
00000100: 55d6 36bd 3a1f 55bc f222 573d d112 893d
00000110: 3901 493c f4fe ab3d ce4e 223e d4ca cbbd
00000120: 9d58 e8bd f49b 103e a436 803d badb 4e3c
00000130: b66f 813d f814 25bd b6b2 13be d66f 8b3e
00000140: 8391 81be b061 603e 850b 39be 7ec6 7cbd
00000150: b630 813e 9c9c 893e 407e 79be 9464 1fbd
00000160: 09cb 3d3e f939 513d 2203 003e f23d 16be
00000170: 344f 32be af35 e1bd 0d6d ae3d d1ac 1dbe
00000180: 6c94 9fbd b56a f93d fc82 e13d 6f42 17be
00000190: b6d5 54be 2f84 1d3e 879d 8ebd f723 bd3d
000001a0: d200 313d 6e92 dabc 1a86 893a 3765 8bbc
000001b0: 76f3 4f3d ebcb 84bd df5a f23d 81ab 023e
000001c0: 5e1d c9bd 6894 283d a562 ce3a 0766 f6bd
000001d0: d4e6 583d 3db1 443e a2be ba3d 3ddb 753e
000001e0: e7dc dbbd fde8 00bd 37aa 0fbd bd8e 023e
000001f0: 616d bc3d ce03 25be cf9b f03d 46c4 1c3e
00000200: 0221 d6bc bf7f 04bd fcda 113e 3dc0 e5bd
00000210: 12e5 223e 2cfa 983d 4d1e 2dbe e5ef 20be
00000220: 6890 29bd 312a 21be a76c b73a a12c 233c
00000230: 46ad 0e3d bd4f 873d 8d5a 95bb 690c 533d
00000240: 187b b13d e432 5cbe 6f42 7d3d 69de 293d
00000250: 0ca1 123d 4ef4 d93c 5cbd d33d 496d 20bd
00000260: 4695 443d 77d6 21be bf39 a6bc 0aa1 4abd
00000270: 7504 adbd 0716 cabd b3c2 02be d30c c03d
00000280: 61c2 3d3e 248e d53d 0694 7f3d a4f2 013e
00000290: f8d7 02bc 58e4 e8bc 284c b7bd ff77 74bd
000002a0: 5888 b33d a55a 4f3d 8407 b43c a8a9 063d
000002b0: 44f3 9fbc 0d2f e5bd f3b9 47be a95b 133e
000002c0: fe1c 4ebe 0c77 743d 6331 ad3e f308 8cbd
000002d0: 8d46 223e e0b4 053d 164e e13d c08c 5d3d
000002e0: 7db4 983d c04c af3d 8b47 203e 2255 0d3e
000002f0: ea52 d6bd 63c6 ee3d 46f1 f83d f7c8 bc3c
00000300: 38c7 41bd 2316 043e 87e3 9f3d dc85 043e
00000310: a618 52be c441 253d 2d72 82bd e2ca 84bd
00000320: 2a08 6bbd f624 37be 553b e5bd 970d 5cbe
00000330: 2be0 b43c 7fc2 23be 2cfb cb3c 31b0 703b
00000340: bc5b 2c3d b964 0cbd 02a9 1c3d d446 e1bd
00000350: b105 cfbd bdb1 4f3d fb0d d4bd 1cc5 fbbd
00000360: 1061 f7bd 8111 61be c785 ffbd 1233 02bd
00000370: 9407 893d 58ad c23d 4366 563d 6bf2 45bd
00000380: 8740 3a3e c1f3 61be e5db 0fbe 8503 bc3d
00000390: 1033 eabd dcc8 e13d c3ca 343c d2cf eebd
000003a0: b89f 513d 800d 78bc b0b4 d5bd dd76 1b3e
000003b0: f921 9b3d e94c 1a3c d077 483e 19e8 5bbe
000003c0: ca95 b7bd ff5e 1d3e 4347 f03d b9d0 9e3c
000003d0: 766b 363d ec71 8d3c aa0c c4bd 1242 8abd
000003e0: b52d b23c 9f7a a3bd 89c3 34be 3e9b 753d
000003f0: 8d99 373c 9602 b23c 60f8 8ebd 1f82 3f3d

graph_detector.graph_conv1.lin_r.weight f4 [64, 95]
0.05229351 0.08582982 0.14287636 -0.15309082 0.06229043 -0.15490267 -0.18276083 0.009254178
-0.10310071 0.031797394 0.0758338 -0.15944825 0.04125334 -3.8473616e-05 0.07323758 0.1931747
0.0017294596 -0.06953813 0.07020431 -0.022313409 0.13884303 0.1414061 0.115139656 -0.13890037
-0.10164538 0.12065264 -0.24877557 -0.030314846 0.021254385 -0.07485237 -0.1814759 0.055074733
-0.14731467 -0.1813543 -0.10800344 -0.040108345 0.0008661209 0.113278545 0.19879152 0.0049297833
-0.02130491 0.11592263 0.037046846 -0.21438268 -0.022287862 0.11563379 0.13033696 0.16509688
-0.1136569 -0.13556567 -0.037329778 0.11683918 -0.107905075 0.01877775 0.0028657047 0.13234098
0.018471815 0.0649235 -0.1686946 -0.047457732 0.17793033 -0.15831989 0.055902462 -0.22522376
-0.044637997 -0.013007933 0.05252356 0.06693042 0.012268358 0.08398238 0.15850374 -0.09950796
-0.11345027 0.14121991 0.06260422 0.012625629 0.06320135 -0.0403032 -0.14423642 0.27233762
-0.2530633 0.21912265 -0.180708 -0.061712734 0.25232476 0.26877296 -0.24364567 -0.03891428
0.18534483 0.051080678 0.12501195 -0.14672068 -0.17413026 -0.109965675 0.085168935 -0.15397955
-0.07791981 0.12178556 0.110113114 -0.14771436 -0.20784649 0.15382455 -0.0696364 0.092353754
0.043213673 -0.026681151 0.0010492236 -0.017016036 0.05076929 -0.06484207 0.118337385 0.12760736
-0.098200545 0.041157156 0.0015745951 -0.12031179 0.05295451 0.19208236 0.091183916 0.24009414
-0.10735493 -0.031472195 -0.03507444 0.12749763 0.0920055 -0.16114733 0.11748468 0.15309247
-0.026138786 -0.03234839 0.14243692 -0.11218307 0.15907696 0.074695915 -0.1690609 -0.15716513
-0.041397482 -0.15738751 0.0013994173 0.009959371 0.034833215 0.06607006 -0.0045579136 0.051525507
0.086660564 -0.21503788 0.061830934 0.041471872 0.035798118 0.026605751 0.10338852 -0.039166722
0.04799392 -0.15804468 -0.020291207 -0.049469985 -0.08448116 -0.09867483 -0.12769584 0.09377446
0.18531181 0.10427502 0.062397026 0.12690216 -0.007986061 -0.028429195 -0.089500725 -0.05968475
0.0876624 0.050623555 0.02197624 0.03287664 -0.019525178 -0.11190615 -0.19504528 0.14390434
-0.20128247 0.059683844 0.33826742 -0.068376444 0.15847225 0.0326432 0.11001222 0.054089308
0.074563004 0.08559561 0.15652291 0.13802007 -0.10465033 0.11658933 0.12155394 0.023045046
-0.04730913 0.1289907 0.07807069 0.12941688 -0.20517215 0.040345922 -0.063694336 -0.06484009
-0.057380833 -0.17885193 -0.11192957 -0.21489559 0.022079548 -0.15992163 0.024900042 0.0036726112
0.042079672 -0.034275744 0.038247116 -0.109998375 -0.101085074 0.050706614 -0.10354229 -0.12293455
-0.1207906 -0.21979333 -0.12476688 -0.031786986 0.066908985 0.09505719 0.052343618 -0.04832689
0.18188678 -0.22065641 -0.14048727 0.09180359 -0.11435521 0.11024639 0.01103467 -0.11660732
0.05117771 -0.015139937 -0.10434854 0.15182061 0.07574839 0.009417751 0.19576955 -0.21475257
-0.08964117 0.1536827 0.11732342 0.019386636 0.044536076 0.017266236 -0.09572728 -0.06750883
0.02175031 -0.079823725 -0.17652716 0.059962504 0.011206043 0.021729749 -0.069809675 0.046754953
00000000: b831 563d 8bc7 af3d 2e4e 123e d7c3 1cbe
00000010: 4024 7f3d ce9e 1ebe a825 3bbe d69e 173c
00000020: 7726 d3bd fc3d 023d c04e 9b3d 6746 23be
00000030: 43f9 283d bb5e 21b8 96fd 953d 97cf 453e
00000040: 09af e23a 026a 8ebd 47c7 8f3d 9cca b6bc
00000050: de2c 0e3e c3cc 103e 57ce eb3d e63b 0ebe
00000060: 742b d0bd bb18 f73d 06bf 7ebe d756 f8bc
00000070: ad1d ae3c 334c 99bd d1d4 39be 0b96 613d
00000080: a8d9 16be f1b4 39be e830 ddbd a648 24bd
00000090: 640c 633a 95fe e73d 0190 4b3e 058a a13b
000000a0: a287 aebc d868 ed3d 6fbe 173d 2287 5bbe
000000b0: 0995 b6bc 69d1 ec3d 0d77 053e 280f 293e
000000c0: f3c4 e8bd bad1 0abe 1ce7 18bd 6149 ef3d
000000d0: 56fd dcbd ccd3 993c 8cce 3b3b 6584 073e
000000e0: 3452 973c 9df6 843d 47be 2cbe 0a63 42bd
000000f0: 5e33 363e 9c1e 22be fbf9 643d 0fa1 66be
00000100: 55d6 36bd 3a1f 55bc f222 573d d112 893d
00000110: 3901 493c f4fe ab3d ce4e 223e d4ca cbbd
00000120: 9d58 e8bd f49b 103e a436 803d badb 4e3c
00000130: b66f 813d f814 25bd b6b2 13be d66f 8b3e
00000140: 8391 81be b061 603e 850b 39be 7ec6 7cbd
00000150: b630 813e 9c9c 893e 407e 79be 9464 1fbd
00000160: 09cb 3d3e f939 513d 2203 003e f23d 16be
00000170: 344f 32be af35 e1bd 0d6d ae3d d1ac 1dbe
00000180: 6c94 9fbd b56a f93d fc82 e13d 6f42 17be
00000190: b6d5 54be 2f84 1d3e 879d 8ebd f723 bd3d
000001a0: d200 313d 6e92 dabc 1a86 893a 3765 8bbc
000001b0: 76f3 4f3d ebcb 84bd df5a f23d 81ab 023e
000001c0: 5e1d c9bd 6894 283d a562 ce3a 0766 f6bd
000001d0: d4e6 583d 3db1 443e a2be ba3d 3ddb 753e
000001e0: e7dc dbbd fde8 00bd 37aa 0fbd bd8e 023e
000001f0: 616d bc3d ce03 25be cf9b f03d 46c4 1c3e
00000200: 0221 d6bc bf7f 04bd fcda 113e 3dc0 e5bd
00000210: 12e5 223e 2cfa 983d 4d1e 2dbe e5ef 20be
00000220: 6890 29bd 312a 21be a76c b73a a12c 233c
00000230: 46ad 0e3d bd4f 873d 8d5a 95bb 690c 533d
00000240: 187b b13d e432 5cbe 6f42 7d3d 69de 293d
00000250: 0ca1 123d 4ef4 d93c 5cbd d33d 496d 20bd
00000260: 4695 443d 77d6 21be bf39 a6bc 0aa1 4abd
00000270: 7504 adbd 0716 cabd b3c2 02be d30c c03d
00000280: 61c2 3d3e 248e d53d 0694 7f3d a4f2 013e
00000290: f8d7 02bc 58e4 e8bc 284c b7bd ff77 74bd
000002a0: 5888 b33d a55a 4f3d 8407 b43c a8a9 063d
000002b0: 44f3 9fbc 0d2f e5bd f3b9 47be a95b 133e
000002c0: fe1c 4ebe 0c77 743d 6331 ad3e f308 8cbd
000002d0: 8d46 223e e0b4 053d 164e e13d c08c 5d3d
000002e0: 7db4 983d c04c af3d 8b47 203e 2255 0d3e
000002f0: ea52 d6bd 63c6 ee3d 46f1 f83d f7c8 bc3c
00000300: 38c7 41bd 2316 043e 87e3 9f3d dc85 043e
00000310: a618 52be c441 253d 2d72 82bd e2ca 84bd
00000320: 2a08 6bbd f624 37be 553b e5bd 970d 5cbe
00000330: 2be0 b43c 7fc2 23be 2cfb cb3c 31b0 703b
00000340: bc5b 2c3d b964 0cbd 02a9 1c3d d446 e1bd
00000350: b105 cfbd bdb1 4f3d fb0d d4bd 1cc5 fbbd
00000360: 1061 f7bd 8111 61be c785 ffbd 1233 02bd
00000370: 9407 893d 58ad c23d 4366 563d 6bf2 45bd
00000380: 8740 3a3e c1f3 61be e5db 0fbe 8503 bc3d
00000390: 1033 eabd dcc8 e13d c3ca 343c d2cf eebd
000003a0: b89f 513d 800d 78bc b0b4 d5bd dd76 1b3e
000003b0: f921 9b3d e94c 1a3c d077 483e 19e8 5bbe
000003c0: ca95 b7bd ff5e 1d3e 4347 f03d b9d0 9e3c
000003d0: 766b 363d ec71 8d3c aa0c c4bd 1242 8abd
000003e0: b52d b23c 9f7a a3bd 89c3 34be 3e9b 753d
000003f0: 8d99 373c 9602 b23c 60f8 8ebd 1f82 3f3d

graph_detector.conv1.weight f4 [64, 64, 2]
0.045176193 -0.029724216 0.026698738 -0.00013910481 -0.058684755 -0.059762083 0.022398317 -0.12207369
-0.07189088 -0.0695002 0.059542026 0.108057596 -0.040368002 -0.12905334 -0.09444609 -0.08612761
0.070132025 0.00908678 0.009083313 -0.0004540092 -0.15315479 -0.06735358 -0.03656602 0.1333208
0.029345293 -0.029195609 0.07108991 0.12929292 -0.02368664 -0.038612224 -0.11016444 -0.021781765
-0.08955338 -0.0076860166 -0.03799382 -0.036409143 0.05213127 0.054867364 -0.092031166 0.07898274
-0.0105029605 0.03423252 0.01813614 0.038511246 -0.051691424 0.094979964 -0.02732777 0.05520404
-0.116868846 0.033051435 0.11242211 -0.035974566 -0.006938108 -0.033558004 -0.053940997 0.008710337
-0.016727455 0.045167442 0.016866613 0.021631727 0.02095172 -0.06865268 0.003851403 0.033561397
-0.13377406 -0.083541356 -0.032600787 0.016057597 0.10905051 0.0510114 0.008724383 -0.0731626
-0.17330712 -0.11249658 -0.06811153 -0.1392798 -0.07668848 0.06383334 -0.023069542 0.10359475
0.053131144 -0.13881779 -0.057759147 -0.098428465 0.16068928 0.028810373 -0.023645408 0.059425734
-0.045545537 0.04410995 0.09295214 0.1361048 0.033351384 0.005018952 -0.04952554 -0.038761366
0.0643121 -0.022850474 -0.06896215 -0.09947867 0.07358958 0.10603195 0.065789655 0.0070261466
-0.096087575 -0.04782515 0.0228616 -0.054691866 0.033389788 0.13213895 -0.0011833699 -0.14317352
-0.055453643 -0.17809458 0.094797 0.04884415 0.021100258 -0.032006934 0.017572712 -0.06350447
-0.09906818 -0.1017551 -0.0627597 -0.12175678 -0.046220258 -0.094611965 0.1405078 0.06442222
-0.052928537 -0.13675638 0.24272378 0.23392852 -0.059353568 0.062423766 -0.041801434 -0.055026952
0.027121747 0.06939654 0.18551762 0.19910045 -0.10058491 -0.010419587 0.067281805 0.09896901
-0.006455271 0.098182075 0.04040182 0.022526905 0.012429369 -0.17084365 0.2599933 0.12220921
0.12490369 -0.028825141 0.18922988 0.07587281 -0.21279912 -0.15250857 -0.054356284 -0.06498278
-0.05670931 -0.20667772 0.009459948 -0.07209193 0.07638733 0.12231035 0.10626428 0.07568867
0.2029587 0.107860796 -0.058100868 -0.13510872 0.09115603 0.12009879 -0.08604853 0.0047569997
0.10225349 -0.22295557 -0.10009007 0.043671038 -0.03349925 -0.024122829 0.035790272 -0.02213074
-0.034880783 -0.11279858 -0.08749862 0.015927803 0.11648093 0.049311657 0.09803495 -0.09890691
-0.07644465 -0.07493285 0.03730029 0.17548655 0.13127601 0.12352558 0.0028196746 0.057070103
0.018432654 -0.07734046 -0.14524604 0.011916582 -0.029808795 -0.055964883 -0.04104297 0.018058527
-0.053204127 -0.083574146 -0.051209673 -0.030897457 0.046756905 0.062080592 0.024880212 0.1256044
0.06967541 -0.001923656 0.055136703 -0.0770606 0.014999582 0.09521353 0.042667683 -0.018072234
0.10245458 -0.02126832 -0.096914105 0.061927136 0.03304029 -0.034251507 0.05029305 0.037995677
-0.0035009063 -0.04874494 -0.13333549 -0.12779292 0.08109658 -0.0014093289 -0.07886179 -0.07821115
-0.15945351 -0.09131937 0.046177365 0.084412515 0.14703174 0.012653642 -0.017270554 0.15087269
-0.047320172 0.0021809353 -0.15368037 0.11190991 0.02279137 -0.0034554175 -0.014241653 -0.06822042
00000000: ac0a 393d 3380 f3bc 50b7 da3c aadc 11b9
00000010: 6d5f 70bd 16c9 74bd ad7c b73c c501 fabd
00000020: 873b 93bd 1f56 8ebd 57e2 733d 4d4d dd3d
00000030: eb58 25bd 8f26 04be f46c c1bd ac63 b0bd
00000040: 61a1 8f3d b8e0 143c 2dd2 143c 1508 eeb9
00000050: 9cd4 1cbe acf0 89bd 40c6 15bd 3f85 083e
00000060: 8a65 f03c a12b efbc 9697 913d 5d65 043e
00000070: 7c0a c2bc da27 1ebd e59d e1bd ac6f b2bc
00000080: c367 b7bd fbda fbbb 689f 1bbd c121 15bd
00000090: 9987 553d 9abc 603d d67a bcbd b4c1 a13d
000000a0: 9c14 2cbc 6637 0c3d 3e92 943c f8bd 1d3d
000000b0: 63ba 53bd db84 c23d 7dde dfbc a21d 623d
000000c0: ef58 efbd f160 073d 903d e63d 115a 13bd
000000d0: 1159 e3bb 1e74 09bd 3cf1 5cbd cdb5 0e3c
000000e0: 0408 89bc 7f01 393d da2b 8a3c 0535 b13c
000000f0: f1a2 ab3c c799 8cbd d267 7c3b ad77 093d
00000100: 11fc 08be bb17 abbd 6788 05bd 398b 833c
00000110: e055 df3d 54f1 503d b7f0 0e3c 46d6 95bd
00000120: 6c77 31be 9b64 e6bd 0f7e 8bbd 5d9f 0ebe
00000130: da0e 9dbd 0ebb 823d 56fc bcbc 7c29 d43d
00000140: 0ba0 593d 4026 0ebe db94 6cbd dd94 c9bd
00000150: bb8b 243e bb03 ec3c 04b4 c1bc 6668 733d
00000160: f58d 3abd a3ac 343d b15d be3d 0f5f 0b3e
00000170: 769b 083d 0576 a43b 4bdb 4abd 3dc4 1ebd
00000180: 10b6 833d eb30 bbbc 073c 8dbd 79bb cbbd
00000190: 22b6 963d 4727 d93d babc 863d 973b e63b
000001a0: 90c9 c4bd 4ee4 43bd 4048 bb3c 9404 60bd
000001b0: bbc3 083d 6f4f 073e 4e1b 9bba 149c 12be
000001c0: 5c23 63bd 6d5e 36be ee24 c23d ce10 483d
000001d0: 73da ac3c b419 03bd a6f4 8f3c a20e 82bd
000001e0: 42e4 cabd fa64 d0bd 2888 80bd 9e5b f9bd
000001f0: 7451 3dbd ebc3 c1bd 47e1 0f3e ccef 833d
00000200: 98cb 58bd dd09 0cbe 958c 783e f58a 6f3e
00000210: ba1c 73bd 10b0 7f3d fb37 2bbd f163 61bd
00000220: 6d2e de3c c61f 8e3d 55f8 3d3e fde0 4b3e
00000230: 76ff cdbd eab6 2abc 0bcb 893d 44b0 ca3d
00000240: bd86 d3bb af13 c93d 617c 253d 588a b83c
00000250: 8da4 4b3c a3f1 2ebe d81d 853e d348 fa3d
00000260: 81cd ff3d b422 ecbc 7ac5 413e 3463 9b3d
00000270: 03e8 59be 352b 1cbe b2a4 5ebd b115 85bd
00000280: 0548 68bd 53a3 53be e6fd 1a3c efa4 93bd
00000290: f670 9c3d d97d fa3d 16a1 d93d a902 9b3d
000002a0: 68d4 4f3e 1fe6 dc3d 2dfb 6dbd f159 0abe
000002b0: 03b0 ba3d 5bf6 f53d 363a b0bd 9be0 9b3b
000002c0: 476a d13d 774e 64be 06fc ccbd 67e0 323d
000002d0: 8236 09bd 3d9d c5bc d298 123d 874b b5bc
000002e0: 27df 0ebd f102 e7bd 7a32 b3bd 067b 823c
000002f0: 8e8d ee3d 05fb 493d 8cc6 c83d b58f cabd
00000300: 038f 9cbd 6576 99bd 30c8 183d bfb2 333e
00000310: 386d 063e fbfa fc3d 4aca 383b 57c2 693d
00000320: 1400 973c ad64 9ebd 61bb 14be c43d 433c
00000330: 9331 f4bc 6f3b 65bd ac1c 28bd 7aef 933c
00000340: 92ec 59bd ec28 abbd 3cc1 51bd aa1c fdbc
00000350: 2b84 3f3d 3848 7e3d 96d1 cb3c 719e 003e
00000360: fbb1 8e3d 2f23 fcba 06d7 613d f3d1 9dbd
00000370: cfc0 753c 50ff c23d 4fc4 2e3d 390c 94bc
00000380: b5d3 d13d e63a aebc e77a c6bd 4fa7 7d3d
00000390: 4155 073d 4f4b 0cbd 1600 4e3d 5ba1 1b3d
000003a0: 766f 65bb c6a8 47bd 1989 08be 26dc 02be
000003b0: f715 a63d 3bb9 b8ba 4a82 a1bd 2b2d a0bd
000003c0: c847 23be a605 bbbd 7a24 3d3d 78e0 ac3d
000003d0: 7d8f 163e 3951 4f3c fa7a 8dbc 5f7e 1a3e
000003e0: ccd2 41bd 06ee 0e3b 635e 1dbe 0631 e53d
000003f0: f8b4 ba3c 4974 62bb d255 69bc 26b7 8bbd
