Model/checkpoint/Graph_Conv_AE_nnn/187-G.ckpt (torch, 768831 bytes, 104 tensors)

projection f4 [1, 10, 10, 10]
00000000: cab6 7fbd b841 f3bc 7b24 49bd 7ce6 233d
00000010: e455 b53d f227 51bd 0eae aabd 9414 be3d
00000020: 84d0 cfbd e8fe c4bc 8c4e 80bd fdef 58bd
00000030: 6499 d23d 18a7 243c 97b8 bebd cc64 90bd
00000040: 7a0e c9bd 00f1 a4bd a0ba 233b 5861 f1bc
00000050: 16db 923d 484e 833c 3508 b3bd dca7 133d
00000060: 7cf2 99bd b228 16bd 043e 2c3d 60b4 383d
00000070: 489d 0ebd c8b7 f43c de3d b5bd 3a50 8ebd
00000080: 7e9d 16bd 4026 cb3d 60b7 303d 6858 90bd
00000090: 08c1 d4bd 1840 adbc ff19 bdbd 8c1a 453d
000000a0: 00db 13bb 103b 60bc fc8e 0f3d b81d 2a3d
000000b0: 94da 993d cc99 d03d d0e3 e9bb 6712 59bd
000000c0: 707d 95bc e8ed ccbc c3a5 9bbd a3fe b4bd
000000d0: f8e7 1a3c 3e35 0bbd 1057 963d 2c4d 9a3d
000000e0: 55dd 97bd 580c 193d a4c4 c4bd 3ee0 04bd
000000f0: e0f6 18bb d84b e13c 186c 9abd 3da6 d2bd
00000100: 00c6 293d 4adc 983d 34fd 523d 904b 673c
00000110: 601c 97bb f4df 883c 6898 493c 9065 a93d
00000120: b68b 04bd 5859 8e3c a973 d1bd dcb7 7a3d
00000130: e03a d4bc c0af ecbb a01a 9cbd a027 ee3c
00000140: a03c b63c 70fd cf3d 00a4 d2ba faf1 83bd
00000150: 1ce0 acbd 7036 0b3d 508f 553d 20d1 2e3d
00000160: 1c3f 6b3d 8ac9 c5bd 98e9 ad3c aa6f 32bd
00000170: 1469 423d d416 543d 24dd 993d f2c6 71bd
00000180: f4fe a9bc e0a4 eabb e821 c6bc 744d 383d
00000190: b01d ca3c f6c3 82bd bc9b ad3d 406a 263b
000001a0: dc63 893c e019 afbb e400 f2bc 6da2 a9bd
000001b0: 3027 1a3d 9863 8f3d e89d 733d 106f b93d
000001c0: 4082 e73c fceb 9ebd 0412 1d3d 54d5 9cbd
000001d0: 826d 893d 3426 063d fe6f b43d 75b2 60bd
000001e0: 38c9 86bd d659 bd3d b437 113d 8062 303d
000001f0: 7094 b83c 2530 bdbd 9a50 bb3d dfad 36bd
00000200: ea63 8e3d 406c 643b ea05 b13d a8dc c83c
00000210: d895 2f3d 7445 1a3d a8da b33c 02cc a0bd
00000220: 1273 1ebd bc25 203d 24a8 7f3d 2e00 cc3d
00000230: 1c52 4f3d f0ee 2ebd 7c66 ca3d 503e 75bc
00000240: 4ead c3bd 8028 483b 4edf ce3d c6c2 9c3d
00000250: e8ec 013d de28 cbbd 5809 41bc 7ec3 8c3d
00000260: 4581 b6bd fcab 233d c577 d5bd 9492 493d
00000270: 74b2 a53d e3f2 a1bd 8875 a2bd c019 91bd
00000280: f2bd 8abd 3c0e 083d 5c63 a9bd 006b f43b
00000290: 8eef 973d 180a b13d f161 c1bd 389c 313d
000002a0: 3288 ae3d 061c 943d 8001 033d 68af 1abc
000002b0: 22ae 0ebd 70fe 17bd 7294 923d fd5d 82bd
000002c0: 947a febc 2b8d 7fbd e05a 3a3b e8b6 b63c
000002d0: 867a 8abd 74b7 0b3d d0c1 56bd 8b34 a8bd
000002e0: f846 9b3c f167 2cbd d591 96bd 9430 c03d
000002f0: a059 283c d427 853d e840 433c c802 be3d
00000300: 587a 16bd 5ef0 abbd e0b9 c23d 3036 ad3c
00000310: 124a ab3d e233 c4bd 18b3 5abd 18e9 7b3d
00000320: a81d 453d 0c76 9bbd e0e1 90bc e05e 20bb
00000330: 7ca0 bbbd b6bf 69bd 9941 35bd f8c0 693d
00000340: c408 503d 82b4 5fbd 1035 3fbc 664d b33d
00000350: c858 ae3c 6498 dfbc a8bc 43bd ea2f c13d
00000360: 7038 19bc e043 1ebb b68c d23d c087 e83a
00000370: 48cf 953d 5003 05bd 01e5 2dbd 8a86 b93d
00000380: 7091 883c 304a 18bd 6367 57bd 5af7 80bd
00000390: 808e b53d 580c 34bc 38e8 ac3d a2eb b63d
000003a0: a8a4 5abc c8fc b43c f060 9e3b 60b8 fc3c
000003b0: d864 1a3d 2024 a03d 2a25 46bd 3688 b73d
000003c0: f82d d6bc 4c4f 82bd d451 e5bc 4cd5 8f3d
000003d0: 6408 a4bc c4cb c4bc 4474 9fbc 0c45 8abd
000003e0: fe69 a63d a83f 68bc f4be 3f3d 3858 5d3c
000003f0: 5e59 af3d 96bb 27bd 1418 98bd 3684 963d
-0.06243018 -0.029694423 -0.049107056 0.04001473 0.08854273 -0.051063485 -0.083339795 0.09281269
-0.10147193 -0.02404733 -0.062649816 -0.052963246 0.10283163 0.010049604 -0.093125515 -0.070504755
-0.09817214 -0.080537796 0.0024983063 -0.029465362 0.071706936 0.016028538 -0.087418 0.036048755
-0.07516953 -0.036659904 0.04205133 0.045093894 -0.034817964 0.02987279 -0.08849691 -0.06948896
-0.03677129 0.09919405 0.04314363 -0.07048112 -0.1038838 -0.021148726 -0.09233474 0.04812102
-0.0022560954 -0.013685957 0.03504847 0.04153225 0.075123936 0.101855844 -0.007137753 -0.052996065
-0.01824829 -0.025015786 -0.07599976 -0.088376306 0.00945472 -0.033986323 0.073408246 0.075342506
-0.074152626 0.037365288 -0.09607819 -0.032440417 -0.0023340508 0.027501985 -0.075401485 -0.10285614
0.041448593 0.07463892 0.051511005 0.014117137 -0.004611537 0.016708352 0.012304403 0.08271325
-0.0323598 0.017376587 -0.102271385 0.0612105 -0.02590698 -0.0072230995 -0.07622266 0.029071629
0.022245705 0.10155761 -0.0016070604 -0.06442638 -0.08441183 0.033987463 0.052138627 0.042679906
0.057433233 -0.09657581 0.02122955 -0.043563522 0.04746349 0.051779583 0.07512882 -0.05902762
-0.020751454 -0.007160768 -0.02418609 0.04499574 0.02467236 -0.06385033 0.084769696 0.002539292
0.01677125 -0.0053436607 -0.02954144 -0.082829334 0.03763503 0.07001418 0.059476763 0.090543866
0.02826035 -0.07759854 0.03834726 -0.076578766 0.0671034 0.032751277 0.08810423 -0.05485769
-0.06581348 0.092456505 0.035453513 0.043062687 0.022531718 -0.092376985 0.09146233 -0.04459941
0.06952651 0.003485456 0.08643706 0.02451928 0.04286751 0.037663892 0.02195485 -0.078514114
-0.03868396 0.039098486 0.06241621 0.09960972 0.050615415 -0.042708337 0.098828286 -0.01496847
-0.095545396 0.0030541718 0.10101186 0.076543376 0.031720072 -0.09919904 -0.011782013 0.06873225
-0.08911375 0.03995894 -0.10423235 0.049212053 0.08090678 -0.07907655 -0.079325736 -0.070849895
-0.067745104 0.0332167 -0.082709044 0.0074590445 0.07418738 0.08644503 -0.09442509 0.043361872
0.08522071 0.072319075 0.031983852 -0.009441234 -0.034834035 -0.037107885 0.0715722 -0.06365583
-0.03106431 -0.062390488 0.0028435513 0.022304013 -0.06761651 0.0341105 -0.052430928 -0.08213147
0.018954739 -0.042091314 -0.07352034 0.093842655 0.0102752745 0.06501737 0.01191733 0.09277874
-0.03673777 -0.08395456 0.09508109 0.021144003 0.08363737 -0.09580208 -0.053393453 0.061501592
0.048123986 -0.07590875 -0.01768583 -0.0024470612 -0.09161469 -0.057067595 -0.044252012 0.057068795
0.05078961 -0.054615505 -0.011670366 0.08754997 0.021282569 -0.027294345 -0.04778734 0.09432967
-0.009351835 -0.0024149343 0.10280745 0.0017740652 0.073149264 -0.032473862 -0.042454723 0.090588644
0.016670913 -0.037180126 -0.05258883 -0.062971786 0.0886507 -0.010989271 0.0844273 0.08931662
-0.013344921 0.022093192 0.004833333 0.030849636 0.03769383 0.0781939 -0.048375286 0.08961527
-0.026144966 -0.06362781 -0.02799312 0.07023105 -0.020023532 -0.024022944 -0.01946462 -0.06751451
0.08125685 -0.014175333 0.046812966 0.0135098025 0.08561967 -0.04095038 -0.074264675 0.07349436

sensor_embedding.weight f4 [10, 10]
00000000: 941e 993f 354a fe3d 0a4a eabe dce1 90bf
00000010: 0957 7dbe 179d c7bf 2e74 69bf 7c3b 2ebf
00000020: b8e1 20c0 9ea1 023f fa72 b0bf 2e42 4f3f
00000030: d389 cfbf 66f2 f8be df77 9fbf 823a ca3f
00000040: 47f8 a13f a248 b4be 9be9 5e3e 5aa7 453f
00000050: 6af9 203f 5f4e 40be 3eb9 943f 289d a6bf
00000060: 135b aabf 85fb 833f c5c2 b13f af5f ac3f
00000070: 4de5 123f 6ed3 553f 2245 7bbf ea4f 9cbe
00000080: 99e1 d83e 077a 7bbd 3a0a fe3f c4eb d03f
00000090: d850 b8be f4a2 063f e116 25bf 5d73 a53f
000000a0: cfa5 fdbe f85b 02c0 e5fd 0b3e d315 19be
000000b0: a58a 023f acd3 a3be ed54 f4be e8fc 22bf
000000c0: 5aa6 313e 6758 893f 9e29 a8bd fed6 203f
000000d0: ce42 773f 929a edbc a5ea 313e 7d0f 91bd
000000e0: 6be5 9fbf dc2f 3c3f 0a12 f8be 03de 32bf
000000f0: e631 91bf fd96 b9be 5f6f 73bf c2fb 6dbe
00000100: f286 ad3e d0f4 89bf 8956 84bf 269b 243f
00000110: 7f5c a43f d6e9 8dbe 6264 523f b2ab 693f
00000120: 7467 afbf c0c6 83bf fd2c 933f 682a cd3c
00000130: 1f68 e2bf f8bb a6be da63 583c 2264 be3e
00000140: 73e1 1dbf 04eb b93f 7ad6 bdbe 056c 503f
00000150: ca6e 3ebf b6b5 16be ff97 d5bf 56cf edbc
00000160: 7f64 143f abec ebbd fce9 0940 58fc 253d
00000170: 4e25 8bbf 9432 ba3f 5c61 33bd 64b4 5ebf
00000180: 3bf0 82bf bcea a6be 360f 363e 3c38 42bf
1.1962457 0.124164976 -0.45759612 -1.1318927 -0.24740233 -1.5594815 -0.911929 -0.68059516
-2.5137768 0.5102786 -1.3785088 0.8096036 -1.6213936 -0.48622435 -1.2458457 1.5799105
1.2653893 -0.35211664 0.21768801 0.77208483 0.62880576 -0.18779896 1.1619031 -1.301671
-1.3309044 1.0311133 1.3887564 1.34667 0.57381135 0.8352574 -0.98152363 -0.3052972
0.42359617 -0.06139567 1.9846871 1.632195 -0.3599918 0.52592397 -0.64488035 1.2925831
-0.49540564 -2.0368633 0.13671072 -0.14949732 0.50992805 -0.3199743 -0.47721043 -0.63667154
0.17348614 1.0730103 -0.08211063 0.6282805 0.9658631 -0.029004369 0.17374666 -0.07083032
-1.2491888 0.7351053 -0.48451263 -0.69870013 -1.1343353 -0.36248007 -0.95091814 -0.23240569
0.33892018 -1.0777836 -1.0338908 0.6429924 1.2840728 -0.27717465 0.8218442 0.9127761
-1.3703446 -1.0295029 1.1498104 0.025044635 -1.7688025 -0.32565284 0.0132074 0.3718577
-0.61672133 1.4524846 -0.37077695 0.81414825 -0.743878 -0.14717755 -1.668701 -0.02902953
0.57965845 -0.1151975 2.1549063 0.040523857 -1.087076 1.4546685 -0.04379402 -0.86994004
-1.0229563 -0.32600963 0.1777924 -0.75867057

lin1.weight f4 [10, 10]
00000000: e0cb 153d b20a e2bd f1da 9fbe 22a4 8bbe
00000010: 40c8 243c 809c dbbb d9b6 80be e7cd 9abe
00000020: c826 ee3d 5ce3 283e de32 2bbe aecb 36be
00000030: e5b5 9e3e 8227 743e 385f 5f3d 5b4f 48be
00000040: f0d2 36bd 9430 893d 9850 903d fa3e 1c3e
00000050: 1618 3f3e 5647 95bd a6cf 0e3e 9619 96be
00000060: 793c 8d3e de8d f2bd 2e73 a1be 28b0 653d
00000070: 1e16 a1bd 1291 81be d83b 5bbe 30a3 4e3d
00000080: aac3 683e a600 483e e035 2abe 0e83 bbbd
00000090: 5ab5 533e 31f6 1abe 2014 5d3d d731 a13e
000000a0: bdb1 9d3e e7cd 0cbe 50a7 bfbd e028 fc3d
000000b0: 304d 823c f659 6fbe 601e 77be 4a1e 69be
000000c0: 9a31 5dbe 886f c73d 78e2 723d 9a87 3a3e
000000d0: 38ca 5dbd 4e4d 6fbe 21cf 9bbe 60e2 58bd
000000e0: 2e3c 4b3e d367 883e 1525 0dbe 06d5 063e
000000f0: de4e 5b3e 3e51 3ebe 68c2 0a3d c00d 003d
00000100: cd5a 7abe 0cc0 053e 06ee 4d3e 1236 6cbe
00000110: 30d7 1bbe 9e42 60be b6fb 793e 1a6f 5abe
00000120: 1b32 8c3e 02a6 2a3e 40cb b3bb 90fc a6bc
00000130: 9040 32bd 0949 4fbe 305c 34be ce20 5e3e
00000140: 8fd2 94be f402 933d d897 30be aead 7b3e
00000150: bad5 4f3e 9e86 6e3e 244f 133e f88f 05bd
00000160: 3c1d fcbd 2463 2e3e cb14 16be 7c35 fc3d
00000170: 2839 123d eba3 97be f862 34be f883 3b3e
00000180: 60c9 d0bc d6db 21be 7144 a13e 2090 403c
0.036571383 -0.11037196 -0.31221727 -0.2727366 0.010057509 -0.006702006 -0.25139502 -0.30235216
0.11628491 0.1649298 -0.16718623 -0.17851135 0.3099815 0.23843196 0.054534167 -0.19561522
-0.04463476 0.06698719 0.07046622 0.15258399 0.18661532 -0.07288997 0.13946399 -0.29316396
0.275852 -0.11843465 -0.31533188 0.0560762 -0.07865547 -0.25305992 -0.21409547 0.050448596
0.2273089 0.19531497 -0.16622114 -0.09155856 0.20674649 -0.15132977 0.05397427 0.31483337
0.30799666 -0.1375042 -0.09358084 0.12312484 0.015905946 -0.23374161 -0.24132681 -0.2276546
-0.21600953 0.0973807 0.05929801 0.1821579 -0.05414793 -0.23369333 -0.30431464 -0.052950263
0.19847175 0.26641712 -0.13783677 0.131672 0.21416804 -0.18585679 0.033876806 0.031263113
-0.244487 0.13061541 0.2011033 -0.23067501 -0.15218806 -0.21900412 0.24412426 -0.21331444
0.27381977 0.1666489 -0.005486876 -0.020384103 -0.043518603 -0.20242704 -0.17613292 0.21692201
-0.29066893 0.07178298 -0.17245424 0.24577972 0.20296374 0.2329354 0.14385659 -0.032608002
-0.123102635 0.17030007 -0.1465637 0.12314889 0.03569904 -0.29617247 -0.17615879 0.18312061
-0.025486648 -0.15806517 0.3149753 0.011753112

lin1.bias f4 [10]
00000000: 6752 a13e f055 84bd 2f9e 883e 7bd1 2ebe
00000010: 182c 8dbd 3363 903e 20e9 233d 3724 91be
00000020: c446 d03d c403 f9bd
0.3150818 -0.06461704 0.26683185 -0.17072098 -0.06893176 0.28200683 0.040017247 -0.28347942
0.101697475 -0.12158921

lin2.weight f4 [10, 10]
00000000: 00c2 393a fd0c 92be 9b5b 993e 96dd 90be
00000010: d4a8 eb3d 24f2 1d3e e2de 16be 7673 6f3e
00000020: 4ab5 16be 5a03 91be c0b4 183d 8005 e0bc
00000030: fe9d f7bd 648b 0c3e 0429 e8bd 2876 853d
00000040: 1a5d 143e 9012 d23c 6dc0 31be 78ca 28bd
00000050: 83bc 46be b800 0a3e a826 63be 0646 363e
00000060: 6a34 f8bd 5c7d f1bd 6467 a93d 8840 bc3d
00000070: be7d 6c3e e0f4 f9bc 107d d7bd e09c c2bc
00000080: af6b 17be 4009 1c3d f9c2 0cbe f0e3 303d
00000090: 28c4 9abd 407b a7bc 397d 2dbe 98ba f53d
000000a0: d443 153e 38b5 97bd fdc4 983e 1a88 4dbe
000000b0: 1a7e 633e 2dac 98be 8e1b 97be 1a4f a1be
000000c0: 7415 ab3d 801e ccbd 4eb0 313e 8a03 e5bd
000000d0: e93e 96be f433 26be 08a3 db3d 8a2e 99be
000000e0: cf20 9b3e 550a 933e 0bd8 9b3e 4ffd 39be
000000f0: 0b9b 873e 70e9 7e3d 84d6 f7bd 80e6 23bb
00000100: 60fa 973d b3b4 05be acbb 173e 8737 a0be
00000110: 4070 c2bc 48b9 133d 8d92 9e3e c639 7abe
00000120: b260 87be b9fe 19be 00cd 66bc 08d7 12bd
00000130: 009f 833a 9a65 4c3e 406a 753c 48b2 533d
00000140: aad2 553e 923d 88be 86f0 1c3e e9ff 9d3e
00000150: c019 143e e039 7bbd 6acc 3c3e 18d0 203e
00000160: baba 163e 94ea 95be b4b3 82bd 689e 1f3d
00000170: 6ffc 923e 1ba3 75be 327b a2bd aa13 313e
00000180: bc3a d43d 4456 9dbe 45be 9fbe 9c4a d13d
0.0007086098 -0.28525534 0.29952702 -0.28294057 0.11506811 0.154244 -0.1473346 0.23383889
-0.14717594 -0.2832287 0.03728175 -0.027346373 -0.120906815 0.13725048 -0.11335948 0.06516677
0.1448864 0.025643617 -0.17358561 -0.041208714 -0.19407849 0.13476837 -0.22182715 0.1780015
-0.12119372 -0.117914885 0.08271673 0.09191996 0.23094842 -0.030512273 -0.10521901 -0.023756444
-0.14787172 0.03809476 -0.13746251 0.04318613 -0.07556945 -0.020444512 -0.169423 0.119984806
0.14576656 -0.074076116 0.2983779 -0.2007145 0.22216073 -0.2981886 -0.2951321 -0.31505662
0.08353701 -0.09966755 0.17352411 -0.11182316 -0.29344872 -0.16230756 0.10724455 -0.2991832
0.30298468 0.2871882 0.30438265 -0.18163036 0.26485476 0.062234342 -0.121014625 -0.0025009215
0.07420802 -0.13057213 0.14817685 -0.31292364 -0.023735166 0.03606537 0.30971184 -0.24436101
-0.2644096 -0.15038575 -0.014086962 -0.0358496 0.0010041893 0.19960633 0.014978945 0.051683694
0.20881143 -0.26609474 0.15326127 0.30859306 0.14462948 -0.06133449 0.18437353 0.15704381
0.14719668 -0.2928053 -0.06381932 0.038969427 0.28708217 -0.23988001 -0.07933654 0.17292657
0.10362765 -0.30729878 -0.31199852 0.10219309

lin2.bias f4 [10]
00000000: a474 82bd 6047 d3bc b560 39be c161 2ebe
00000010: b0a3 d0bc 304d 47bd a8ce 9bbd a8f8 9b3d
00000020: 15c4 09be 29f6 97be
-0.06369904 -0.02579087 -0.18103297 -0.17029478 -0.025468677 -0.048657596 -0.07607776 0.07615787
-0.13453706 -0.29679993

graph_detector.conv1.t1_weight f4 [64, 64]
00000000: 03d0 733d d992 e33c b074 56be 3c3b fd3d
00000010: 0172 1dbb 28e0 32be d3b3 503c c5b8 1c3d
00000020: 9cf3 2bbe 6abd e9bc 0d7f e7bc 9d4c d6bc
00000030: 0c42 b83d 6291 953b abd8 2bbe a504 593e
00000040: be3f 903d 0ed9 2b3e b4db 8cbd 7e56 96bb
00000050: 9559 583d 819c 35be 2a35 51be 8dfb 683e
00000060: 78ba 0c3e 6f49 363e 9822 d33d 9c83 31be
00000070: fcf7 64be ac57 08bd ba27 36be dc71 3c3e
00000080: 661d 563e 0309 01bd cf73 e4bc 9bbb b2bd
00000090: a1c5 d13d bfb7 bebd e471 bf3c cc0e fb3d
000000a0: 2afe 17bb 5456 213e 75ad 5fbe e5f9 a6bd
000000b0: 78b1 30be b6a3 5b3d 7227 213e 49ae 543e
000000c0: 294c 45be a8c4 01be 4f5c 6a3d aaff aebd
000000d0: 1b6e 533c bd60 0f3e 480e 183e de11 173e
000000e0: bc68 44bd 33dc adbd d078 dc3d 5030 28be
000000f0: e597 b93c 2d02 65be 9266 27be 87bb 163e
00000100: dd28 fc3d d736 023e 7249 1e3e dbc8 0bbe
00000110: e2fd cf3d 5c56 5b3e edef 94b9 1aac dbbd
00000120: 7311 38be 2774 bdbc a9f9 e6bd ecd8 ca3d
00000130: a4e5 0cbe fe86 9e3d 2533 4fbe 02d0 1a3d
00000140: a86a 9bbd 6f06 203d e8a8 6b3d 2bf4 303e
00000150: 9470 2f3e 0f53 eabd a4a0 11be 922d 573e
00000160: 3076 e83d 4ce0 ca3d 607b efbc de4c 37bb
00000170: 9151 013e 4206 873d f55d 953d 0858 0dbe
00000180: fc49 c23d dc3a e1bd ee67 30be 53e6 e2bd
00000190: cda8 1b3e dc6a d33d 4c24 953d c421 c2bd
000001a0: cd94 0d3e 427f 9cbd 081b f33d efee 4bbe
000001b0: 3fe8 90bd b199 70bd f839 643d d157 4bbe
000001c0: 900d 4f3e 5a83 0f3d acb8 593c b518 b1bd
000001d0: 6e01 afbd d95c 69be eab1 ec3d 0cfc 1e3e
000001e0: 33b5 2e3e 7779 f2bc d077 60bb b6e9 dfbc
000001f0: c342 533e bc8f babb 185b 343e f252 10be
00000200: c495 8d3d 6915 1b3e cde9 29be 2431 8bbd
00000210: 7455 533c 8357 cdbd 0140 3a3e b4da a13d
00000220: 5c50 64bd bad7 b4bc 0919 813a a688 173e
00000230: c82b 23be 612c f6bd 9582 5dbc 3466 75be
00000240: f08b 933d 0cd4 22be 373e e83d 23f6 713b
00000250: d5f3 3dbb d1e7 393e 0acf f03d e8aa ebbd
00000260: 0433 303e 7b70 70be 85fe d7bd 922d 86bd
00000270: 32b4 0cbe e6fc b73d 96de 203e 9114 e53d
00000280: e125 f13c bc90 1cbe c288 1ebe 8ae3 d23c
00000290: f3c3 f8bb ff1f 56be a7dc 153e 1d9d 173e
000002a0: 5848 553e 8a09 bcbd d691 323e 9568 3fbe
000002b0: 97de b3bc 7a55 9dbd 2051 4d3e 72f8 3dbe
000002c0: 6082 dd3d 668d ec3c a889 233e e0c4 22bd
000002d0: 269b aebb 02e3 fd3d bbf2 3d3e da71 213d
000002e0: 28dd 093e c4e2 2abe df3b 4d3d edc6 0c3e
000002f0: 0678 b6bc 0361 233e fc58 19be d726 2a3e
00000300: e748 c33d 3b80 80bd 5e25 32be 9c7a 2dbe
00000310: 5e7f adbc db04 a7bd cfa1 133e 0013 de3d
00000320: 8ba3 75bd 02a5 c0bc 871f 46be 4ac0 23be
00000330: fb28 f9bc 99ac 3a3e 0086 34bd 38a4 223e
00000340: 58e1 283c ca39 363e 42d5 f53d 5ad7 4d3d
00000350: 87c7 c0bc 9a66 59be 2f85 29be 0412 51bc
00000360: 3b12 113d 8f17 08be 69b1 05be dccf 453e
00000370: c144 b7bd 293f 41be b1b8 1e3d 5d56 2fbe
00000380: ca03 a83d f88e 47bc f13f 473e 6155 4a3e
00000390: 8fd6 6cbe 03b9 a13c e61a 52be 38f0 23be
000003a0: 7ec9 c6bc b513 dc3d 9ae5 283e 6188 66bd
000003b0: bbd7 ca3d 75f4 cf3d c472 0e3c d86a 013e
000003c0: 3af9 d5bd 123a 87bd 3027 25bb 838b 12be
000003d0: 1a43 ea3d f23d 793e 5c91 993d 8980 b6bd
000003e0: bcf6 41bd 059a 143e 00e2 05bd 99cc d83d
000003f0: c902 46be 0f8f 133e 0a5d 823d d671 053e
0.059524547 0.027779983 -0.2094295 0.12364814 -0.002402425 -0.17468321 0.012738186 0.038262147
-0.16792148 -0.028532702 -0.028258825 -0.026159579 0.089969724 0.00456445 -0.16781871 0.21193178
0.07043408 0.16782019 -0.068778425 -0.0045879474 0.052819807 -0.17735483 -0.20430437 0.22752209
0.13743007 0.1780145 0.103093326 -0.17335361 -0.22360224 -0.033286735 -0.17788592 0.18402809
0.20909652 -0.031502735 -0.027887253 -0.08727189 0.10242773 -0.093123905 0.023369737 0.12258682
-0.0023192265 0.15755588 -0.21843512 -0.08153132 -0.17255199 0.053622924 0.15737703 0.2076961
-0.19267334 -0.12672675 0.05721694 -0.08544858 0.012904669 0.14001746 0.14849198 0.1475291
-0.047951445 -0.08489265 0.10765231 -0.1642468 0.022655437 -0.22364111 -0.16347721 0.14719974
0.123124816 0.12716232 0.15457705 -0.13650839 0.10155846 0.21419662 -0.00028407518 -0.10726185
-0.17975406 -0.023126675 -0.11278088 0.09904656 -0.13759476 0.077405915 -0.20234354 0.037796028
-0.075887024 0.039068636 0.05753413 0.17280643 0.17132789 -0.114416234 -0.14221436 0.21013477
0.113506675 0.099060625 -0.029233634 -0.00279694 0.12628771 0.065929905 0.072933115 -0.13803113
0.09486768 -0.10997555 -0.17227146 -0.11079087 0.15201111 0.10323116 0.07282314 -0.094790965
0.13826294 -0.0764146 0.1187039 -0.19915365 -0.070755474 -0.05874032 0.055719346 -0.19857718
0.20220017 0.035037376 0.013288658 -0.086472906 -0.085451946 -0.22789325 0.11557372 0.15525836
0.1706131 -0.029598935 -0.0034251101 -0.027333122 0.20630936 -0.005693404 0.17612875 -0.14094141
0.06913331 0.15144886 -0.16593094 -0.06796482 0.012898792 -0.10026457 0.18188478 0.079030424
-0.0557407 -0.022075523 0.000984938 0.14798221 -0.1593467 -0.12020183 -0.013519903 -0.23964769
0.07204425 -0.15901202 0.113399915 0.003692039 -0.0028984447 0.18154837 0.117582396 -0.11507207
0.17206961 -0.23480408 -0.105465926 -0.065516606 -0.13740614 0.089837834 0.1570991 0.11185563
0.029437007 -0.15289587 -0.15481856 0.025743265 -0.0075917183 -0.20910643 0.14634953 0.14806028
0.20828378 -0.09181507 0.17438444 -0.18692239 -0.021956725 -0.07682319 0.20050478 -0.18551806
0.10815883 0.028876018 0.1597048 -0.039738536 -0.0053285537 0.12396814 0.18549626 0.039415218
0.1346327 -0.16688067 0.050105926 0.13747759 -0.022274029 0.15954976 -0.14975351 0.16616379
0.095353894 -0.06274458 -0.17397067 -0.16941303 -0.021178897 -0.08155223 0.14417194 0.10843468
-0.05997042 -0.023516182 -0.19347964 -0.15991321 -0.030415049 0.18229903 -0.044073105 0.15882957
0.010307632 0.17795482 0.12003566 0.050254203 -0.023532642 -0.21230546 -0.16554712 -0.012760643
0.035417777 -0.13290237 -0.13055958 0.19317573 -0.08948661 -0.1887175 0.038750354 -0.17122789
0.08203848 -0.0121800825 0.19457985 0.19759132 -0.23128723 0.01974154 -0.20518073 -0.16009605
-0.024266 0.10745946 0.16493836 -0.056282405 0.099044286 0.10154048 0.008694354 0.12638414
-0.10447927 -0.06602873 -0.002520036 -0.14311032 0.1143858 0.24340037 0.07498428 -0.08911235
-0.047354445 0.14511879 -0.032686234 0.10585899 -0.19337 0.14410041 0.06365402 0.13031706

graph_detector.conv1.t2_weight f4 [64, 64]
00000000: 772d 56be 7d3a 20bc 79c5 34bd d9ec 4dbe
00000010: 5249 16be 66a7 503e f996 f7bc 493c 26be
00000020: 04bb 123e c438 4a3e 279b c7bd a5dc 91bd
00000030: 2cdf e93d 359b 973d 4f7c 273e c238 33be
00000040: fcd3 a13d d717 58bd b981 4f3e 49f9 d3bb
00000050: 1244 093e 8369 34bd 8418 0f3d 2484 50be
00000060: b603 e1bc b4f7 76bd 621c 03be 42ed 833d
00000070: 903f 69bd efff 3b3e b668 fe3d d492 82bd
00000080: 56b7 19be c37d 88bd bca3 df3d 40f5 15be
00000090: 40e8 3bbe 0a73 0a3c 6d32 3f3e 2ea3 0b3e
000000a0: 89a5 1e3e e21f 4a3e 9ecc 5fbe 81f5 173d
000000b0: 01dd 0f3d 156f ddbd cb0c 7cbd 9b9a e33c
000000c0: 3d2b ffbc 7638 50be 40e8 b63d 1997 f7bd
000000d0: ab8f 35bd 1afb 59be 3f73 1fbe ec24 38be
000000e0: 9dbf c03d adcb 1dbd 4447 5ebd ccd2 2fbe
000000f0: 7087 45be 6966 ec3d 3166 e33d b392 b53c
00000100: fed8 5c3e c79d d63d 366e e1bd ef38 d3bd
00000110: 798f edbc a24f ea3c f814 18bc 6e70 3abe
00000120: 2eab 223e 6e02 88bc d40a 653e fbfd 443d
00000130: 8369 353e 1d01 afbd 6f87 c4bc 597b 1c3e
00000140: e9a9 253c e43a 31be cf06 4b3e a0da 0e3e
00000150: 5536 453e 21b4 c3bd d886 5a3e 8add 4dbe
00000160: 1227 be3d 6574 02ba 123a 703c b60d 16be
00000170: 2c6c 2b3e 6d4a 2c3e 161d 623d fc4e debd
00000180: f0aa f4bd 02d1 02be 3a8d 0a3e 75b1 d93d
00000190: dc20 c13d 92cc e83c 473a a1bd 31b7 47be
000001a0: 0797 c5bc f0e6 3ebe fd67 e23d 4e8f f53d
000001b0: 0ed8 33be dc45 5f3b 3245 f4bc 728d 16be
000001c0: 81de 3dbc c63f 963d 082e c2bb 7b94 ea3d
000001d0: e25a 5ebc f0e9 3f3e 9076 a7bd 67ef 5fbe
000001e0: f707 3fbd c3c4 75bd 401e 1bbe 15ff 2e3d
000001f0: 7f22 afbd a992 303e c93a 2bbe 1256 4bbe
00000200: 5303 193e 2f4b 1a3e 7ac6 223e 5e9a d6bd
00000210: e7b2 c9bd a678 673e 673e d63d b8ab b2bd
00000220: 2023 b53d 2b41 8a3c 036b 403e ed6a 383e
00000230: f839 293e 8762 383e 9cb3 533c c94d 5dbe
00000240: e215 633c b51f 98bd 096e 05be 23f9 5dbe
00000250: 2126 0e3e f539 6f3d 8155 0b3d cf95 aa3c
00000260: d089 e33d 1638 e8bc 747d e5bd 4a33 293e
00000270: 60be 18bd cfdb c23d 8864 9ebd 25f8 a0bc
00000280: dff1 bf3c 7371 883d 90ab 023e f2e1 fabc
00000290: d7b2 6cbc 30b1 1dbe 9adb 10bd 5106 9cbc
000002a0: 0d40 1f3e 6a09 0f3d 6646 4e3e 02a3 813d
000002b0: c24e 4cbe 8073 213e f2e8 6d3d 8b68 22be
000002c0: 284a ebbd d36d a8bc 362d 123e e56f 013c
000002d0: dd15 3c3e 8319 cf3d 001e 113e 2a1c 1c3e
000002e0: 59fe 5bbc 8a5d 863d ce06 a1bd 8cbd 01be
000002f0: c22e b03d 732d 31be 2d4e 36be c8a5 1dbe
00000300: bd90 fabd 7b30 453e 7d8c ee3d 5351 493e
00000310: 353b 463d 1921 56be db91 e23b 6783 d3bd
00000320: e1e7 a53d 59c9 4e3c dad1 353e 44c5 e73d
00000330: 5503 463e 7879 093d 4b76 f43d e68c 16be
00000340: 39a8 d83d 8243 32be 9835 f53d c9e4 e13d
00000350: 5b89 c5bd cd7a 5d3e 3375 653e 47f8 7ebd
00000360: a210 773c b8a7 943c 3eea 05be c252 4fbe
00000370: d455 903d df23 2e3e d922 bcbd b1cd 1d3e
00000380: db6d 8dbd e4f8 143e 5296 393e 09ea 8dbc
00000390: 59fb 8d3d f61a 01be d752 fcbb a928 243c
000003a0: e3f6 67be 9451 603e 6435 56be 993d 523d
000003b0: 647b 31be ed29 efbd f9d8 ce3c aedb 193e
000003c0: 2b4f c33d ffd2 86bd 4a09 103e f97f b93d
000003d0: f71a 99bd d184 5f3d 8139 2b3e a49e 293e
000003e0: 49e5 dd3b 2bd6 dbbd eb4a 9c3d a194 b73d
000003f0: 0e52 5ebd 93fb 253d 3a07 41be 16ca 4a3e
-0.20915781 -0.00977957 -0.044133637 -0.20109881 -0.14676407 0.20376357 -0.030223357 -0.16233934
0.14329153 0.19748217 -0.0974639 -0.07122163 0.1141952 0.0740265 0.16356014 -0.1750212
0.07901761 -0.05275711 0.20264329 -0.006468926 0.13404873 -0.044045936 0.03493549 -0.20362908
-0.02746759 -0.06029482 -0.12803796 0.06441738 -0.056945384 0.1835935 0.12422316 -0.063756615
-0.15011343 -0.06664612 0.10919902 -0.14644337 -0.18350315 0.008450279 0.1867158 0.13636467
0.15492834 0.19738725 -0.21855399 0.037099365 0.035122875 -0.10812203 -0.061535638 0.027783683
-0.031148547 -0.20334038 0.08931017 -0.120893665 -0.044326466 -0.21287194 -0.15571307 -0.17982835
0.09411547 -0.03852432 -0.054267183 -0.17170256 -0.19289947 0.11542971 0.11103476 0.022164678
0.21567151 0.104793124 -0.11007349 -0.103135936 -0.028999077 0.028602425 -0.009282343 -0.18206951
0.15885612 -0.016602721 0.22367412 0.048093777 0.17716031 -0.08545134 -0.023990361 0.15281428
0.0101113105 -0.17307621 0.19826816 0.13950586 0.19259007 -0.09555841 0.21340501 -0.20104042
0.09284796 -0.00049764506 0.014662283 -0.14653668 0.16740483 0.16825266 0.05520352 -0.10854909
-0.11946666 -0.12775043 0.13530436 0.1062955 0.094300956 0.02841786 -0.07872444 -0.19503476
-0.024119867 -0.18642783 0.110549904 0.11990224 -0.17562887 0.003406874 -0.029818151 -0.14702395
-0.011588694 0.073363826 -0.0059258975 0.11454102 -0.013571473 0.18741584 -0.08176911 -0.21868668
-0.046638455 -0.0600021 -0.15148258 0.042723734 -0.085515015 0.17243446 -0.16721644 -0.19857052
0.14942674 0.15067743 0.15896025 -0.10478662 -0.09848576 0.22604617 0.10461121 -0.08724159
0.0884459 0.016876778 0.18790822 0.18009539 0.1652602 0.18006335 0.01292124 -0.21611704
0.013860198 -0.07427923 -0.13030256 -0.2167707 0.13881733 0.05840488 0.03401709 0.020823387
0.1111027 -0.028347056 -0.11205569 0.16523471 -0.03729093 0.095145814 -0.077340186 -0.019649575
0.023430763 0.06662264 0.12760758 -0.030625317 -0.014446936 -0.15399623 -0.03536568 -0.01904598
0.15551777 0.034921087 0.20144042 0.063299194 -0.19951919 0.15766716 0.058083482 -0.15860192
-0.114887536 -0.02056018 0.14275059 0.007900213 0.18367715 0.10112288 0.141716 0.15245119
-0.01342734 0.0656081 -0.07862626 -0.12669963 0.08602668 -0.17302494 -0.17803259 -0.15395272
-0.12234638 0.19256775 0.1164789 0.19659929 0.048396308 -0.20911063 0.00691436 -0.103277974
0.08100868 0.012621247 0.17755833 0.11316922 0.19337209 0.033563107 0.11936625 -0.14702186
0.10578961 -0.17408565 0.11973113 0.110299654 -0.09645339 0.21628876 0.22407989 -0.062248494
0.015079649 0.01814638 -0.13077638 -0.20246413 0.070476204 0.17005871 -0.09186334 0.15410496
-0.06905719 0.14548069 0.18123749 -0.01732351 0.069327064 -0.12607941 -0.007700305 0.01001946
-0.22652774 0.2190612 -0.20918804 0.051328275 -0.17332226 -0.116779186 0.025249945 0.15025207
0.095365845 -0.06583213 0.14066043 0.09057612 -0.07475846 0.054570023 0.16721155 0.16564423
0.0067717177 -0.10734209 0.07631477 0.089638956 -0.054277472 0.040523123 -0.18850413 0.19803652

graph_detector.conv1.gat.att f4 [1, 4, 64]
00000000: 07d9 1bbe 00dc c2b9 e0ae 493c 7076 363d
00000010: 34cb d13d 48a1 643e 204d 87be d0a9 eebd
00000020: 4882 7c3e 2032 78bc c1f8 19be c42b d6bd
00000030: 9d82 39be 4895 543d 0033 fb3d 60b4 a43c
00000040: de75 a5bd 82bc 353e 74e3 063e bc4f dd3d
00000050: 4e73 8f3e 4438 c03d bc19 b3bd ac72 a9bd
00000060: 7884 6c3d d41c 73be 2855 5b3d 1ccf bfbd
00000070: d084 31bd 28ab 5c3e 00f9 9e3c 0d10 74be
00000080: 0cad 88bd de0d 353e 4e56 59be b8f0 5ebd
00000090: e4dc 953e 527c 123e b46a 953d 38a8 1e3e
000000a0: 5cd1 6ebd 80f1 21bd 6ed1 59be dc6c 113e
000000b0: 5834 54bd 0426 563e 1930 0fbe 10a8 95bd
000000c0: 5028 783e bc85 30be 305a eb3c 674a 84be
000000d0: d920 1abe a027 af3d 7ac1 4c3e 6044 033c
000000e0: d81c 3abe 2c4d 29be 0e85 84be c060 1a3e
000000f0: 5824 e63d c023 d83b 8059 3bbb 0073 893e
00000100: ac2e ea3d 3d32 5dbe 4806 2bbd 1e8b 383e
00000110: 2c5f c53d 4030 303c b82a f7bd 2d5e 96be
00000120: ef07 94be 96c9 2f3e 3877 29bd 28c8 0dbe
00000130: 3a6e 903e a427 083e c042 a7bb c4e2 a53d
00000140: 12b3 ebbd fa99 803e 483e fd3d 66f6 31be
00000150: 3c1a 583e 3010 903c 0887 e1bd 2ad7 74be
00000160: 6d2e 84be 46aa b5bd a4d4 613e 1025 653e
00000170: 6cd8 86be 14c4 8c3e 2a0c 443e e41b 403e
00000180: 0b4b 1bbe eb46 33be 2834 553e b364 77be
00000190: 2007 893e bcfc 63be 405d 883d 3fe0 44be
000001a0: ac47 3ebe 4d18 75be 1027 e43d e88b 0cbd
000001b0: c4f5 77be 6c2c 303e c440 b03d 8844 243e
000001c0: a04d 103d bc78 d33d 6806 273e 2c54 263e
000001d0: e486 793e 2e02 4bbe 4d68 23be dc45 e13d
000001e0: 10a8 b43d 006f 8c3a a873 053e 9ea2 d7bd
000001f0: 38e5 773e 8822 52bd 36df 4bbe 5cf8 503e
00000200: bc76 783e fa5d d3bd 2e8e 0cbe 4086 333c
00000210: b415 33be 8002 fa3d 9a4f 8a3e 489f 923e
00000220: 307e 31be e1f1 16be 58f3 38be ecea 0cbe
00000230: e04f 1a3c f0c1 7c3e 80e3 9b3c aea9 71be
00000240: 70a4 863d 00c8 e6bb e8a2 0dbd 2833 633d
00000250: a2d6 203e b634 84be 9d1c 00be 60e2 da3d
00000260: 1ea5 2ebe 703f af3c 3af6 2abe f617 44be
00000270: 90d9 d4bd 4db2 23be 2420 70be 03da 88be
00000280: 02d2 44be 9c24 903e 066d 903e 80ab 4d3e
00000290: 242e 0c3e a067 f43c 00fe b0ba 8044 12bd
000002a0: b8df 6bbe 5414 39be b2cd 933e 98c2 52be
000002b0: 984d e43d d019 d83c 34a9 543e 80bc 24bd
000002c0: 30ce bebd 0e36 44be ae8b 4ebe 38d8 c93d
000002d0: fbe3 3bbe b0d1 8a3d 005f 8cba f80d 7a3d
000002e0: b830 64be f035 90bc c1f9 24be 41cc 6dbe
000002f0: 942a 333e d562 93be 4c18 41be abeb 7cbe
00000300: c8ed 3c3d dc12 0c3e 500e 38bd 8c0a 963d
00000310: c862 103e d591 8bbe b42a 093e 089b f43d
00000320: 5597 8cbe f473 893e e693 6ebe 8bc6 41be
00000330: 9a06 80be 1817 b73d 783e af3d 500c 87bc
00000340: 855d 19be e079 5ebc e4e6 2dbe 13e2 0dbe
00000350: f01a d93c 804d 813b 06e8 eabd fcf8 5d3e
00000360: a0ea 253c 3206 a5bd 10c8 f1bd 3047 d6bc
00000370: 640a b83d 9248 1f3e 145a f8bd 9227 223e
00000380: 041c 55be 3802 a13d 009d 25bc 1caa 5d3e
00000390: 6645 323e d84f 58bd 5490 d1bd bc5b 683e
000003a0: 50dc 8b3d 6a8a 7fbe 1809 193e 700d fa3c
000003b0: dcb4 8ebd 6132 83be c267 68be aa97 4ebe
000003c0: 3046 7c3e 02f6 233e d089 7e3e d367 2ebe
000003d0: b0ab 3cbd 943b 573e 4423 ba3d 5609 19be
000003e0: 18c8 753e 7212 7abe 04af ddbd d03d fbbc
000003f0: f997 7bbe 66db 843e 3085 fe3d 3857 563e
-0.15219508 -0.00037166476 0.01230976 0.044546545 0.10243836 0.22327149 -0.2642603 -0.11653483
0.24659073 -0.0151486695 -0.15036298 -0.104575664 -0.18116231 0.05190018 0.12265587 0.02010554
-0.08079122 0.17747691 0.13172704 0.10806224 0.28017658 0.09385732 -0.08745143 -0.08273825
0.05774352 -0.23741466 0.05354801 -0.09365675 -0.04333955 0.21549666 0.019405842 -0.23834248
-0.06673631 0.17681071 -0.21224329 -0.054428786 0.2927009 0.14305237 0.07295743 0.15493858
-0.05830513 -0.039536953 -0.21271297 0.14201683 -0.05180773 0.2091294 -0.13983192 -0.07307446
0.24234128 -0.17238516 0.028729528 -0.25838014 -0.15051593 0.0855248 0.1999568 0.008011907
-0.18175066 -0.16533345 -0.25882763 0.1507597 0.11237401 0.0065960586 -0.0028587282 0.2684555
0.11434683 -0.21601196 -0.041754037 0.18021819 0.09637293 0.010753691 -0.12068695 -0.29368725
-0.28912303 0.17166743 -0.04137346 -0.13845885 0.28209096 0.13296372 -0.0051043928 0.08099893
-0.11508764 0.25117475 0.12365395 -0.1737915 0.21103758 0.017585844 -0.11012083 -0.23910204
-0.2581667 -0.08870368 0.22053772 0.2237742 -0.26336992 0.27493346 0.19145265 0.1876064
-0.15165345 -0.17507522 0.20820677 -0.24159507 0.26763248 -0.2226438 0.06658411 -0.19226168
-0.18582028 -0.23935051 0.11140263 -0.034313112 -0.24214846 0.17204446 0.08606103 0.16041768
0.03523028 0.10325763 0.16311038 0.16243047 0.24367863 -0.1982505 -0.15957756 0.10999653
0.08821118 0.0010714233 0.130324 -0.10529064 0.24208534 -0.051302463 -0.19909367 0.20407242
0.24264044 -0.10320659 -0.13726112 0.010957301 -0.17488748 0.12207508 0.27013856 0.28637147
-0.17333293 -0.14740707 -0.18061578 -0.1376149 0.009418458 0.24683356 0.019029379 -0.23599884
0.06574333 -0.007042885 -0.034579188 0.05546871 0.15706876 -0.25821465 -0.12510915 0.10687709
-0.17055175 0.021392554 -0.1669549 -0.19149765 -0.10393059 -0.15985985 -0.2344976 -0.2672883
-0.19220737 0.2815293 0.28208178 0.20084953 0.13689476 0.029834569 -0.0013503432 -0.035709858
-0.2303456 -0.18074161 0.2886787 -0.20582044 0.11147612 0.026379496 0.20767671 -0.04021883
-0.09316671 -0.19161245 -0.20170471 0.098556936 -0.18348686 0.06778276 -0.0010709465 0.061048478
-0.2228421 -0.017603844 -0.16110899 -0.23222448 0.17496711 -0.2878634 -0.18856925 -0.24699275
0.046125203 0.1367907 -0.044935524 0.073262304 0.14100182 -0.272597 0.13395196 0.11943632
-0.27459207 0.26846278 -0.23298606 -0.18923394 -0.25005037 0.08939952 0.08556837 -0.016485363
-0.14977081 -0.013578862 -0.16982609 -0.13855772 0.026502103 0.0039460063 -0.11470036 0.21677011
0.01012674 -0.08057822 -0.11805737 -0.026156992 0.08986357 0.15555027 -0.12126556 0.15835407
-0.20811468 0.07861751 -0.0101082325 0.21646923 0.17409286 -0.05281052 -0.102326065 0.22691244
0.06829131 -0.24955145 0.14944875 0.030523986 -0.0696809 -0.25624374 -0.2269583 -0.20175043
0.2463615 0.16011813 0.24857259 -0.17031793 -0.04606217 0.21018821 0.09088758 -0.14944968
0.24002111 -0.24421099 -0.10824397 -0.030669123 -0.24569692 0.25948638 0.12427747 0.20931709

graph_detector.conv1.gat.bias f4 [64]
00000000: 65ce ebbb f0d7 ccbb 568c 2cbc 996f 083c
00000010: 8b09 043c 7e6c 6a3c dd52 cf3c 2745 693b
00000020: f51f 19bb b1b2 543a 522b 913a be39 1a3b
00000030: 7e3d d13a c890 293c 5491 48bc 0625 20bb
00000040: d210 503c 9e0e 953b 30e5 05bb 27c9 d8bc
00000050: 7aa2 9fbb 1494 393b 0ed0 643c c1a9 2839
00000060: fbd3 5f3a 8a9e 0dbc 7a0b b03b 9857 843b
00000070: 4942 93bc 1e05 86bc ff1b e3b9 207c 43bb
00000080: 7156 0dbb b266 e2bc 5104 973b 563f 54bb
00000090: 8973 dcbc 887a c23c f31b 07bc fc87 74ba
000000a0: 94a9 99bc ff78 5abc 1f59 a53b a86c e13c
000000b0: c83b 88bb a213 0f3c 9ecb 963b 2f93 a23c
000000c0: 13f1 07bc ff14 423b 20ab e33c 0af0 a63a
000000d0: 114d 8e3b 7706 d63c feb0 cfbb 32a9 9d3b
000000e0: c46c 2a3c 4c11 75bb 3dab 823c 2afc 71ba
000000f0: d680 df3b f95d 233b 4634 c33b e46e c9bb
-0.007196235 -0.0062513277 -0.010531506 0.008327388 0.008058916 0.014308093 0.025308067 0.0035594197
-0.0023364995 0.00081137853 0.0011075533 0.0023532952 0.0015963761 0.01034946 -0.01224168 -0.002443613
0.012699323 0.0045488616 -0.0020430796 -0.026463104 -0.0048716636 0.0028317021 0.01396562 0.00016084967
0.00085383625 -0.008643756 0.005372462 0.0040387623 -0.017975943 -0.016359862 -0.00043317673 -0.0029828623
-0.0021566416 -0.02763686 0.004608669 -0.0032386384 -0.02691056 0.023740068 -0.00824641 -0.00093281246
-0.018757619 -0.013334512 0.0050460245 0.027517632 -0.004157517 0.008732708 0.00460191 0.019845573
-0.008297223 0.0029614565 0.02779156 0.0012736332 0.004342683 0.02612613 -0.006338238 0.0048114294
0.010401908 -0.0037394343 0.015950793 -0.0009230996 0.0068207784 0.0024927838 0.005957159 -0.0061472524

graph_detector.conv1.gat.lin_l.weight f4 [256, 20]
00000000: 006b 9e3b 9f3d ecbd 9ac2 67bd 404f 9d3c
00000010: 3432 5f3d 006c 9c3b 2484 bfbc c05d 76bb
00000020: 007f cbbd d614 e0bd c3e0 14bd b243 07be
00000030: 1310 d3bd cf43 85bc 8a9c a63d 48ed 17bd
00000040: da13 b73d b204 d0bd 7d8f ce3d 6c27 8a3d
00000050: 6d82 a4bd 58ad 123e c4ec 7bbd 2922 fabd
00000060: daa1 dfbd bf35 81bd e0a4 a8bd 74ee 403d
00000070: 30e6 d43c 8850 8bbd 4912 c33d 945b 533b
00000080: 9c82 17bd bf4a d73b a31e ebbd 1c05 b5bd
00000090: 66f1 8fbd 7331 8a3d 1f81 ddbc 1687 80bd
000000a0: 105f 8a3c 404e e63d 58cb fa3d b02d f6bd
000000b0: 00fc aa39 d863 f8bc 7451 f6bc 3ea0 9b3d
000000c0: 90f5 e73d f09e 753d ae51 f03c dc88 bf3d
000000d0: 64d7 d53d 194a ee3d af89 d93d 2ee5 bebc
000000e0: 8636 ecbd 40e5 0ebd 60c3 003e 779f b73d
000000f0: 3465 ae3d 8c57 a83d bcba 973d 54a7 0a3e
00000100: f493 50bd 5cd0 07be 7ccb 21bd e8f2 eb3d
00000110: 848e 83bd c24b debd 1cd1 753d 473a 553d
00000120: 138a 65bd 3203 f03d ecb2 ad3d 1a7f cebc
00000130: d85c d43d 35fa 1a3e 4670 62bd 3114 35bd
00000140: 4ce3 08be f89f 8a3d 0617 0a3e 3ee8 06be
00000150: b878 f83d c05c 1cbc 7c86 1f3d 42b9 013e
00000160: 6447 ed3d 067b 0ebe 616a edbd b982 b73c
00000170: c964 b7bc 473f 10bc 5019 893d 7b41 9cbd
00000180: cc49 bc3d 26e0 113e 0e79 0cbd d4ab 6cbd
00000190: 7afa 22bd 847d ccbd 6864 823c e05e 013e
000001a0: b4cf d5bd b439 c1bc 4817 b43d 0074 493c
000001b0: 40e8 38bb 51c9 9bbd 0461 033e 06a5 2b3d
000001c0: 413c e23c 69a6 a3bc 9192 af3d f972 4cbd
000001d0: c25a 823b 976c 043d 21f9 32bb d673 e43d
000001e0: 903b a1bc 1abd cebd c086 98bd 7ce9 cb3d
000001f0: 60af d13c 66da 76bd c898 01bd e837 5bbd
00000200: 12fd 12be 0999 08be b04c 043d cb30 a13d
00000210: 1b57 cebd 79f0 203c 8bcc 043e d6b8 dfbd
00000220: 074d 9c3d e896 0f3e c8be d6bc 85b1 b1bd
00000230: b2e4 a93d 860b 08bd aa05 a6bd bb6b 9abd
00000240: 5872 e13d cc68 183d 87d4 0fbe f8c9 9bbd
00000250: f84b cebd 889e a2bc bf7f fbbc 05d3 eebc
00000260: cb23 b2bd 4477 07be 0140 96bd f67d 303d
00000270: 3668 5ebd 87ff 9cbc a116 023d a924 1ebd
00000280: e6ee 24bd 501a 30bd 7c75 083e 65c8 0dbe
00000290: 9cbc 69bd 40b7 9dbb 50c8 d33c 7e6e a9bd
000002a0: d633 12be f01b bd3c 5d21 4bbb ee5c f33c
000002b0: 1aab 0bbe e5b3 27bd a240 133c df7b f13d
000002c0: fefe d8bd 0280 8dbd aca8 fc3d 8b68 c83d
000002d0: c600 ba3d d6cd 113e 583e dfbc 6c5e 133e
000002e0: 8c7a 1bbd 58d3 aabc 059f 81bd 7892 ea3c
000002f0: 68f7 d63c 509c 60bc f892 4c3d b8ed 46bd
00000300: f787 f43d 4abd b83c 16e9 da3d 9cb3 bf3c
00000310: 2971 db3d 3250 cb3d 586e 913c 0734 313d
00000320: 96b3 6bbd 8698 5abd 5b05 15be 8822 f03c
00000330: 6dac acbd daf6 b03d c08b 3dbb d41e a93d
00000340: 8088 593d 3077 0bbe 0ef7 debd d8c8 973c
00000350: caf8 fa3d 80d1 c23d e229 1cbe 4cfe 96bd
00000360: e34f ba3d 21cb 923d c371 2cbd 0419 98bd
00000370: 343a c9bd f006 e03d 78a8 103e 232b 89bd
00000380: 0817 b3bd 0468 f13d f810 073d 5cb8 b93d
00000390: 50cf 0ebc dc1e 6ebd 5b8f dcbd 4485 c8bc
000003a0: d7bd 1cbe 01fe 01be b6ba 143e 11a5 4cbd
000003b0: 83e1 563d cc90 803d ebcc 21bd 5521 e83d
000003c0: 0607 81bd c00c 10be 9053 93bc a0a1 cabd
000003d0: af50 93bd 964d cf3d b44f f73d c098 8b3c
000003e0: ecf6 323d 384f 32bd 2bf1 de3d 15bc b63d
000003f0: 985f 913d 3ebf 0d3e 097c 3e3d ac8f efba
0.0048345327 -0.11535191 -0.05658207 0.019202828 0.054491237 0.004773617 -0.02337844 -0.00375925
-0.09936333 -0.10941474 -0.036347162 -0.13209417 -0.103058 -0.016267685 0.08135326 -0.037091523
0.08939333 -0.101571456 0.10085962 0.067458004 -0.08032689 0.14323938 -0.061505094 -0.12213547
-0.109195426 -0.063090794 -0.082345724 0.047102407 0.025988668 -0.068024695 0.09524972 0.003225063
-0.036989793 0.0065701897 -0.11480453 -0.08838865 -0.07028465 0.06747713 -0.027039109 -0.062757656
0.016891032 0.11245394 0.12245816 -0.12020433 0.0003261268 -0.030321047 -0.030068137 0.07598923
0.11326134 0.059966028 0.029335823 0.09352276 0.10441473 0.11635227 0.10621964 -0.02330264
-0.11533837 -0.0348866 0.1257453 0.089659624 0.08515397 0.08219823 0.07408664 0.13540393
-0.05092235 -0.13263077 -0.0395007 0.1152094 -0.06423667 -0.108542934 0.060013875 0.05205753
-0.05603988 0.117193595 0.08481392 -0.025207091 0.10369271 0.15134509 -0.055282854 -0.04420871
-0.13367957 0.06768793 0.13485345 -0.13174531 0.121324 -0.009543598 0.038946614 0.12668326
0.11585882 -0.13914117 -0.11592556 0.0224012 -0.022386925 -0.008804149 0.06694281 -0.07629677
0.09193763 0.14245662 -0.034295134 -0.057781056 -0.039789654 -0.09984878 0.015917018 0.12633848
-0.10440007 -0.023587085 0.08793503 0.012295723 -0.0028214604 -0.076067574 0.12829977 0.041905425
0.027616622 -0.019976811 0.08572877 -0.049914334 0.0039781043 0.03233012 -0.0027309137 0.111549065
-0.019681722 -0.10094662 -0.074475765 0.09956643 0.02559632 -0.060266875 -0.031639844 -0.053520113
-0.14354351 -0.13339628 0.032299697 0.07870635 -0.10075208 0.009822958 0.12968652 -0.109239265
0.07631879 0.1402241 -0.026214018 -0.08676437 0.08295573 -0.033214115 -0.08106549 -0.07540079
0.110081375 0.037209317 -0.14045916 -0.07606882 -0.10073084 -0.019850984 -0.030700563 -0.029153356
-0.08698233 -0.1322909 -0.073364265 0.043088876 -0.054298602 -0.019164814 0.03175986 -0.03860918
-0.040266894 -0.042993844 0.13326067 -0.13845976 -0.057064638 -0.004813105 0.025852352 -0.08273028
-0.14277586 0.02308461 -0.0030995228 0.029707398 -0.13639489 -0.040943045 0.008987578 0.11791205
-0.10595511 -0.06909181 0.12336859 0.09785565 0.09082179 0.14238676 -0.027251408 0.14391488
-0.037958667 -0.02085273 -0.06329159 0.028634295 0.02624102 -0.013709143 0.049944848 -0.04856655
0.11939996 0.022551198 0.10688989 0.023401074 0.10714943 0.099274054 0.017752811 0.043262508
-0.057544313 -0.053368114 -0.14552824 0.02931334 -0.08431325 0.08640833 -0.0028922409 0.08257833
0.053108692 -0.13619685 -0.10886966 0.018528387 0.12254484 0.09512615 -0.15250352 -0.07372722
0.090972684 0.0716765 -0.04210068 -0.07426646 -0.098255545 0.10938823 0.14126766 -0.06697681
-0.08744627 0.117874175 0.032975167 0.09068367 -0.008716419 -0.0581349 -0.107695304 -0.024477609
-0.15306793 -0.12694551 0.1452435 -0.049962107 0.05246116 0.06277618 -0.039502066 0.113344826
-0.06300168 -0.14067364 -0.017984182 -0.09894109 -0.071931235 0.1012222 0.12075749 0.01704061
0.043692514 -0.04353258 0.10885843 0.089225926 0.07098311 0.13842484 0.046505008 -0.001827707

graph_detector.conv1.gat.lin_l.bias f4 [256]
00000000: d84b 23be 9713 bb3d b9f2 3ebe a1f0 d43c
00000010: 5b90 943d a076 b53d e28e 933d ad9a d73d
00000020: 0034 f3bd f1ce 903d 005c 4e3e acf4 67bd
00000030: 5b93 163e ce0b 10be 8af3 d83d 2a71 b83c
00000040: 705f 8bbd 7bc9 9f3d 27e2 613e f84f fcbd
00000050: f6d4 3cbe a516 a63d 7f77 b13d 81b7 88bd
00000060: 048a 443e af5e 7d3d 9e78 b63c 2f20 493d
00000070: c03d e23d 6fb0 6fbb 8cf8 53be 8b9a 17be
00000080: cf44 3f3d c736 153e 88ed 2dbe 0443 303e
00000090: a424 a13d 41a0 fdbd 351a a23d 3c38 4dbd
000000a0: e4c8 103e 7256 9e3b c876 79bc d6e9 e3bd
000000b0: 46e3 d6bd 1b5e 193e 2203 2fbe 3dc8 e4bd
000000c0: 30d5 563e 29af 5d3e db63 0f3e f2ae 6c3d
000000d0: 3244 f9bd 6e89 5bbd 1c71 47be 77c0 753d
000000e0: b35a 003e 84bd 553d 5bb8 883d 243e 3dbe
000000f0: 568d 4e3a 2624 2f3e e91a 7ebd d51d e3bd
00000100: bbd4 24be df84 60be fc63 1dbd 5775 d73d
00000110: 4b7f 15bc e96b 3fbe 6125 8e3d 8afd 08be
00000120: 720e f03d f260 67bd 1435 48be 3d77 f3bd
00000130: eb96 633e 0862 ec3d a07c 153e 68fe 3ebc
00000140: 58e2 3abd b1e6 953b c3ba f0bc 7630 89bd
00000150: ee45 02be 8763 613b d354 b43d 6563 113c
00000160: c3db d13d 1ba2 23be 6ed6 5abe 099b 21bd
00000170: 691f 36be 4dc6 2c3e 5dcc 57be 94cc ebbd
00000180: 8bc0 a93c b3e0 103e 02fe b03d a441 073e
00000190: 8c0c e53b 0a9a 933d be08 39be c4d3 1a3d
000001a0: d089 183e 62c8 afbd 29ff 5a3e 7af6 43be
000001b0: 8512 52be f37e 24be b880 c63d 49c4 e7bd
000001c0: ed5c 363d aeb2 a9bd afde 04be 20c1 50bd
000001d0: 0a37 73bd 182b 543e 8beb f83d 8ceb 443e
000001e0: ba0a 3cbe ccda 353d 5221 7ebb c31c e0bc
000001f0: 1613 7cbc 8a53 5d3e c2d9 0b3d a952 1c3e
00000200: 6365 283e 15ab b4bd ca5d d23c 770e 193b
00000210: 6018 213e 1828 a63d 6eb3 95bd 28cf 1f3e
00000220: 0617 ba3c 0753 72bc 903b 273e 15c5 36be
00000230: 2ca4 03be e0b1 aa3d e272 55be 759f e43d
00000240: 217c 293e 40c1 5c3e 8507 3c3e 1ae2 373e
00000250: f9cd bbbc a25d 833d 67d5 913d ea02 6e3c
00000260: 76a3 173e 4f53 a13c 025e 553e 4f62 473d
00000270: 9529 013e 3773 b1bd 7c7d 48bd b087 f23d
00000280: 5ddf 80bc c9cf 463d 9e2e 623e 5609 9e3a
00000290: a3ae 1cbe 0dec 493e ae1f 863d f308 013d
000002a0: 8877 5a3d 2ba6 24be 603b dc3d 93ad 2c3d
000002b0: fe5b a6bd 66d1 05bd 87d7 7bbd f911 80bc
000002c0: 352a c7bd b1c5 0c3e 6fd0 02be 276f 4b3e
000002d0: 1e4f e03d 3442 49be 3ac6 393e 5008 953c
000002e0: 2d68 3c3e 045c c53d 122a 313e c90d 48be
000002f0: ca79 663e 50cf 003e 21ba 473e bd28 5a3d
00000300: 387f b4bd 3e0b 1ebe 8a9c 3d3e 3319 3f3d
00000310: ef4a f6bd d445 79bd 4b11 d1bd 6649 ca3c
00000320: c30d 8cbd 5fc0 533e 922b 233e cce9 59be
00000330: cce3 fbbc 0ed7 ec3c bbd9 fcbb cac0 3e3e
00000340: bc77 36bd 0a99 42bd 6ec0 12be e9ba 433d
00000350: c382 8abd 0ae6 623e a853 45be b1c9 8d3d
00000360: 7b25 a43d e3ec 3a3e be31 4d3e 4798 423d
00000370: 1dcb 1ebe 98ab 9e3c f4a1 1c3d 705d debd
00000380: 4ec2 05bd e220 70be e8a6 203e b9ae 1cbd
00000390: abe9 e13c a6ba 04be 35ed bbbd 7c1f 52bd
000003a0: 8b3f d0bc 132d 5fbd 5c83 973d 775b 2f3d
000003b0: 9a03 c8bd ae56 30bd 4431 b33d 6009 25be
000003c0: ccb1 19be 71e8 ed3a 4ba9 c73b a53f 333e
000003d0: 822f 4a3e c877 3dbe 0e29 61be 8ec1 6b3d
000003e0: 67a0 d93d e66b a1bd 8b1f 163d 7dc1 573e
000003f0: 82fc b2bd 687c 42be 49b9 0e3e 2ca8 9e3b
-0.15946901 0.09134596 -0.18647279 0.025993647 0.07254096 0.088605165 0.07204987 0.10527549
-0.118751526 0.07070721 0.20152283 -0.05662982 0.14704649 -0.14067003 0.105933264 0.022514898
-0.06805313 0.07802101 0.22058927 -0.1231994 -0.18440613 0.08109788 0.0866537 -0.066756256
0.19193274 0.061857875 0.022274312 0.04910296 0.11046934 -0.0036573668 -0.20700282 -0.14805047
0.04669648 0.14571677 -0.16985142 0.17213064 0.07868317 -0.12384082 0.07915155 -0.050102457
0.14139134 0.0048320824 -0.015226074 -0.11128585 -0.10492568 0.14977305 -0.17091039 -0.11171005
0.20979762 0.2164885 0.14002936 0.05778403 -0.1217121 -0.05359786 -0.19476742 0.059998002
0.12534599 0.05218269 0.06675788 -0.18480736 0.0007879337 0.17103633 -0.062037382 -0.110896744
-0.16096775 -0.21925686 -0.03842543 0.10520428 -0.009124587 -0.18693508 0.06940723 -0.13377967
0.11721505 -0.05648894 -0.19551498 -0.11887977 0.2222554 0.115421355 0.14598322 -0.011657335
-0.045626014 0.0045746197 -0.02938593 -0.06698696 -0.12721989 0.0034391598 0.088052414 0.008873795
0.10246994 -0.15979807 -0.21370861 -0.039454494 -0.1778542 0.1687252 -0.21074052 -0.115136296
0.020721694 0.14148216 0.08642198 0.13208634 0.006990021 0.07207115 -0.18069741 0.03779961
0.14896321 -0.08583142 0.21386398 -0.19136992 -0.20514877 -0.16064052 0.0969252 -0.11316735
0.044522215 -0.082860336 -0.12975572 -0.05096543 -0.05937866 0.20719564 0.12154301 0.19230479
-0.18363467 0.044398114 -0.0038777185 -0.027357465 -0.01538541 0.21613899 0.034143217 0.15265907
0.16444926 -0.08821694 0.025679488 0.002335457 0.15731955 0.08113116 -0.07309614 0.15606368
0.022716057 -0.014790303 0.16331315 -0.17848618 -0.12855595 0.08334708 -0.20844606 0.111632265
0.16551258 0.21558094 0.18362243 0.17957345 -0.022925364 0.064143434 0.071207814 0.014527062
0.14808449 0.019693045 0.20836642 0.04867774 0.12613519 -0.086645536 -0.048947796 0.118422866
-0.015731508 0.048538003 0.22088096 0.0012057226 -0.15300994 0.19718952 0.06549011 0.031502675
0.05333665 -0.16079013 0.107535124 0.04215772 -0.08123015 -0.0326704 -0.06148484 -0.01563357
-0.09724847 0.13747288 -0.12774824 0.1986662 0.109525904 -0.1965416 0.18142024 0.01819244
0.18399115 0.09636691 0.17301205 -0.19536509 0.22507396 0.12579083 0.19504596 0.053261507
-0.088133276 -0.15433976 0.18516746 0.04665489 -0.12026011 -0.06085761 -0.102083765 0.024693202
-0.06838562 0.20678852 0.1593459 -0.21280593 -0.03074827 0.02891114 -0.007716385 0.1862823
-0.04454778 -0.04750923 -0.14331219 0.047785673 -0.06763222 0.22158065 -0.19270194 0.06923235
0.08014961 0.18254428 0.20038506 0.047508504 -0.15507169 0.019368932 0.038240388 -0.108576655
-0.032656007 -0.23450044 0.1568867 -0.038252566 0.027577242 -0.12961826 -0.09176103 -0.051299557
-0.025420925 -0.054486345 0.07398102 0.042811837 -0.09766312 -0.043051414 0.08749631 -0.16116858
-0.1500923 0.0018150938 0.0060931793 0.17504747 0.19744685 -0.18502724 -0.21988317 0.057557635
0.106262974 -0.07881908 0.036651175 0.21069904 -0.08739568 -0.1899277 0.13937868 0.004841825
