Model/checkpoint/Graph_Conv_AE_nnn/94-G.ckpt (torch, 768831 bytes, 104 tensors)

projection f4 [1, 10, 10, 10]
000000 ca b6 7f bd b8 41 f3 bc 7b 24 49 bd 7c e6 23 3d
       -0.06243018 -0.029694423 -0.049107056 0.04001473
000010 e4 55 b5 3d f2 27 51 bd 0e ae aa bd 94 14 be 3d
       0.08854273 -0.051063485 -0.083339795 0.09281269
000020 84 d0 cf bd e8 fe c4 bc 8c 4e 80 bd fd ef 58 bd
       -0.10147193 -0.02404733 -0.062649816 -0.052963246
000030 64 99 d2 3d 18 a7 24 3c 97 b8 be bd cc 64 90 bd
       0.10283163 0.010049604 -0.093125515 -0.070504755
000040 7a 0e c9 bd 00 f1 a4 bd a0 ba 23 3b 58 61 f1 bc
       -0.09817214 -0.080537796 0.0024983063 -0.029465362
000050 16 db 92 3d 48 4e 83 3c 35 08 b3 bd dc a7 13 3d
       0.071706936 0.016028538 -0.087418 0.036048755
000060 7c f2 99 bd b2 28 16 bd 04 3e 2c 3d 60 b4 38 3d
       -0.07516953 -0.036659904 0.04205133 0.045093894
000070 48 9d 0e bd c8 b7 f4 3c de 3d b5 bd 3a 50 8e bd
       -0.034817964 0.02987279 -0.08849691 -0.06948896
000080 7e 9d 16 bd 40 26 cb 3d 60 b7 30 3d 68 58 90 bd
       -0.03677129 0.09919405 0.04314363 -0.07048112
000090 08 c1 d4 bd 18 40 ad bc ff 19 bd bd 8c 1a 45 3d
       -0.1038838 -0.021148726 -0.09233474 0.04812102
0000a0 00 db 13 bb 10 3b 60 bc fc 8e 0f 3d b8 1d 2a 3d
       -0.0022560954 -0.013685957 0.03504847 0.04153225
0000b0 94 da 99 3d cc 99 d0 3d d0 e3 e9 bb 67 12 59 bd
       0.075123936 0.101855844 -0.007137753 -0.052996065
0000c0 70 7d 95 bc e8 ed cc bc c3 a5 9b bd a3 fe b4 bd
       -0.01824829 -0.025015786 -0.07599976 -0.088376306
0000d0 f8 e7 1a 3c 3e 35 0b bd 10 57 96 3d 2c 4d 9a 3d
       0.00945472 -0.033986323 0.073408246 0.075342506
0000e0 55 dd 97 bd 58 0c 19 3d a4 c4 c4 bd 3e e0 04 bd
       -0.074152626 0.037365288 -0.09607819 -0.032440417
0000f0 e0 f6 18 bb d8 4b e1 3c 18 6c 9a bd 3d a6 d2 bd
       -0.0023340508 0.027501985 -0.075401485 -0.10285614
000100 00 c6 29 3d 4a dc 98 3d 34 fd 52 3d 90 4b 67 3c
       0.041448593 0.07463892 0.051511005 0.014117137
000110 60 1c 97 bb f4 df 88 3c 68 98 49 3c 90 65 a9 3d
       -0.004611537 0.016708352 0.012304403 0.08271325
000120 b6 8b 04 bd 58 59 8e 3c a9 73 d1 bd dc b7 7a 3d
       -0.0323598 0.017376587 -0.102271385 0.0612105
000130 e0 3a d4 bc c0 af ec bb a0 1a 9c bd a0 27 ee 3c
       -0.02590698 -0.0072230995 -0.07622266 0.029071629
000140 a0 3c b6 3c 70 fd cf 3d 00 a4 d2 ba fa f1 83 bd
       0.022245705 0.10155761 -0.0016070604 -0.06442638
000150 1c e0 ac bd 70 36 0b 3d 50 8f 55 3d 20 d1 2e 3d
       -0.08441183 0.033987463 0.052138627 0.042679906
000160 1c 3f 6b 3d 8a c9 c5 bd 98 e9 ad 3c aa 6f 32 bd
       0.057433233 -0.09657581 0.02122955 -0.043563522
000170 14 69 42 3d d4 16 54 3d 24 dd 99 3d f2 c6 71 bd
       0.04746349 0.051779583 0.07512882 -0.05902762
000180 f4 fe a9 bc e0 a4 ea bb e8 21 c6 bc 74 4d 38 3d
       -0.020751454 -0.007160768 -0.02418609 0.04499574
000190 b0 1d ca 3c f6 c3 82 bd bc 9b ad 3d 40 6a 26 3b
       0.02467236 -0.06385033 0.084769696 0.002539292
0001a0 dc 63 89 3c e0 19 af bb e4 00 f2 bc 6d a2 a9 bd
       0.01677125 -0.0053436607 -0.02954144 -0.082829334
0001b0 30 27 1a 3d 98 63 8f 3d e8 9d 73 3d 10 6f b9 3d
       0.03763503 0.07001418 0.059476763 0.090543866
0001c0 40 82 e7 3c fc eb 9e bd 04 12 1d 3d 54 d5 9c bd
       0.02826035 -0.07759854 0.03834726 -0.076578766
0001d0 82 6d 89 3d 34 26 06 3d fe 6f b4 3d 75 b2 60 bd
       0.0671034 0.032751277 0.08810423 -0.05485769
0001e0 38 c9 86 bd d6 59 bd 3d b4 37 11 3d 80 62 30 3d
       -0.06581348 0.092456505 0.035453513 0.043062687
0001f0 70 94 b8 3c 25 30 bd bd 9a 50 bb 3d df ad 36 bd
       0.022531718 -0.092376985 0.09146233 -0.04459941
000200 ea 63 8e 3d 40 6c 64 3b ea 05 b1 3d a8 dc c8 3c
       0.06952651 0.003485456 0.08643706 0.02451928
000210 d8 95 2f 3d 74 45 1a 3d a8 da b3 3c 02 cc a0 bd
       0.04286751 0.037663892 0.02195485 -0.078514114
000220 12 73 1e bd bc 25 20 3d 24 a8 7f 3d 2e 00 cc 3d
       -0.03868396 0.039098486 0.06241621 0.09960972
000230 1c 52 4f 3d f0 ee 2e bd 7c 66 ca 3d 50 3e 75 bc
       0.050615415 -0.042708337 0.098828286 -0.01496847
000240 4e ad c3 bd 80 28 48 3b 4e df ce 3d c6 c2 9c 3d
       -0.095545396 0.0030541718 0.10101186 0.076543376
000250 e8 ec 01 3d de 28 cb bd 58 09 41 bc 7e c3 8c 3d
       0.031720072 -0.09919904 -0.011782013 0.06873225
000260 45 81 b6 bd fc ab 23 3d c5 77 d5 bd 94 92 49 3d
       -0.08911375 0.03995894 -0.10423235 0.049212053
000270 74 b2 a5 3d e3 f2 a1 bd 88 75 a2 bd c0 19 91 bd
       0.08090678 -0.07907655 -0.079325736 -0.070849895
000280 f2 bd 8a bd 3c 0e 08 3d 5c 63 a9 bd 00 6b f4 3b
       -0.067745104 0.0332167 -0.082709044 0.0074590445
000290 8e ef 97 3d 18 0a b1 3d f1 61 c1 bd 38 9c 31 3d
       0.07418738 0.08644503 -0.09442509 0.043361872
0002a0 32 88 ae 3d 06 1c 94 3d 80 01 03 3d 68 af 1a bc
       0.08522071 0.072319075 0.031983852 -0.009441234
0002b0 22 ae 0e bd 70 fe 17 bd 72 94 92 3d fd 5d 82 bd
       -0.034834035 -0.037107885 0.0715722 -0.06365583
0002c0 94 7a fe bc 2b 8d 7f bd e0 5a 3a 3b e8 b6 b6 3c
       -0.03106431 -0.062390488 0.0028435513 0.022304013
0002d0 86 7a 8a bd 74 b7 0b 3d d0 c1 56 bd 8b 34 a8 bd
       -0.06761651 0.0341105 -0.052430928 -0.08213147
0002e0 f8 46 9b 3c f1 67 2c bd d5 91 96 bd 94 30 c0 3d
       0.018954739 -0.042091314 -0.07352034 0.093842655
0002f0 a0 59 28 3c d4 27 85 3d e8 40 43 3c c8 02 be 3d
       0.0102752745 0.06501737 0.01191733 0.09277874
000300 58 7a 16 bd 5e f0 ab bd e0 b9 c2 3d 30 36 ad 3c
       -0.03673777 -0.08395456 0.09508109 0.021144003
000310 12 4a ab 3d e2 33 c4 bd 18 b3 5a bd 18 e9 7b 3d
       0.08363737 -0.09580208 -0.053393453 0.061501592
000320 a8 1d 45 3d 0c 76 9b bd e0 e1 90 bc e0 5e 20 bb
       0.048123986 -0.07590875 -0.01768583 -0.0024470612
000330 7c a0 bb bd b6 bf 69 bd 99 41 35 bd f8 c0 69 3d
       -0.09161469 -0.057067595 -0.044252012 0.057068795
000340 c4 08 50 3d 82 b4 5f bd 10 35 3f bc 66 4d b3 3d
       0.05078961 -0.054615505 -0.011670366 0.08754997
000350 c8 58 ae 3c 64 98 df bc a8 bc 43 bd ea 2f c1 3d
       0.021282569 -0.027294345 -0.04778734 0.09432967
000360 70 38 19 bc e0 43 1e bb b6 8c d2 3d c0 87 e8 3a
       -0.009351835 -0.0024149343 0.10280745 0.0017740652
000370 48 cf 95 3d 50 03 05 bd 01 e5 2d bd 8a 86 b9 3d
       0.073149264 -0.032473862 -0.042454723 0.090588644
000380 70 91 88 3c 30 4a 18 bd 63 67 57 bd 5a f7 80 bd
       0.016670913 -0.037180126 -0.05258883 -0.062971786
000390 80 8e b5 3d 58 0c 34 bc 38 e8 ac 3d a2 eb b6 3d
       0.0886507 -0.010989271 0.0844273 0.08931662
0003a0 a8 a4 5a bc c8 fc b4 3c f0 60 9e 3b 60 b8 fc 3c
       -0.013344921 0.022093192 0.004833333 0.030849636
0003b0 d8 64 1a 3d 20 24 a0 3d 2a 25 46 bd 36 88 b7 3d
       0.03769383 0.0781939 -0.048375286 0.08961527
0003c0 f8 2d d6 bc 4c 4f 82 bd d4 51 e5 bc 4c d5 8f 3d
       -0.026144966 -0.06362781 -0.02799312 0.07023105
0003d0 64 08 a4 bc c4 cb c4 bc 44 74 9f bc 0c 45 8a bd
       -0.020023532 -0.024022944 -0.01946462 -0.06751451
0003e0 fe 69 a6 3d a8 3f 68 bc f4 be 3f 3d 38 58 5d 3c
       0.08125685 -0.014175333 0.046812966 0.0135098025
0003f0 5e 59 af 3d 96 bb 27 bd 14 18 98 bd 36 84 96 3d
       0.08561967 -0.04095038 -0.074264675 0.07349436

sensor_embedding.weight f4 [10, 10]
000000 07 23 99 3f f4 72 ff 3d c7 56 ea be 3f e4 90 bf
       1.1963814 0.124730974 -0.4576933 -1.1319655
000010 19 be 7c be 56 b2 c7 bf e5 6e 69 bf 4e 47 2e bf
       -0.24681892 -1.5601299 -0.91184837 -0.6807755
000020 ed e7 20 c0 18 a3 02 3f c3 78 b0 bf 28 51 4f 3f
       -2.5141556 0.5103011 -1.3786854 0.8098321
000030 27 91 cf bf 51 dd f8 be c5 86 9f bf d1 55 ca 3f
       -1.6216172 -0.4860635 -1.2463003 1.5807439
000040 0c 00 a2 3f 51 33 b4 be ea 99 5e 3e b4 ab 45 3f
       1.2656264 -0.351954 0.21738401 0.77215123
000050 d3 03 21 3f 12 f5 3f be 8a c3 94 3f 89 a4 a6 bf
       0.6289646 -0.1874583 1.1622174 -1.3018962
000060 30 5b aa bf f8 0f 84 3f e7 c9 b1 3f ed 5e ac 3f
       -1.3309078 1.0317373 1.3889741 1.3466469
000070 e5 15 13 3f 22 d3 55 3f 04 7b 7b bf f9 29 9c be
       0.57455283 0.8352529 -0.9823458 -0.30500773
000080 88 e8 d8 3e 5b 10 7b bd a5 2c fe 3f 1b db d0 3f
       0.42364907 -0.061294895 1.9857374 1.6316866
000090 3e 31 b8 be 1d b9 06 3f a9 35 25 bf 79 79 a5 3f
       -0.3597507 0.5262621 -0.64535004 1.2927696
0000a0 ab 84 fd be cc 73 02 c0 65 b2 0b 3e 0c fa 18 be
       -0.4951528 -2.0383177 0.13642271 -0.14939135
0000b0 9f 16 02 3f 6d 2a a3 be cd 9b f4 be 40 fc 22 bf
       0.5081577 -0.31868306 -0.47775117 -0.6366615
0000c0 18 ef 31 3e 6c 56 89 3f aa eb a9 bd d0 d3 20 3f
       0.17376363 1.0729499 -0.082969025 0.628232
0000d0 8f 5d 77 3f bd e4 ee bc e3 5b 31 3e 70 3d 8e bd
       0.96627134 -0.029161805 0.17320208 -0.06945312
0000e0 23 f4 9f bf a0 44 3c 3f da b4 f8 be 19 01 33 bf
       -1.249638 0.73542213 -0.4857548 -0.6992355
0000f0 0b 3c 91 bf 34 53 b9 be af 71 73 bf 3c f7 6d be
       -1.1346449 -0.3619629 -0.9509534 -0.23238844
000100 cd 3d ae 3e 33 25 8a bf 9c 4c 84 bf bb a4 24 3f
       0.34031525 -1.0792602 -1.0335879 0.6431386
000110 f4 68 a4 3f f2 c1 8d be 0a 86 52 3f a6 c0 69 3f
       1.2844529 -0.2768703 0.8223578 0.91309583
000120 e9 6f af bf e2 cf 83 bf d3 42 93 3f 3e 63 cd 3c
       -1.3706027 -1.0297816 1.1504768 0.025071736
000130 97 6a e2 bf 38 cf a6 be cd c8 5a 3c 38 4e be 3e
       -1.7688779 -0.3257997 0.013353539 0.3716905
000140 2a fd 1d bf a5 d5 b9 3f eb d3 bd be e7 72 50 3f
       -0.6171442 1.4518324 -0.37075743 0.8142533
000150 72 bf 3e bf 94 4a 15 be 57 a8 d5 bf 19 bf ed bc
       -0.7451087 -0.1457923 -1.6691998 -0.029021787
000160 c8 4e 14 3f ae 63 ec bd 5d fd 09 40 27 fa 27 3d
       0.5793271 -0.1154245 2.156089 0.04101005
000170 b5 2b 8b bf b0 38 ba 3f bb 47 31 bd af f2 5e bf
       -1.0872713 1.454855 -0.043281298 -0.87089056
000180 a1 e7 82 bf 73 0b a7 be 4b 33 37 3e 04 27 42 bf
       -1.0226938 -0.32625923 0.1789066 -0.75840783

lin1.weight f4 [10, 10]
000000 e0 cb 15 3d b2 0a e2 bd f1 da 9f be 22 a4 8b be
       0.036571383 -0.11037196 -0.31221727 -0.2727366
000010 40 c8 24 3c 80 9c db bb d9 b6 80 be e7 cd 9a be
       0.010057509 -0.006702006 -0.25139502 -0.30235216
000020 c8 26 ee 3d 5c e3 28 3e de 32 2b be ae cb 36 be
       0.11628491 0.1649298 -0.16718623 -0.17851135
000030 e5 b5 9e 3e 82 27 74 3e 38 5f 5f 3d 5b 4f 48 be
       0.3099815 0.23843196 0.054534167 -0.19561522
000040 f0 d2 36 bd 94 30 89 3d 98 50 90 3d fa 3e 1c 3e
       -0.04463476 0.06698719 0.07046622 0.15258399
000050 16 18 3f 3e 56 47 95 bd a6 cf 0e 3e 96 19 96 be
       0.18661532 -0.07288997 0.13946399 -0.29316396
000060 79 3c 8d 3e de 8d f2 bd 2e 73 a1 be 28 b0 65 3d
       0.275852 -0.11843465 -0.31533188 0.0560762
000070 1e 16 a1 bd 12 91 81 be d8 3b 5b be 30 a3 4e 3d
       -0.07865547 -0.25305992 -0.21409547 0.050448596
000080 aa c3 68 3e a6 00 48 3e e0 35 2a be 0e 83 bb bd
       0.2273089 0.19531497 -0.16622114 -0.09155856
000090 5a b5 53 3e 31 f6 1a be 20 14 5d 3d d7 31 a1 3e
       0.20674649 -0.15132977 0.05397427 0.31483337
0000a0 bd b1 9d 3e e7 cd 0c be 50 a7 bf bd e0 28 fc 3d
       0.30799666 -0.1375042 -0.09358084 0.12312484
0000b0 30 4d 82 3c f6 59 6f be 60 1e 77 be 4a 1e 69 be
       0.015905946 -0.23374161 -0.24132681 -0.2276546
0000c0 9a 31 5d be 88 6f c7 3d 78 e2 72 3d 9a 87 3a 3e
       -0.21600953 0.0973807 0.05929801 0.1821579
0000d0 38 ca 5d bd 4e 4d 6f be 21 cf 9b be 60 e2 58 bd
       -0.05414793 -0.23369333 -0.30431464 -0.052950263
0000e0 2e 3c 4b 3e d3 67 88 3e 15 25 0d be 06 d5 06 3e
       0.19847175 0.26641712 -0.13783677 0.131672
0000f0 de 4e 5b 3e 3e 51 3e be 68 c2 0a 3d c0 0d 00 3d
       0.21416804 -0.18585679 0.033876806 0.031263113
000100 cd 5a 7a be 0c c0 05 3e 06 ee 4d 3e 12 36 6c be
       -0.244487 0.13061541 0.2011033 -0.23067501
000110 30 d7 1b be 9e 42 60 be b6 fb 79 3e 1a 6f 5a be
       -0.15218806 -0.21900412 0.24412426 -0.21331444
000120 1b 32 8c 3e 02 a6 2a 3e 40 cb b3 bb 90 fc a6 bc
       0.27381977 0.1666489 -0.005486876 -0.020384103
000130 90 40 32 bd 09 49 4f be 30 5c 34 be ce 20 5e 3e
       -0.043518603 -0.20242704 -0.17613292 0.21692201
000140 8f d2 94 be f4 02 93 3d d8 97 30 be ae ad 7b 3e
       -0.29066893 0.07178298 -0.17245424 0.24577972
000150 ba d5 4f 3e 9e 86 6e 3e 24 4f 13 3e f8 8f 05 bd
       0.20296374 0.2329354 0.14385659 -0.032608002
000160 3c 1d fc bd 24 63 2e 3e cb 14 16 be 7c 35 fc 3d
       -0.123102635 0.17030007 -0.1465637 0.12314889
000170 28 39 12 3d eb a3 97 be f8 62 34 be f8 83 3b 3e
       0.03569904 -0.29617247 -0.17615879 0.18312061
000180 60 c9 d0 bc d6 db 21 be 71 44 a1 3e 20 90 40 3c
       -0.025486648 -0.15806517 0.3149753 0.011753112

lin1.bias f4 [10]
000000 67 52 a1 3e f0 55 84 bd 2f 9e 88 3e 7b d1 2e be
       0.3150818 -0.06461704 0.26683185 -0.17072098
000010 18 2c 8d bd 33 63 90 3e 20 e9 23 3d 37 24 91 be
       -0.06893176 0.28200683 0.040017247 -0.28347942
000020 c4 46 d0 3d c4 03 f9 bd
       0.101697475 -0.12158921

lin2.weight f4 [10, 10]
000000 00 c2 39 3a fd 0c 92 be 9b 5b 99 3e 96 dd 90 be
       0.0007086098 -0.28525534 0.29952702 -0.28294057
000010 d4 a8 eb 3d 24 f2 1d 3e e2 de 16 be 76 73 6f 3e
       0.11506811 0.154244 -0.1473346 0.23383889
000020 4a b5 16 be 5a 03 91 be c0 b4 18 3d 80 05 e0 bc
       -0.14717594 -0.2832287 0.03728175 -0.027346373
000030 fe 9d f7 bd 64 8b 0c 3e 04 29 e8 bd 28 76 85 3d
       -0.120906815 0.13725048 -0.11335948 0.06516677
000040 1a 5d 14 3e 90 12 d2 3c 6d c0 31 be 78 ca 28 bd
       0.1448864 0.025643617 -0.17358561 -0.041208714
000050 83 bc 46 be b8 00 0a 3e a8 26 63 be 06 46 36 3e
       -0.19407849 0.13476837 -0.22182715 0.1780015
000060 6a 34 f8 bd 5c 7d f1 bd 64 67 a9 3d 88 40 bc 3d
       -0.12119372 -0.117914885 0.08271673 0.09191996
000070 be 7d 6c 3e e0 f4 f9 bc 10 7d d7 bd e0 9c c2 bc
       0.23094842 -0.030512273 -0.10521901 -0.023756444
000080 af 6b 17 be 40 09 1c 3d f9 c2 0c be f0 e3 30 3d
       -0.14787172 0.03809476 -0.13746251 0.04318613
000090 28 c4 9a bd 40 7b a7 bc 39 7d 2d be 98 ba f5 3d
       -0.07556945 -0.020444512 -0.169423 0.119984806
0000a0 d4 43 15 3e 38 b5 97 bd fd c4 98 3e 1a 88 4d be
       0.14576656 -0.074076116 0.2983779 -0.2007145
0000b0 1a 7e 63 3e 2d ac 98 be 8e 1b 97 be 1a 4f a1 be
       0.22216073 -0.2981886 -0.2951321 -0.31505662
0000c0 74 15 ab 3d 80 1e cc bd 4e b0 31 3e 8a 03 e5 bd
       0.08353701 -0.09966755 0.17352411 -0.11182316
0000d0 e9 3e 96 be f4 33 26 be 08 a3 db 3d 8a 2e 99 be
       -0.29344872 -0.16230756 0.10724455 -0.2991832
0000e0 cf 20 9b 3e 55 0a 93 3e 0b d8 9b 3e 4f fd 39 be
       0.30298468 0.2871882 0.30438265 -0.18163036
0000f0 0b 9b 87 3e 70 e9 7e 3d 84 d6 f7 bd 80 e6 23 bb
       0.26485476 0.062234342 -0.121014625 -0.0025009215
000100 60 fa 97 3d b3 b4 05 be ac bb 17 3e 87 37 a0 be
       0.07420802 -0.13057213 0.14817685 -0.31292364
000110 40 70 c2 bc 48 b9 13 3d 8d 92 9e 3e c6 39 7a be
       -0.023735166 0.03606537 0.30971184 -0.24436101
000120 b2 60 87 be b9 fe 19 be 00 cd 66 bc 08 d7 12 bd
       -0.2644096 -0.15038575 -0.014086962 -0.0358496
000130 00 9f 83 3a 9a 65 4c 3e 40 6a 75 3c 48 b2 53 3d
       0.0010041893 0.19960633 0.014978945 0.051683694
000140 aa d2 55 3e 92 3d 88 be 86 f0 1c 3e e9 ff 9d 3e
       0.20881143 -0.26609474 0.15326127 0.30859306
000150 c0 19 14 3e e0 39 7b bd 6a cc 3c 3e 18 d0 20 3e
       0.14462948 -0.06133449 0.18437353 0.15704381
000160 ba ba 16 3e 94 ea 95 be b4 b3 82 bd 68 9e 1f 3d
       0.14719668 -0.2928053 -0.06381932 0.038969427
000170 6f fc 92 3e 1b a3 75 be 32 7b a2 bd aa 13 31 3e
       0.28708217 -0.23988001 -0.07933654 0.17292657
000180 bc 3a d4 3d 44 56 9d be 45 be 9f be 9c 4a d1 3d
       0.10362765 -0.30729878 -0.31199852 0.10219309

lin2.bias f4 [10]
000000 a4 74 82 bd 60 47 d3 bc b5 60 39 be c1 61 2e be
       -0.06369904 -0.02579087 -0.18103297 -0.17029478
000010 b0 a3 d0 bc 30 4d 47 bd a8 ce 9b bd a8 f8 9b 3d
       -0.025468677 -0.048657596 -0.07607776 0.07615787
000020 15 c4 09 be 29 f6 97 be
       -0.13453706 -0.29679993

graph_detector.conv1.t1_weight f4 [64, 64]
000000 be 96 73 3d 25 5f e5 3c 96 8c 56 be fb 49 fd 3d
       0.05946993 0.02799947 -0.20952067 0.12367626
000010 72 5a 13 bb 51 e1 31 be b6 87 4e 3c 1a fb 1d 3d
       -0.002248433 -0.17371108 0.012605598 0.038569547
000020 6a f1 2c be 45 b0 e9 bc e7 78 e6 bc 9c f5 d6 bc
       -0.16888967 -0.028526435 -0.028133823 -0.026240163
000030 03 8f b8 3d 5c 5e 9a 3b fb db 2b be 2d be 58 3e
       0.09011652 0.0047109555 -0.16783135 0.21166296
000040 d9 b3 8f 3d 95 d9 2b 3e a3 df 8c bd 39 2e 8e bb
       0.07016725 0.1678222 -0.06878593 -0.0043390063
000050 8c 27 59 3d f6 c4 35 be 0d d5 50 be 17 a1 68 3e
       0.05301623 -0.17750916 -0.20393772 0.22717701
000060 bb 86 0c 3e df 18 36 3e 76 0e d3 3d 1e 5d 31 be
       0.1372327 0.17782925 0.103054926 -0.17320678
000070 87 c8 64 be ec 46 09 bd b3 74 36 be 7a 64 3c 3e
       -0.2234212 -0.033514902 -0.17817955 0.18397704
000080 40 40 56 3e 4c 94 fa bc 70 72 e2 bc c8 71 b2 bd
       0.20922947 -0.030588292 -0.027642459 -0.08713108
000090 23 9a d1 3d ad e6 be bd 42 7c be 3c 39 20 fa 3d
       0.10234477 -0.09321342 0.02325261 0.12213177
0000a0 9a c6 1f bb e9 f5 21 3e 7c 79 5f be 07 b7 a6 bd
       -0.002437985 0.15816464 -0.21823686 -0.081403784
0000b0 92 d0 30 be c7 5f 5a 3d 85 23 21 3e 97 db 54 3e
       -0.17267063 0.053313997 0.15736206 0.20786892
0000c0 f8 50 45 be 9a d7 02 be 85 77 66 3d a2 6c af bd
       -0.19269168 -0.12777558 0.056266326 -0.08565642
0000d0 0d fe 53 3c 0b 06 10 3e 73 b6 17 3e 47 1c 17 3e
       0.012938988 0.14064805 0.14815693 0.1475688
0000e0 13 fb 45 bd 14 8b ad bd 01 4a dd 3d b4 ca 27 be
       -0.048335146 -0.08473793 0.10805131 -0.16385919
0000f0 4e b5 b4 3c 50 d9 64 be cf 29 27 be e2 ce 16 3e
       0.022059109 -0.22348523 -0.16324542 0.14727357
000100 d7 25 fc 3d 1c 2b 02 3e 39 20 1e 3e 30 a9 0b be
       0.12311905 0.12711757 0.1544198 -0.13638759
000110 97 29 d0 3d d7 4e 5b 3e 41 7b 85 b9 6c 2c dc bd
       0.10164183 0.21416794 -0.00025459568 -0.1075066
000120 ed d1 37 be 5d 09 be bc 84 f4 e6 bd 52 cf ca 3d
       -0.17951174 -0.023197824 -0.112771064 0.099028245
000130 51 d8 0c be 03 8c 9e 3d c4 86 4f be 47 b1 1b 3d
       -0.13754393 0.07741549 -0.20266253 0.03801086
000140 10 b0 99 bd 5c 3d 20 3d 55 94 6b 3d bb 2d 31 3e
       -0.075042844 0.039121017 0.057514507 0.17302601
000150 13 51 2f 3e 75 53 ea bd 87 92 11 be 28 69 57 3e
       0.17120771 -0.114416994 -0.14216052 0.21036208
000160 8f 64 e8 3d 30 d0 ca 3d da e6 ef bc eb da 34 bb
       0.11347305 0.0990299 -0.029284883 -0.0027596306
000170 04 7c 01 3e 37 02 87 3d 6e 19 95 3d b5 6d 0d be
       0.12644964 0.06592219 0.07280241 -0.13811381
000180 d3 3e c2 3d 66 5c e1 bd bd 71 30 be 58 cf e2 bd
       0.09484639 -0.11003952 -0.17230888 -0.11074704
000190 dd c6 1b 3e 6e 48 d3 3d ed 56 95 3d e8 a2 c2 bd
       0.15212579 0.10316549 0.072919704 -0.09503728
0001a0 28 b6 0d 3e 96 21 9c bd 99 33 f3 3d 92 73 4c be
       0.13839018 -0.076235935 0.11875076 -0.19965962
0001b0 70 f5 90 bd fc e3 71 bd ac 83 64 3d 34 7a 4b be
       -0.070780635 -0.059055313 0.055789635 -0.19870836
0001c0 53 6b 4f 3e da a6 0c 3d 69 d0 55 3c 02 58 b1 bd
       0.20255785 0.03433881 0.013050177 -0.08659364
0001d0 da f8 ae bd af a1 69 be 3d 6f ec 3d 83 03 1f 3e
       -0.085435584 -0.22815584 0.115446545 0.15528683
0001e0 eb 19 2f 3e 7f de f2 bc cf d9 5d bb c5 dc df bc
       0.1709973 -0.02964711 -0.0033851748 -0.02732695
0001f0 95 75 53 3e 17 57 bb bb 6a 2e 35 3e 72 37 10 be
       0.20650323 -0.005717169 0.17693487 -0.1408365
000200 ac d2 8c 3d 8d d3 1b 3e d6 b9 29 be 7a 4b 8a bd
       0.0687612 0.15217419 -0.16574797 -0.06752677
000210 67 d7 5e 3c 0d d2 c6 bd 1b 31 39 3e 86 ed a4 3d
       0.013601161 -0.09708033 0.18085138 0.080531165
000220 fe 24 72 bd 5c 98 b1 bc 42 6d 14 3b 2c 4a 18 3e
       -0.05911731 -0.021679096 0.002264813 0.14872044
000230 dc e6 21 be bc 7a f3 bd f8 a7 5d bc d7 bd 74 be
       -0.15810722 -0.11888644 -0.013528816 -0.23900543
000240 09 5a 8e 3d fc 9e 22 be 2f 62 eb 3d 4d 37 4e 3b
       0.069507666 -0.1588096 0.114933364 0.0031466067
000250 7f 89 8b ba c7 f1 3a 3e 80 6b f2 3d 3a c8 ef bd
       -0.0010645835 0.18256293 0.1183691 -0.11708112
000260 e1 a9 2f 3e 9a b8 70 be fe 81 d8 bd 16 70 84 bd
       0.17154647 -0.2350792 -0.10571669 -0.06466691
000270 ba 37 0d be 65 2e b9 3d 46 34 21 3e 2e e4 e4 3d
       -0.13790789 0.09042052 0.15742597 0.11176334
000280 2a 6f f3 3c 97 f3 18 be 03 db 1e be 40 37 d6 3c
       0.029716093 -0.14936672 -0.15513234 0.026149392
000290 73 04 da bb 5c 29 55 be fc ca 14 3e fd c2 17 3e
       -0.0066533624 -0.20816559 0.14530557 0.14820476
0002a0 b5 e8 54 3e 6d 5d b5 bd 34 f8 32 3e 83 0b 3d be
       0.20791896 -0.0885571 0.17477494 -0.18461423
0002b0 c3 a6 b1 bc ae 90 9d bd a2 f2 4c 3e a1 ee 3b be
       -0.021685963 -0.07693611 0.20014432 -0.18352748
0002c0 6f 5a dc 3d a8 ee c8 3c d3 f3 21 3e 5b 9f 27 bd
       0.10759436 0.024527863 0.15815668 -0.040923458
0002d0 e9 bc b1 bb a2 64 00 3e f7 c4 3e 3e 84 e7 22 3d
       -0.005424131 0.12538388 0.18629824 0.03977157
0002e0 5e 83 0a 3e ac fd 2a be da c5 51 3d 8a 10 0d 3e
       0.13526675 -0.1669833 0.051214077 0.1377584
0002f0 ec 08 c6 bc ac 2a 24 3e 08 ed 19 be f5 e3 2a 3e
       -0.024174176 0.16031903 -0.15031826 0.16688521
000300 cb b0 c2 3d f7 a8 7f bd 77 94 32 be 41 88 2d be
       0.09506377 -0.062416997 -0.17439447 -0.16946508
000310 d7 94 ac bc 5f 11 a9 bd 4b 4a 13 3e 2e ee de 3d
       -0.021067066 -0.082552664 0.1438381 0.10885273
000320 74 b5 76 bd 96 a0 c0 bc f1 4e 46 be 06 0c 24 be
       -0.06023164 -0.023514073 -0.19366051 -0.16020212
000330 ed b3 fa bc 8e 2a 3b 3e 20 01 31 bd 08 06 22 3e
       -0.030603373 0.18277952 -0.043213964 0.15822613
000340 c1 7a 11 3c 7f 45 36 3e b6 de f4 3d cd 06 52 3d
       0.0088793645 0.17799948 0.11956541 0.051276017
000350 20 1b c1 bc 43 8c 59 be 09 42 29 be 9f 56 4e bc
       -0.023572505 -0.21244912 -0.16529097 -0.012593894
000360 d0 ce 10 3d 1b 7c 08 be 67 6c 05 be eb c7 45 3e
       0.03535348 -0.13328592 -0.13029633 0.19314544
000370 6e c3 b3 bd a2 cb 41 be eb c5 1e 3d 3c be 2f be
       -0.0877751 -0.18925336 0.038762968 -0.17162412
000380 c5 e2 a7 3d b9 b8 2d bc 9a 09 48 3e 06 82 4a 3e
       0.0819755 -0.010603123 0.19534913 0.19776163
000390 c9 5d 6e be cf f8 94 3c f4 1e 52 be 98 be 24 be
       -0.23277964 0.018185047 -0.2051962 -0.16088331
0003a0 45 47 c8 bc 18 ba d9 3d be 35 29 3e 36 cc 65 bd
       -0.024448046 0.10631198 0.16524407 -0.056102954
0003b0 77 52 ca 3d 0c 4e cf 3d 8b cc 10 3c 64 c8 01 3e
       0.0987901 0.10122308 0.008837829 0.12674099
0003c0 f2 22 d7 bd 16 3e 86 bd 52 21 3e bb 8d 5e 11 be
       -0.10504712 -0.06554811 -0.002901156 -0.14196225
0003d0 c4 e7 ea 3d c2 78 79 3e 55 ef 9a 3d 82 99 b6 bd
       0.11469987 0.24362472 0.0756518 -0.08915998
0003e0 84 e2 47 bd 2e e3 14 3e 7d e1 06 bd a3 7d d8 3d
       -0.048800007 0.14539787 -0.032929886 0.10570838
0003f0 3b f1 46 be 59 8a 13 3e c8 2b 7f 3d 37 d8 05 3e
       -0.1942796 0.14408244 0.062297612 0.1307076

graph_detector.conv1.t2_weight f4 [64, 64]
000000 98 22 56 be ff a7 16 bc 3b d1 32 bd 85 10 4e be
       -0.20911634 -0.009195327 -0.04365657 -0.20123489
000010 c5 38 16 be 48 bb 52 3e ac ae f8 bc 68 5e 26 be
       -0.14670093 0.20579255 -0.030356728 -0.1624695
000020 d2 78 10 3e bb 54 4a 3e af 0a c8 bd 4f 1e 91 bd
       0.1410859 0.19758885 -0.09767663 -0.07085859
000030 cb 90 e9 3d f0 c2 97 3d 90 dd 27 3e 40 1f 34 be
       0.1140457 0.07410228 0.16393113 -0.17590046
000040 70 c1 a0 3d 30 6f 58 bd d5 9c 4f 3e 3c 53 d9 bb
       0.07849395 -0.05284041 0.2027467 -0.0066322368
000050 dd 9a 09 3e bb d6 34 bd 1d d5 0f 3d f5 34 51 be
       0.13437982 -0.044150095 0.03511535 -0.20430358
000060 ce dd e0 bc 48 8e 76 bd 19 e2 02 be 87 fe 83 3d
       -0.027449515 -0.060194284 -0.12781562 0.064450316
000070 c2 be 69 bd fc 6f 3b 3e 66 ba ff 3d 02 4f 82 bd
       -0.057066686 0.18304437 0.124867246 -0.06362726
000080 5f 27 19 be ce 44 88 bd 57 aa df 3d 8a 15 16 be
       -0.14956425 -0.066537485 0.109211616 -0.14656654
000090 9c a1 3b be d7 2c 1d 3c d9 83 3e 3e 88 e0 0b 3e
       -0.18323368 0.00959321 0.18604983 0.1365987
0000a0 1e 8f 1e 3e a5 91 4b 3e 59 d1 5f be 48 eb 1c 3d
       0.15484282 0.19879778 -0.21857204 0.03831032
0000b0 fe 07 0f 3d 32 82 dd bd 68 6f 7d bd d2 13 e6 3c
       0.03491973 -0.108158484 -0.061873823 0.028085623
0000c0 46 3d 08 bd dc 28 51 be 94 6d b3 3d 3e 44 f8 bd
       -0.03326156 -0.20425743 0.08761135 -0.12122391
0000d0 ba cf 35 bd c3 20 59 be 6e 67 1f be ed f6 37 be
       -0.044387557 -0.21203904 -0.15566799 -0.17965288
0000e0 61 26 be 3d 0b be 1d bd 7f 5f 5d bd cc 39 2f be
       0.09284664 -0.038511317 -0.05404615 -0.17111892
0000f0 b6 11 46 be ed 14 ed 3d d9 2a e1 3d af 93 b6 3c
       -0.19342694 0.11576257 0.10994501 0.022287218
000100 1e da 5c 3e 57 6f d6 3d 09 b3 e1 bd 99 0c d3 bd
       0.2156758 0.10470455 -0.11020476 -0.10305137
000110 92 80 ed bc c6 4e e9 3c 1d ec 18 bc bb a1 3a be
       -0.028991971 0.028479945 -0.009333638 -0.18225758
000120 94 fc 22 3e 13 b8 87 bc d4 f6 64 3e 1c 9a 44 3d
       0.15916663 -0.016567266 0.22359782 0.047998533
000130 f7 8e 35 3e 32 09 af bd 32 28 c5 bc 0a d0 1c 3e
       0.17730318 -0.08546676 -0.024067018 0.15313736
000140 a6 74 28 3c ff 24 31 be e1 0f 4b 3e 63 d7 0e 3e
       0.010281717 -0.17299269 0.19830276 0.13949351
000150 0c 1f 45 3e 3d 73 c3 bd 8c 89 5a 3e 2f b9 4d be
       0.19250125 -0.09543464 0.21341532 -0.20090173
000160 3f 23 be 3d 74 1d 14 ba 97 a1 6b 3c 3c fa 15 be
       0.092840664 -0.0005650141 0.014381788 -0.14646238
000170 93 72 2b 3e 30 af 2c 3e 93 0d 62 3d 77 49 de bd
       0.16742925 0.16863704 0.055188727 -0.10853856
000180 33 72 f4 bd a5 01 03 be 03 7c 0a 3e 5c 93 d9 3d
       -0.11935844 -0.12793596 0.13523869 0.1062381
000190 ec 84 c1 3d 53 97 e9 3c df 05 a1 bd 9b 7b 47 be
       0.09449181 0.02851454 -0.07862448 -0.19480745
0001a0 5d 97 c5 bc 91 6e 3e be 65 5c e2 3d 71 64 f4 3d
       -0.024120027 -0.18596865 0.11052779 0.1193322
0001b0 66 de 33 be d8 6c 48 3b 73 0a f4 bc d9 8a 16 be
       -0.17565307 0.0030582454 -0.029790139 -0.14701404
0001c0 8d 0a 3b bc 7e fb 94 3d e5 03 c6 bb 7c 0e ea 3d
       -0.01141609 0.07274531 -0.0060429447 0.11428544
0001d0 3e 7b 61 bc 8c cc 3f 3e 44 a5 a7 bd 5a f1 5f be
       -0.013762293 0.18730372 -0.08185819 -0.21869412
0001e0 de d7 3c bd ed ba 75 bd 56 15 1b be 9f fa 2e 3d
       -0.046104304 -0.05999272 -0.15144858 0.04271948
0001f0 61 09 af bd 9c 80 30 3e ed 07 2b be d1 6b 4b be
       -0.08546711 0.1723656 -0.16702242 -0.19865347
000200 d3 09 19 3e 83 08 1b 3e a1 35 23 3e 2e aa d5 bd
       0.14945154 0.15139966 0.15938427 -0.1043285
000210 4a 5c c7 bd 84 27 6b 3e 94 d2 d2 3d e1 00 b9 bd
       -0.097343996 0.22964293 0.10294071 -0.09033371
000220 39 96 ae 3d bf 7f 8f 3c c3 31 41 3e 16 98 39 3e
       0.085247464 0.017516969 0.18866639 0.18124422
000230 d6 bd 28 3e 47 73 38 3e 3e 18 53 3c 2f 58 5c be
       0.16478667 0.18012725 0.012884198 -0.21518014
000240 8f 5f 42 3c 28 b3 97 bd 71 ca 03 be 6b ec 5d be
       0.011863603 -0.07407218 -0.12870194 -0.21672218
000250 b1 b7 0e 3e 77 e4 6f 3d e1 e4 0b 3d 4f f5 9a 3c
       0.1393726 0.05856749 0.034153823 0.0189158
000260 cd d0 e4 3d 76 d3 e3 bc e8 d9 e5 bd 06 2c 2a 3e
       0.11172638 -0.027810793 -0.11223203 0.16618356
000270 cc cf 1b bd 0c 74 c4 3d 53 7c 94 bd f3 99 a3 bc
       -0.038039967 0.09592447 -0.072502755 -0.01997087
000280 32 bb db 3c 05 36 8b 3d 9a 79 01 3e d6 3a f8 bc
       0.02682266 0.06797413 0.12644044 -0.030301493
000290 83 ab 6d bc 35 c9 1a be d0 3a 16 bd d2 bd 99 bc
       -0.014506224 -0.15115817 -0.03667718 -0.018767271
0002a0 fc 7f 1f 3e 17 93 33 3d 57 40 4e 3e 61 2a 86 3d
       0.15576166 0.043841448 0.20141731 0.06551052
0002b0 e1 01 4c be fe d3 20 3e 44 e3 6d 3d 95 5e 22 be
       -0.19922592 0.15705869 0.058078066 -0.15856393
0002c0 c4 3a f5 bd de 88 d0 bc 62 97 0b 3e b2 e7 ef 3b
       -0.11974099 -0.025455888 0.13631967 0.0073213214
0002d0 d2 2a 3c 3e 51 34 d0 3d 6d 73 11 3e b6 e0 1c 3e
       0.1837571 0.101662286 0.14204188 0.15320095
0002e0 59 9d 42 bc 1b 45 84 3d cf c7 a1 bd 23 d2 00 be
       -0.011878335 0.06458493 -0.078994386 -0.12580161
0002f0 9d 21 ae 3d 2c 0a 30 be 3f 4d 3a be 04 a8 1d be
       0.08502505 -0.1719138 -0.1819353 -0.15396124
000300 eb d8 fa bd 89 d8 45 3e 2a a4 ef 3d aa 40 49 3e
       -0.12248405 0.19320883 0.11701234 0.19653574
000310 e6 e6 45 3d 76 a0 54 be 91 e9 f0 3b f2 9b cd bd
       0.048315905 -0.20764336 0.007352062 -0.1003951
000320 c5 bd a4 3d 78 f5 40 3c d4 f2 34 3e 1c 12 e8 3d
       0.08044008 0.011777274 0.17670757 0.11331579
000330 47 cf 45 3e 32 f6 0a 3d 07 13 f5 3d af 6a 17 be
       0.19317351 0.033926196 0.1196652 -0.1478679
000340 d8 1d d8 3d 94 2d 32 be 17 5c f5 3d 6f aa e0 3d
       0.10552567 -0.17400199 0.11980455 0.10970008
000350 97 72 c4 bd 2d 72 5d 3e 60 12 66 3e ba fd 80 bd
       -0.09592169 0.21625586 0.22467947 -0.062983945
000360 32 65 6f 3c 77 f3 94 3c 97 94 05 be be 92 4f be
       0.014611529 0.0181825 -0.13044964 -0.20270821
000370 42 17 8f 3d 60 05 2e 3e 22 9b bd bd f1 e6 1d 3e
       0.06986858 0.16994238 -0.09258105 0.15420128
000380 ff cf 8b bd ef 3b 15 3e 05 fd 39 3e 0c 5c 8d bc
       -0.068267815 0.14573644 0.18162926 -0.017255805
000390 96 34 91 3d 73 2a 01 be f7 34 05 bc 8c dc 2c 3c
       0.07090108 -0.1261385 -0.008130304 0.010550629
0003a0 a1 21 68 be 63 44 60 3e 65 2e 56 be 0f d5 52 3d
       -0.22669078 0.21901087 -0.20916136 0.05147272
0003b0 f8 ae 31 be 47 ee ed bd 55 5f cc 3c 99 85 1a 3e
       -0.17351902 -0.116177134 0.024947802 0.15090026
0003c0 f0 14 c2 3d a5 ab 85 bd 73 ca 0f 3e 70 f0 ba 3d
       0.0947665 -0.06526879 0.14042072 0.09127891
0003d0 cf 91 98 bd 5c 0a 60 3d 5c 1b 2c 3e 2c c3 29 3e
       -0.07449686 0.05469738 0.16807312 0.16578358
0003e0 3c 34 28 3b 5c 73 db bd 97 98 9d 3d 70 41 b7 3d
       0.00256659 -0.107153624 0.0769512 0.08948028
0003f0 08 aa 60 bd 55 09 27 3d f2 f6 40 be f1 33 4b 3e
       -0.054849654 0.040780384 -0.18844202 0.19844033

graph_detector.conv1.gat.att f4 [1, 4, 64]
000000 07 d9 1b be 00 dc c2 b9 e0 ae 49 3c 70 76 36 3d
       -0.15219508 -0.00037166476 0.01230976 0.044546545
000010 34 cb d1 3d 48 a1 64 3e 20 4d 87 be d0 a9 ee bd
       0.10243836 0.22327149 -0.2642603 -0.11653483
000020 48 82 7c 3e 20 32 78 bc c1 f8 19 be c4 2b d6 bd
       0.24659073 -0.0151486695 -0.15036298 -0.104575664
000030 9d 82 39 be 48 95 54 3d 00 33 fb 3d 60 b4 a4 3c
       -0.18116231 0.05190018 0.12265587 0.02010554
000040 de 75 a5 bd 82 bc 35 3e 74 e3 06 3e bc 4f dd 3d
       -0.08079122 0.17747691 0.13172704 0.10806224
000050 4e 73 8f 3e 44 38 c0 3d bc 19 b3 bd ac 72 a9 bd
       0.28017658 0.09385732 -0.08745143 -0.08273825
000060 78 84 6c 3d d4 1c 73 be 28 55 5b 3d 1c cf bf bd
       0.05774352 -0.23741466 0.05354801 -0.09365675
000070 d0 84 31 bd 28 ab 5c 3e 00 f9 9e 3c 0d 10 74 be
       -0.04333955 0.21549666 0.019405842 -0.23834248
000080 0c ad 88 bd de 0d 35 3e 4e 56 59 be b8 f0 5e bd
       -0.06673631 0.17681071 -0.21224329 -0.054428786
000090 e4 dc 95 3e 52 7c 12 3e b4 6a 95 3d 38 a8 1e 3e
       0.2927009 0.14305237 0.07295743 0.15493858
0000a0 5c d1 6e bd 80 f1 21 bd 6e d1 59 be dc 6c 11 3e
       -0.05830513 -0.039536953 -0.21271297 0.14201683
0000b0 58 34 54 bd 04 26 56 3e 19 30 0f be 10 a8 95 bd
       -0.05180773 0.2091294 -0.13983192 -0.07307446
0000c0 50 28 78 3e bc 85 30 be 30 5a eb 3c 67 4a 84 be
       0.24234128 -0.17238516 0.028729528 -0.25838014
0000d0 d9 20 1a be a0 27 af 3d 7a c1 4c 3e 60 44 03 3c
       -0.15051593 0.0855248 0.1999568 0.008011907
0000e0 d8 1c 3a be 2c 4d 29 be 0e 85 84 be c0 60 1a 3e
       -0.18175066 -0.16533345 -0.25882763 0.1507597
0000f0 58 24 e6 3d c0 23 d8 3b 80 59 3b bb 00 73 89 3e
       0.11237401 0.0065960586 -0.0028587282 0.2684555
000100 ac 2e ea 3d 3d 32 5d be 48 06 2b bd 1e 8b 38 3e
       0.11434683 -0.21601196 -0.041754037 0.18021819
000110 2c 5f c5 3d 40 30 30 3c b8 2a f7 bd 2d 5e 96 be
       0.09637293 0.010753691 -0.12068695 -0.29368725
000120 ef 07 94 be 96 c9 2f 3e 38 77 29 bd 28 c8 0d be
       -0.28912303 0.17166743 -0.04137346 -0.13845885
000130 3a 6e 90 3e a4 27 08 3e c0 42 a7 bb c4 e2 a5 3d
       0.28209096 0.13296372 -0.0051043928 0.08099893
000140 12 b3 eb bd fa 99 80 3e 48 3e fd 3d 66 f6 31 be
       -0.11508764 0.25117475 0.12365395 -0.1737915
000150 3c 1a 58 3e 30 10 90 3c 08 87 e1 bd 2a d7 74 be
       0.21103758 0.017585844 -0.11012083 -0.23910204
000160 6d 2e 84 be 46 aa b5 bd a4 d4 61 3e 10 25 65 3e
       -0.2581667 -0.08870368 0.22053772 0.2237742
000170 6c d8 86 be 14 c4 8c 3e 2a 0c 44 3e e4 1b 40 3e
       -0.26336992 0.27493346 0.19145265 0.1876064
000180 0b 4b 1b be eb 46 33 be 28 34 55 3e b3 64 77 be
       -0.15165345 -0.17507522 0.20820677 -0.24159507
000190 20 07 89 3e bc fc 63 be 40 5d 88 3d 3f e0 44 be
       0.26763248 -0.2226438 0.06658411 -0.19226168
0001a0 ac 47 3e be 4d 18 75 be 10 27 e4 3d e8 8b 0c bd
       -0.18582028 -0.23935051 0.11140263 -0.034313112
0001b0 c4 f5 77 be 6c 2c 30 3e c4 40 b0 3d 88 44 24 3e
       -0.24214846 0.17204446 0.08606103 0.16041768
0001c0 a0 4d 10 3d bc 78 d3 3d 68 06 27 3e 2c 54 26 3e
       0.03523028 0.10325763 0.16311038 0.16243047
0001d0 e4 86 79 3e 2e 02 4b be 4d 68 23 be dc 45 e1 3d
       0.24367863 -0.1982505 -0.15957756 0.10999653
0001e0 10 a8 b4 3d 00 6f 8c 3a a8 73 05 3e 9e a2 d7 bd
       0.08821118 0.0010714233 0.130324 -0.10529064
0001f0 38 e5 77 3e 88 22 52 bd 36 df 4b be 5c f8 50 3e
       0.24208534 -0.051302463 -0.19909367 0.20407242
000200 bc 76 78 3e fa 5d d3 bd 2e 8e 0c be 40 86 33 3c
       0.24264044 -0.10320659 -0.13726112 0.010957301
000210 b4 15 33 be 80 02 fa 3d 9a 4f 8a 3e 48 9f 92 3e
       -0.17488748 0.12207508 0.27013856 0.28637147
000220 30 7e 31 be e1 f1 16 be 58 f3 38 be ec ea 0c be
       -0.17333293 -0.14740707 -0.18061578 -0.1376149
000230 e0 4f 1a 3c f0 c1 7c 3e 80 e3 9b 3c ae a9 71 be
       0.009418458 0.24683356 0.019029379 -0.23599884
000240 70 a4 86 3d 00 c8 e6 bb e8 a2 0d bd 28 33 63 3d
       0.06574333 -0.007042885 -0.034579188 0.05546871
000250 a2 d6 20 3e b6 34 84 be 9d 1c 00 be 60 e2 da 3d
       0.15706876 -0.25821465 -0.12510915 0.10687709
000260 1e a5 2e be 70 3f af 3c 3a f6 2a be f6 17 44 be
       -0.17055175 0.021392554 -0.1669549 -0.19149765
000270 90 d9 d4 bd 4d b2 23 be 24 20 70 be 03 da 88 be
       -0.10393059 -0.15985985 -0.2344976 -0.2672883
000280 02 d2 44 be 9c 24 90 3e 06 6d 90 3e 80 ab 4d 3e
       -0.19220737 0.2815293 0.28208178 0.20084953
000290 24 2e 0c 3e a0 67 f4 3c 00 fe b0 ba 80 44 12 bd
       0.13689476 0.029834569 -0.0013503432 -0.035709858
0002a0 b8 df 6b be 54 14 39 be b2 cd 93 3e 98 c2 52 be
       -0.2303456 -0.18074161 0.2886787 -0.20582044
0002b0 98 4d e4 3d d0 19 d8 3c 34 a9 54 3e 80 bc 24 bd
       0.11147612 0.026379496 0.20767671 -0.04021883
0002c0 30 ce be bd 0e 36 44 be ae 8b 4e be 38 d8 c9 3d
       -0.09316671 -0.19161245 -0.20170471 0.098556936
0002d0 fb e3 3b be b0 d1 8a 3d 00 5f 8c ba f8 0d 7a 3d
       -0.18348686 0.06778276 -0.0010709465 0.061048478
0002e0 b8 30 64 be f0 35 90 bc c1 f9 24 be 41 cc 6d be
       -0.2228421 -0.017603844 -0.16110899 -0.23222448
0002f0 94 2a 33 3e d5 62 93 be 4c 18 41 be ab eb 7c be
       0.17496711 -0.2878634 -0.18856925 -0.24699275
000300 c8 ed 3c 3d dc 12 0c 3e 50 0e 38 bd 8c 0a 96 3d
       0.046125203 0.1367907 -0.044935524 0.073262304
000310 c8 62 10 3e d5 91 8b be b4 2a 09 3e 08 9b f4 3d
       0.14100182 -0.272597 0.13395196 0.11943632
000320 55 97 8c be f4 73 89 3e e6 93 6e be 8b c6 41 be
       -0.27459207 0.26846278 -0.23298606 -0.18923394
000330 9a 06 80 be 18 17 b7 3d 78 3e af 3d 50 0c 87 bc
       -0.25005037 0.08939952 0.08556837 -0.016485363
000340 85 5d 19 be e0 79 5e bc e4 e6 2d be 13 e2 0d be
       -0.14977081 -0.013578862 -0.16982609 -0.13855772
000350 f0 1a d9 3c 80 4d 81 3b 06 e8 ea bd fc f8 5d 3e
       0.026502103 0.0039460063 -0.11470036 0.21677011
000360 a0 ea 25 3c 32 06 a5 bd 10 c8 f1 bd 30 47 d6 bc
       0.01012674 -0.08057822 -0.11805737 -0.026156992
000370 64 0a b8 3d 92 48 1f 3e 14 5a f8 bd 92 27 22 3e
       0.08986357 0.15555027 -0.12126556 0.15835407
000380 04 1c 55 be 38 02 a1 3d 00 9d 25 bc 1c aa 5d 3e
       -0.20811468 0.07861751 -0.0101082325 0.21646923
000390 66 45 32 3e d8 4f 58 bd 54 90 d1 bd bc 5b 68 3e
       0.17409286 -0.05281052 -0.102326065 0.22691244
0003a0 50 dc 8b 3d 6a 8a 7f be 18 09 19 3e 70 0d fa 3c
       0.06829131 -0.24955145 0.14944875 0.030523986
0003b0 dc b4 8e bd 61 32 83 be c2 67 68 be aa 97 4e be
       -0.0696809 -0.25624374 -0.2269583 -0.20175043
0003c0 30 46 7c 3e 02 f6 23 3e d0 89 7e 3e d3 67 2e be
       0.2463615 0.16011813 0.24857259 -0.17031793
0003d0 b0 ab 3c bd 94 3b 57 3e 44 23 ba 3d 56 09 19 be
       -0.04606217 0.21018821 0.09088758 -0.14944968
0003e0 18 c8 75 3e 72 12 7a be 04 af dd bd d0 3d fb bc
       0.24002111 -0.24421099 -0.10824397 -0.030669123
0003f0 f9 97 7b be 66 db 84 3e 30 85 fe 3d 38 57 56 3e
       -0.24569692 0.25948638 0.12427747 0.20931709

graph_detector.conv1.gat.bias f4 [64]
000000 4b e7 ec bb 3b 86 ce bb ca c8 2c bc 6e b8 08 3c
       -0.0072297207 -0.0063026226 -0.010545919 0.008344753
000010 79 38 04 3c 6d 16 67 3c 13 41 d0 3c d2 f8 6b 3b
       0.008070105 0.014104468 0.025421655 0.0036006463
000020 3e 13 1c bb 37 fc 4f 3a c9 54 94 3a 1a a6 1e 3b
       -0.002381518 0.0007934006 0.0011316772 0.002420789
000030 7b d4 d6 3a 8a cb 29 3c e8 03 48 bc b1 44 1f bb
       0.0016390228 0.010363469 -0.012207963 -0.0024302418
000040 0a bd 4f 3c 0e 2c 96 3b 01 98 03 bb fd 24 d8 bc
       0.012679348 0.0045828884 -0.0020079615 -0.026384825
000050 fd 86 9f bb 8a 89 3a 3b ba 36 65 3c 15 3b 9a 39
       -0.004868387 0.0028463327 0.013990099 0.00029417188
000060 9b 64 5f 3a 6f e7 0c bc 31 9d b0 3b d1 c1 85 3b
       0.0008521766 -0.0086001 0.0053898324 0.0040819426
000070 49 4e 93 bc a1 b8 85 bc 63 a4 b7 b9 4e a3 44 bb
       -0.017981665 -0.01632339 -0.00035026958 -0.0030004564
000080 75 0e 05 bb 79 d0 e1 bc dd 37 97 3b c4 e1 52 bb
       -0.0020302807 -0.027565228 0.0046148137 -0.0032178024
000090 e4 71 db bc 21 91 c2 3c bd 2e 07 bc 8f 7f 53 ba
       -0.026787706 0.023750843 -0.008250889 -0.0008068019
0000a0 fc 7c 99 bc 6d 59 59 bc 74 b0 a5 3b e8 2f e1 3c
       -0.018736355 -0.01326595 0.0050564352 0.027488664
0000b0 5a fc 86 bb 10 c3 0d 3c 75 f5 96 3b 12 1d a3 3c
       -0.004119438 0.008652464 0.0046068975 0.019911323
0000c0 24 f0 05 bc af 95 46 3b c0 73 e3 3c 89 ff ac 3a
       -0.00817493 0.003030162 0.027765155 0.0013198714
0000d0 6f 9d 90 3b d3 1b d6 3c 42 5c c8 bb 16 f0 9e 3b
       0.004413299 0.026136314 -0.0061145136 0.004850398
0000e0 af 66 2a 3c 31 9c 75 bb e1 6d 82 3c 07 8b 79 ba
       0.010400458 -0.003747713 0.015921535 -0.0009519313
0000f0 e2 83 df 3b f5 3f 24 3b 80 d6 c3 3b ba d3 c5 bb
       0.0068211416 0.0025062535 0.005976498 -0.0060372027

graph_detector.conv1.gat.lin_l.weight f4 [256, 20]
000000 00 6b 9e 3b 9f 3d ec bd 9a c2 67 bd 40 4f 9d 3c
       0.0048345327 -0.11535191 -0.05658207 0.019202828
000010 34 32 5f 3d 00 6c 9c 3b 24 84 bf bc c0 5d 76 bb
       0.054491237 0.004773617 -0.02337844 -0.00375925
000020 00 7f cb bd d6 14 e0 bd f5 09 10 bd fc b2 06 be
       -0.09936333 -0.10941474 -0.035165746 -0.13154215
000030 b0 43 d3 bd 83 68 82 bc dd 8c a5 3d 7b f2 1c bd
       -0.10315645 -0.015918976 0.08083508 -0.038317185
000040 69 f1 b6 3d dd 31 d0 bd 99 b4 cf 3d 20 bc 89 3d
       0.08932764 -0.10165761 0.10141868 0.06725335
000050 6d 82 a4 bd 58 ad 12 3e c4 ec 7b bd 29 22 fa bd
       -0.08032689 0.14323938 -0.061505094 -0.12213547
000060 da a1 df bd bf 35 81 bd e0 a4 a8 bd 74 ee 40 3d
       -0.109195426 -0.063090794 -0.082345724 0.047102407
000070 30 e6 d4 3c 88 50 8b bd 91 c7 c6 3d 68 c1 1c 3b
       0.025988668 -0.068024695 0.09706033 0.002391899
000080 03 51 19 bd aa 8c db 3b 28 0a e9 bd 8c 0c bb bd
       -0.037430774 0.006700118 -0.1137889 -0.091332525
000090 e2 bb 8f bd 11 80 89 3d 73 66 e3 bc b8 f8 80 bd
       -0.07018258 0.0671388 -0.027758813 -0.06297439
0000a0 10 5f 8a 3c 40 4e e6 3d 58 cb fa 3d b0 2d f6 bd
       0.016891032 0.11245394 0.12245816 -0.12020433
0000b0 00 fc aa 39 d8 63 f8 bc 74 51 f6 bc 3e a0 9b 3d
       0.0003261268 -0.030321047 -0.030068137 0.07598923
0000c0 90 f5 e7 3d f0 9e 75 3d 16 6e fb 3c c0 14 c0 3d
       0.11326134 0.059966028 0.030692142 0.09378958
0000d0 68 fb d4 3d ee 99 ed 3d a5 42 dc 3d 54 3d b4 bc
       0.103995144 0.116016254 0.10754899 -0.0220019
0000e0 ea dd eb bd c6 c1 0b bd dc 37 01 3e ee cb b7 3d
       -0.11516936 -0.034120344 0.12618965 0.089744434
0000f0 34 65 ae 3d 8c 57 a8 3d bc ba 97 3d 54 a7 0a 3e
       0.08515397 0.08219823 0.07408664 0.13540393
000100 f4 93 50 bd 5c d0 07 be 7c cb 21 bd e8 f2 eb 3d
       -0.05092235 -0.13263077 -0.0395007 0.1152094
000110 84 8e 83 bd c2 4b de bd 43 a2 68 3d b9 6f 52 3d
       -0.06423667 -0.108542934 0.05679537 0.05137608
000120 e1 93 65 bd 54 5e f0 3d 93 7c ab 3d f3 47 c2 bc
       -0.05604923 0.11736742 0.0837337 -0.023715949
000130 4f 91 d4 3d c5 b0 19 3e a1 77 61 bd 69 f1 32 bd
       0.10379278 0.15008838 -0.055045728 -0.043687258
000140 4c e3 08 be f8 9f 8a 3d 06 17 0a 3e 3e e8 06 be
       -0.13367957 0.06768793 0.13485345 -0.13174531
000150 b8 78 f8 3d c0 5c 1c bc 7c 86 1f 3d 42 b9 01 3e
       0.121324 -0.009543598 0.038946614 0.12668326
000160 64 47 ed 3d 06 7b 0e be 42 19 f0 bd a7 dd b0 3c
       0.11585882 -0.13914117 -0.117235675 0.021590067
000170 ed 20 b8 bc 90 3c 10 bc 43 25 8c 3d 57 b8 9a bd
       -0.022476638 -0.008803502 0.068430446 -0.07554691
000180 22 4a bc 3d 66 7b 11 3e 11 b7 0b bd 40 98 6b bd
       0.09193827 0.14207229 -0.034110133 -0.057518244
000190 7a fa 22 bd 84 7d cc bd 68 64 82 3c e0 5e 01 3e
       -0.039789654 -0.09984878 0.015917018 0.12633848
0001a0 b4 cf d5 bd b4 39 c1 bc 48 17 b4 3d 00 74 49 3c
       -0.10440007 -0.023587085 0.08793503 0.012295723
0001b0 40 e8 38 bb 51 c9 9b bd 73 f4 06 3e f3 98 1d 3d
       -0.0028214604 -0.076067574 0.13179187 0.038475942
0001c0 b2 51 c6 3c 7a 84 80 bc 9e 32 b1 3d 82 56 51 bd
       0.024208877 -0.01568817 0.086522326 -0.05110789
0001d0 90 f9 b1 3b 27 e7 f8 3c ab 06 7e 3a 29 81 e3 3d
       0.0054313615 0.03038366 0.00096903247 0.1110862
0001e0 90 3b a1 bc 1a bd ce bd c0 86 98 bd 7c e9 cb 3d
       -0.019681722 -0.10094662 -0.074475765 0.09956643
0001f0 60 af d1 3c 66 da 76 bd c8 98 01 bd e8 37 5b bd
       0.02559632 -0.060266875 -0.031639844 -0.053520113
000200 12 fd 12 be 09 99 08 be 8b f2 06 3d 39 f6 a6 3d
       -0.14354351 -0.13339628 0.03294615 0.08152432
000210 ce 99 ce bd 73 3b 10 3c bd 82 04 3e 70 1f e0 bd
       -0.1008793 0.008803236 0.12940498 -0.10943496
000220 dc 2a 9b 3d 3b 16 10 3e 25 ed db bc 5d a9 b1 bd
       0.07576534 0.1407098 -0.026846478 -0.086748816
000230 b2 e4 a9 3d 86 0b 08 bd aa 05 a6 bd bb 6b 9a bd
       0.08295573 -0.033214115 -0.08106549 -0.07540079
000240 58 72 e1 3d cc 68 18 3d 87 d4 0f be f8 c9 9b bd
       0.110081375 0.037209317 -0.14045916 -0.07606882
000250 f8 4b ce bd 88 9e a2 bc 58 0a 01 bd 33 d9 eb bc
       -0.10073084 -0.019850984 -0.031504005 -0.028790092
000260 2a 85 b1 bd 43 d5 07 be d0 81 98 bd 3e 38 35 3d
       -0.08667977 -0.13264947 -0.07446635 0.04424309
000270 28 51 5e bd 81 a9 9c bc 9a 12 fa 3c 8a 63 1d bd
       -0.054276615 -0.019123795 0.030526448 -0.038425006
000280 e6 ee 24 bd 50 1a 30 bd 7c 75 08 3e 65 c8 0d be
       -0.040266894 -0.042993844 0.13326067 -0.13845976
000290 9c bc 69 bd 40 b7 9d bb 50 c8 d3 3c 7e 6e a9 bd
       -0.057064638 -0.004813105 0.025852352 -0.08273028
0002a0 d6 33 12 be f0 1b bd 3c f9 13 8e 3a 4a ff fc 3c
       -0.14277586 0.02308461 0.0010839693 0.03088345
0002b0 47 5d 0a be 33 32 2d bd b0 2e a8 3b 84 5c ec 3d
       -0.13512145 -0.0422842 0.0051325187 0.115410835
0002c0 b3 cb d9 bd 4e 84 8e bd 0c 78 f7 3d 40 a9 c8 3d
       -0.10634556 -0.06958829 0.12083444 0.09797907
0002d0 c6 00 ba 3d d6 cd 11 3e 58 3e df bc 6c 5e 13 3e
       0.09082179 0.14238676 -0.027251408 0.14391488
0002e0 8c 7a 1b bd 58 d3 aa bc 05 9f 81 bd 78 92 ea 3c
       -0.037958667 -0.02085273 -0.06329159 0.028634295
0002f0 68 f7 d6 3c 50 9c 60 bc 20 e7 4c 3d eb 0f 48 bd
       0.02624102 -0.013709143 0.050025105 -0.048843306
000300 70 3a f4 3d 45 fb b1 3c cd c3 dc 3d df 39 d1 3c
       0.119252086 0.02172626 0.107795335 0.02554029
000310 35 32 dc 3d 2c 95 cc 3d 7e 9d 8d 3c 3b d9 32 3d
       0.10751764 0.0998939 0.017287012 0.0436642
000320 96 b3 6b bd 86 98 5a bd 5b 05 15 be 88 22 f0 3c
       -0.057544313 -0.053368114 -0.14552824 0.02931334
000330 6d ac ac bd da f6 b0 3d c0 8b 3d bb d4 1e a9 3d
       -0.08431325 0.08640833 -0.0028922409 0.08257833
000340 80 88 59 3d 30 77 0b be 03 24 e1 bd 61 6a 9d 3c
       0.053108692 -0.13619685 -0.10993197 0.019215764
000350 d6 d0 fa 3d 31 42 c4 3d 4c 32 1c be f6 67 96 bd
       0.122468635 0.095829375 -0.15253562 -0.07344048
000360 10 0a ba 3d 97 f9 92 3d 1e 1d 2a bd 9e a6 98 bd
       0.090839505 0.07176512 -0.041531675 -0.07453655
000370 34 3a c9 bd f0 06 e0 3d 78 a8 10 3e 23 2b 89 bd
       -0.098255545 0.10938823 0.14126766 -0.06697681
000380 08 17 b3 bd 04 68 f1 3d f8 10 07 3d 5c b8 b9 3d
       -0.08744627 0.117874175 0.032975167 0.09068367
000390 50 cf 0e bc dc 1e 6e bd fc c0 d5 bd 54 91 c0 bc
       -0.008716419 -0.0581349 -0.104371995 -0.023506798
0003a0 80 ae 1d be e8 37 02 be d2 92 14 3e 66 13 59 bd
       -0.15398598 -0.12716639 0.14509133 -0.052997015
0003b0 ce 22 55 3d cb 67 7c 3d de ca 2a bd f2 9b e7 3d
       0.052035145 0.061622422 -0.041697375 0.11309041
0003c0 06 07 81 bd c0 0c 10 be 90 53 93 bc a0 a1 ca bd
       -0.06300168 -0.14067364 -0.017984182 -0.09894109
0003d0 af 50 93 bd 96 4d cf 3d b4 4f f7 3d c0 98 8b 3c
       -0.071931235 0.1012222 0.12075749 0.01704061
0003e0 ec f6 32 3d 38 4f 32 bd 9c fd df 3d d7 d1 b7 3d
       0.043692514 -0.04353258 0.10937044 0.08975571
0003f0 02 d9 90 3d d1 0d 0d 3e 31 51 3d 3d 0f 7d 70 ba
       0.07072641 0.13774802 0.04622001 -0.00091739086
