Model/checkpoint/RNN_har_clean/316-G.ckpt (torch, 722031 bytes, 62 tensors)

projection f4 [1, 18, 79, 79]
0	0x3d2424b9	0.040074084
1	0xb9649e23	-0.00021802685
2	0x3c33f750	0.010984257
3	0xbcd5a490	-0.026079446
4	0xbd0c9a2a	-0.03432671
5	0x3cc2b9c5	0.023770222
6	0x3d51f7b2	0.05126161
7	0x3cb80833	0.022464847
8	0xbd72fca4	-0.059322968
9	0xbd2f43fb	-0.04278944
10	0x3d3ee604	0.04660608
11	0xbc2a2cb6	-0.0103866365
12	0xbd1a091e	-0.03760635
13	0xbcd9aace	-0.026570704
14	0x3d847dea	0.06469329
15	0xbcf0510f	-0.029335527
16	0xbb090f10	-0.002091352
17	0x3c657323	0.0140045015
18	0x3c53650a	0.012902508
19	0x3b23128f	0.0024882888
20	0x3b0c6739	0.002142383
21	0xbd643be5	-0.055721182
22	0x3bb8742f	0.0056290845
23	0x3d6b40f5	0.057434995
24	0x3b87ca04	0.004143955
25	0x3d3d5e0c	0.04623227
26	0x3c5a3fb4	0.013320852
27	0x3d14439e	0.036197297
28	0xbd7ca864	-0.061684027
29	0xbd1d8347	-0.038455274
30	0xbd197f2c	-0.037474796
31	0xbc941c7f	-0.018079994
32	0x3c45c118	0.012069963
33	0x3c3d398e	0.011549367
34	0xbd28c998	-0.04120788
35	0x3ca39ab0	0.019971222
36	0xbd22e82e	-0.039772205
37	0x39dfb829	0.00042671085
38	0xbd35c76f	-0.044379648
39	0x3bc6eab0	0.0060704574
40	0xbcdee01d	-0.027206475
41	0x3d4add3d	0.049527396
42	0x3c599cb5	0.013281991
43	0x3d18abdd	0.037273277
44	0x39237de8	0.00015591795
45	0x3cab9168	0.020943359
46	0xbd20e2fe	-0.039278977
47	0x3d50bd2f	0.05096167
48	0xbbe08eaa	-0.0068529444
49	0x3c8fd7b5	0.017558912
50	0x3ae83b64	0.0017717895
51	0xbd342c3d	-0.0439875
52	0x3adf9c5b	0.0017060147
53	0x3ce2f352	0.027703915
54	0x3d66c107	0.05633643
55	0xbc73daab	-0.0148836775
56	0x3d11b788	0.03557542
57	0x3c63d9ab	0.013906877
58	0xbcf7952b	-0.030222496
59	0x3c859acc	0.016309164
60	0x3d03c395	0.032168943
61	0x3d0b5cbb	0.03402398
62	0xbd26e634	-0.040746883
63	0x3b4a52f4	0.0030872198
64	0x3ce45c1b	0.02787595
65	0xbd03b464	-0.032154456
66	0x3cd2cc39	0.025732147
67	0x3d317340	0.0433228
68	0xbd42c7e0	-0.047553897
69	0xbc7cd988	-0.015432723
70	0xbca42c81	-0.020040752
71	0x3bd5f61d	0.006529583
72	0xbcd3dc84	-0.025861986
73	0xbc5330f0	-0.012890086
74	0x3d785f68	0.06063786
75	0xbd106d9e	-0.03526079
76	0x3cbc4842	0.022983674
77	0x3d41ff9e	0.047362916
78	0x3d1a7796	0.037711702
79	0xbd347ed3	-0.04406626
80	0x3cce7860	0.025203884
81	0x3bd4fe49	0.0065000397
82	0x3885da6c	6.3826184e-05
83	0x3d0ad3c9	0.03389338
84	0xba96b074	-0.0011496679
85	0xbd73a447	-0.05948284
86	0xbbc024d4	-0.0058637653
87	0x3d4b43ae	0.04962509
88	0x3d5a7d69	0.053342257
89	0xbce68d99	-0.02814369
90	0xbc6535ab	-0.013989846
91	0x3d24ab64	0.040202513
92	0x3ca3b61e	0.019984301
93	0xbd807978	-0.06273168
94	0x3b74b04c	0.0037336526
95	0xb9837fc8	-0.00025081472
96	0xbcbb2d33	-0.022848701
97	0xbcf62668	-0.03004761
98	0x3be31479	0.0069299308
99	0x3cce27a8	0.025165394
100	0x3d630f74	0.05543466
101	0xba77bd84	-0.0009450542
102	0xbd50479d	-0.050849546
103	0x3ad20b9f	0.0016025192
104	0xbd5db782	-0.054130085
105	0xbbc1c90f	-0.0059138606
106	0xbd3bdb38	-0.04586336
107	0x3d79c189	0.060975585
108	0x3d059553	0.03261311
109	0x3d48935f	0.04896867
110	0x3cb55a0d	0.022137666
111	0x3c0aaef5	0.008464565
112	0x3b0a55c3	0.0021108247
113	0x3d347fd4	0.04406722
114	0xbc750736	-0.0149553325
115	0x3d4861dd	0.048921455
116	0x3c817494	0.01580266
117	0x3d3307e1	0.043708686
118	0x3ca89444	0.020578511
119	0x3d1c7d91	0.038205687
120	0xbd2cc3e1	-0.042178992
121	0x3beace9c	0.007165743
122	0xbcf95d26	-0.030439924
123	0x3c0b638f	0.008507623
124	0xbc521f78	-0.012824886
125	0x3cc75de0	0.024336755
126	0xbd745413	-0.059650492
127	0x3cc537da	0.024074484
128	0xbcf92825	-0.03041465
129	0xbcb9e0cd	-0.022690201
130	0x3cdef31c	0.027215533
131	0xbc7a1bd6	-0.015265426
132	0xbcec2ebb	-0.028830877
133	0xbd397934	-0.045281604
134	0x3a908c84	0.0011028205
135	0xbc44a0d8	-0.012001239
136	0xbce661b4	-0.02812276
137	0x3d1c231e	0.038119428
138	0xbc6f87b1	-0.014619754
139	0xbcc6b8c1	-0.02425802
140	0xbcd880fc	-0.026428692
141	0x3cd3d35e	0.025857624
142	0x3ca6dd3a	0.02036916
143	0xbc8f46be	-0.017489787
144	0x3c2be411	0.010491387
145	0xbb2f32ec	-0.0026733233
146	0xbcd6d6b6	-0.026225429
147	0x3cd29aed	0.02570864
148	0xbb5a0633	-0.0033267855
149	0xba2f392b	-0.0006684239
150	0x3b07315f	0.0020628793
151	0x3d261957	0.04055151
152	0x3cf4f277	0.029900772
153	0xbd5fb8e1	-0.054619674
154	0x3cfcec8b	0.030874511
155	0xbce8cc50	-0.028417736
156	0xbd560078	-0.05224654
157	0xbce91bbe	-0.028455611
158	0xbd281868	-0.0410389
159	0x3c004288	0.007828362
160	0xbbb75585	-0.0055949115
161	0x3c8152e2	0.015786592
162	0x3d0dc0dd	0.034607757
163	0xbc4a887e	-0.012361644
164	0xbd5f0830	-0.054451168
165	0xbc735376	-0.014851442
166	0x3d68a296	0.05679568
167	0x3d3f12d6	0.046648823
168	0xbd24ac82	-0.04020358
169	0x3a9fb270	0.0012183916
170	0x3d19b574	0.037526563
171	0x3cb5cffd	0.022193903
172	0xbd855eca	-0.0651222
173	0x3caf320a	0.021386165
174	0x3b149569	0.0022672063
175	0xbc732959	-0.014841401
176	0xbc9987e2	-0.018741552
177	0x3b39fa6d	0.0028378025
178	0x3beb441e	0.007179751
179	0x3d6466a5	0.055761952
180	0xbb122814	-0.002230172
181	0xbd62cadb	-0.05536924
182	0x3a50d586	0.0007966388
183	0xbd4b716c	-0.049668714
184	0xbc562d6b	-0.013072352
185	0xbd222ff5	-0.039596517
186	0x3d80e90e	0.06294452
187	0x3d11092e	0.035409145
188	0x3d24639f	0.04013407
189	0x3ca2c28c	0.019868158
190	0xbb199862	-0.0023436774
191	0xbb8c2ff8	-0.0042781793
192	0x3d2824de	0.041050784
193	0xbc801e6d	-0.015639508
194	0x3d2df06e	0.04246562
195	0x3bf7b909	0.0075598997
196	0x3d323f04	0.043517128
197	0x3bbf8e5d	0.0058458284
198	0x3cfc3f83	0.030792003
199	0xbd443d10	-0.047909796
200	0xbb84c869	-0.004052211
201	0xbd0bba63	-0.0341133
202	0x3b9a5781	0.0047101383
203	0xbc81d182	-0.015846971
204	0x3d10f753	0.035392117
205	0xbd5e7ca2	-0.054318078
206	0x3c531db7	0.012885503
207	0xbcb05bc8	-0.02152814
208	0xbc0cbc21	-0.008589775
209	0x3d176ca9	0.03696886
210	0xbbb7206d	-0.0055885823
211	0xbcdb7f10	-0.026793987
212	0xbd5bced2	-0.053664036
213	0x3c27cae2	0.010241242
214	0xbce0c5f2	-0.027438138
215	0xbc92c4c6	-0.017916095
216	0x3d01c329	0.03168026
217	0xbc613ddd	-0.0137476595
218	0xbce0308f	-0.027366905
219	0xbcfc4241	-0.030793311
220	0x3d1165cb	0.035497468
221	0x3bd7513b	0.0065709627
222	0xbcbfcd8d	-0.023413444
223	0x3cbd379c	0.023097806
224	0xbc732912	-0.014841335
225	0xbd2c501c	-0.042068586
226	0x3d24e469	0.04025689
227	0x3bd97e10	0.0066373423
228	0x3c7c3707	0.015393979
229	0xbaf705c7	-0.0018846326
230	0x3cfce9af	0.030873148
231	0x3c813a66	0.015774917
232	0xbd721578	-0.059102505
233	0x3d048b0c	0.032359168
234	0xbcc82d5f	-0.024435697
235	0xbd4952c9	-0.049151216
236	0xbd09119c	-0.03346406
237	0xbd1ed947	-0.03878143
238	0xbd19f8a9	-0.037590656
239	0xbd1116a2	-0.035421975
240	0x3d608a20	0.054819226
241	0x3d2f9eb0	0.042875946
242	0xbd5e700e	-0.054306082
243	0xbd2a37d9	-0.041557167
244	0xbd2b755a	-0.041859962
245	0x3d5ae2e3	0.053439032
246	0x3cf720b5	0.030166963
247	0xbd7bea69	-0.061502848
248	0x3d1b3823	0.037895333
249	0x3cf95d67	0.030440046
250	0x3d50de0a	0.050993003
251	0xbd477fed	-0.048705984
252	0x3d7c3a6a	0.061579145
253	0xbc70a732	-0.0146883
254	0xbc5d7efc	-0.013519045
255	0x3c52fbce	0.012877418

sensor_embedding.weight f4 [18, 16]
0	0xbf6401b1	-0.8906508
1	0x40541856	3.3139853
2	0x3ef3a85c	0.47589386
3	0x3faf2b5f	1.3685111
4	0x400a12d8	2.1574001
5	0xbf0664de	-0.5249766
6	0x3da73e24	0.08166149
7	0x3ea43eb1	0.3207908
8	0x3e93f5aa	0.28898364
9	0x3f84aeac	1.0365806
10	0xbf7a4c4e	-0.9777268
11	0x3efb4375	0.49074903
12	0x3dd70c60	0.10500407
13	0x3fa39832	1.2780821
14	0x3f9429c0	1.1575241
15	0xbf09fb75	-0.5389932
16	0xbfe41c17	-1.7821072
17	0x3f899ca8	1.0750933
18	0x3fb186a9	1.386922
19	0xbf8b5a74	-1.0886979
20	0xbfbb32ca	-1.4624875
21	0xbef6d18b	-0.48206744
22	0x3cd3a41f	0.025835095
23	0xbf62798f	-0.88466734
24	0x3f544318	0.82914877
25	0x3e0f8bc4	0.1401816
26	0xc00ae9d7	-2.1705225
27	0x3d423e35	0.047422606
28	0x4028b5b1	2.6360896
29	0xbfb7a884	-1.4348302
30	0xbf8d03be	-1.1016767
31	0xbf14cc94	-0.5812466
32	0x3f219ad0	0.6312685
33	0xc005b1f3	-2.0889862
34	0x3fc21215	1.5161768
35	0xbffc1f2b	-1.9697012
36	0x3f7972f6	0.9744104
37	0x3f165474	0.58722615
38	0x3ebb7471	0.36612275
39	0x3f9b3041	1.2124101
40	0xbf7c17b4	-0.9847367
41	0x3ea0db2f	0.31417224
42	0x402973a7	2.6476839
43	0xbf85560b	-1.0416883
44	0x3f4223be	0.7583579
45	0xbf110159	-0.5664268
46	0xbdc0f9f7	-0.09422677
47	0xbfa5d62a	-1.2955983
48	0xbedb8119	-0.4287193
49	0xc0405293	-3.00504
50	0xbd23113c	-0.039811358
51	0x3ef7cbb2	0.48397595
52	0x3ebd74b0	0.37003088
53	0x3fba49a9	1.4553729
54	0x3fd700af	1.6797084
55	0xc000abed	-2.0104935
56	0x3fa9e25f	1.3272208
57	0x3dbdf51e	0.09275268
58	0x3ffec75e	1.9904592
59	0xbf1b4458	-0.6065116
60	0x3f8c239f	1.0948371
61	0x3f481249	0.781529
62	0xbcf153b8	-0.029458866
63	0xbe4f2ff1	-0.20233132
64	0xbda31e82	-0.07964803
65	0x3edccb13	0.43123683
66	0xc0263702	-2.5971074
67	0xbd539521	-0.051655892
68	0x3fe88e78	1.8168478
69	0x3e8c15fc	0.27360523
70	0x3edfb5db	0.43693432
71	0x3f8b3b2b	1.0877432
72	0xbfb6005c	-1.421886
73	0xbe659ac9	-0.22422327
74	0x3e7ab0c8	0.24481499
75	0x3fb25703	1.3932804
76	0xbedf15a2	-0.43571192
77	0x3f58ab6a	0.8463656
78	0x3f94c0e0	1.1621361
79	0xbf8ebaa6	-1.115071
80	0xbfa60010	-1.2968769
81	0x3e7117e3	0.23544268
82	0xbfa4b3d6	-1.2867382
83	0x3e16c078	0.14721859
84	0xbf9ecb9f	-1.240589
85	0x3f07698e	0.5289544
86	0xbf7a284e	-0.9771775
87	0xbe0bd34a	-0.13654819
88	0xbc3d597f	-0.011556982
89	0xbf70f1b6	-0.9411882
90	0xbfbbd9a6	-1.4675796
91	0x3eeda571	0.46415284
92	0xbefa0629	-0.48832825
93	0xbf3ac5d6	-0.72958124
94	0x3fd18465	1.6368529
95	0x3ef9fa8e	0.4882397
96	0x3f7e432f	0.99321264
97	0x3f304dad	0.68868524
98	0x3d05aa0b	0.03263287
99	0xbf89278a	-1.0715191
100	0x3f08a408	0.5337529
101	0xbf3e843d	-0.7442053
102	0x3fe6625c	1.7998767
103	0x3fab79ed	1.3396584
104	0x3f88f7ee	1.0700662
105	0x3ede2a7e	0.43391794
106	0xbf83d1d2	-1.0298407
107	0x40090fa1	2.141579
108	0xbfb3c18f	-1.4043444
109	0x3f410081	0.75391394
110	0x3f69a69f	0.9126987
111	0xbf300b7f	-0.6876754
112	0x400e2e79	2.2215865
113	0xbe608ece	-0.21929476
114	0xbf56fb78	-0.8397746
115	0x3fc3ba52	1.5291235
116	0x3fa28f2f	1.2699946
117	0xbead1194	-0.33802474
118	0x3f2ffd39	0.6874576
119	0x3f1544f2	0.5830833
120	0xbe753c8a	-0.23948875
121	0xbedad480	-0.4274025
122	0x3f2422db	0.64115685
123	0xbfed1cd7	-1.8524426
124	0xbe955dcb	-0.2917312
125	0x3e82bb28	0.25533414
126	0xbfb57237	-1.4175481
127	0x3d72a803	0.05924226
128	0x3d3831ca	0.044969358
129	0xbf292a6f	-0.66080374
130	0xbf418fa8	-0.7560983
131	0xbf7aa7e2	-0.9791242
132	0x3f959d7f	1.1688689
133	0xbf72fc10	-0.94915867
134	0xbe2a9207	-0.16657268
135	0x3e7fa76b	0.24966209
136	0x3ddad0ca	0.106843546
137	0x3f2023d6	0.6255468
138	0x3feb4288	1.8379679
139	0x4049dd1c	3.1541204
140	0xbf662392	-0.89898026
141	0x3f7146f9	0.9424892
142	0x3fa55aa8	1.2918291
143	0x3e76d6aa	0.24105325
144	0xbfca6ae5	-1.5813872
145	0xbdb8be3a	-0.09020658
146	0x3e8e5a63	0.27803335
147	0x3f6b7ae7	0.9198441
148	0x3e78398e	0.24240705
149	0x402078f5	2.5073826
150	0x3f74e280	0.9565811
151	0x3c2d1e13	0.010566252
152	0xbfb4c7d5	-1.4123484
153	0xbff43bdd	-1.9080769
154	0x3efa0143	0.48829088
155	0x3f925ccc	1.1434569
156	0xbf451207	-0.7698063
157	0xbd0c1975	-0.034203965
158	0x3f361d62	0.71138585
159	0x3f15e1c9	0.58547646
160	0x3f44df3d	0.76903135
161	0x3eeeb206	0.46620196
162	0xbf3daf54	-0.74095654
163	0xbf248fa2	-0.64281666
164	0xbefa96ed	-0.48943272
165	0x3f3847c8	0.7198453
166	0xbef466f4	-0.47734797
167	0x3f1e4f75	0.6183999
168	0xc003de1d	-2.0604317
169	0xbf01ef87	-0.50756115
170	0x3fcaf1bd	1.5855023
171	0xbdf029de	-0.117267355
172	0xbf4c87b9	-0.79894596
173	0x3f9241c0	1.1426315
174	0x3fa577ba	1.2927163
175	0x3f1cd781	0.6126633
176	0xbe455148	-0.19269288
177	0xbeff27f1	-0.4983516
178	0x3eb0b8b9	0.34515932
179	0xbf21ea17	-0.6324782
180	0x3fe212da	1.7662003
181	0x3ed79559	0.4210613
182	0x3f680ef5	0.9064782
183	0x3f008e01	0.5021668
184	0x3f3166f5	0.69297725
185	0xbf4f2e44	-0.8092997
186	0x3f904469	1.1270877
187	0x3ee7c0ca	0.45264274
188	0x3fc7cd9f	1.5609626
189	0xbf025f1b	-0.5092637
190	0x3e550e33	0.20806198
191	0x3fa8bdb7	1.3182896
192	0xbf2037f8	-0.625854
193	0xbf1e73a4	-0.61895204
194	0x3fd4bf3a	1.6620858
195	0x3dda9a6c	0.10673985
196	0x3e176823	0.14785819
197	0x3f3b1c93	0.73090476
198	0xbf953046	-1.1655357
199	0x4024b670	2.573635
200	0x3ece0e93	0.40245494
201	0xbf024610	-0.50888157
202	0xbf3cc049	-0.73730904
203	0xc00b57c6	-2.1772323
204	0x3f3ba171	0.73293215
205	0xbeb23dbb	-0.34812722
206	0xbfd1a924	-1.6379743
207	0x3e845fe5	0.25854412
208	0x3f3a2879	0.72718006
209	0xbfc63242	-1.5484087
210	0xbf8c302c	-1.0952201
211	0xbf0b1871	-0.5433417
212	0x3fc1ef51	1.5151159
213	0x3faace4b	1.3344206
214	0x40034416	2.0510306
215	0x3f4be027	0.79638904
216	0xbea78759	-0.3272045
217	0xbf237d41	-0.63863
218	0xbf4dbed6	-0.8036932
219	0xbff41403	-1.9068607
220	0x3f892f7e	1.0717618
221	0xbf56ec2c	-0.8395412
222	0xbf484552	-0.78230774
223	0x3f88ac12	1.0677512
224	0x3f2dad72	0.6784278
225	0x3fbb20d0	1.4619389
226	0x3d29656a	0.04135648
227	0xbe75fac5	-0.24021442
228	0xc01c5184	-2.4424753
229	0xbeb92749	-0.36162785
230	0x3f04bee7	0.51853794
231	0xbfdae09f	-1.7099799
232	0x3e8579ca	0.2606948
233	0x3f1ad307	0.6047825
234	0x3f8dad25	1.1068465
235	0x3e6a2500	0.22865677
236	0xbf844a88	-1.0335245
237	0x3f1d485d	0.6143854
238	0x3fa164c3	1.2608875
239	0xbf86ffce	-1.0546815
240	0x3990661e	0.00027541904
241	0x3f0f03d5	0.5586522
242	0xbf1e7a3b	-0.6190526
243	0xbf359f3b	-0.7094609
244	0x3f7c9118	0.98658895
245	0xbf36a2cd	-0.71342164
246	0xbf7d578c	-0.9896171
247	0xbef4f963	-0.47846517
248	0x3e7aacbe	0.24479958
249	0x3f31841a	0.69342196
250	0xbf97793f	-1.1833876
251	0x401bf5bb	2.4368732
252	0x3f071bab	0.5277659
253	0xbee028a4	-0.43781006
254	0x3f9e2613	1.2355369
255	0x3fd11752	1.6335242

lin1.weight f4 [16, 16]
0	0x3e249f14	0.16076308
1	0x3e02052c	0.12697285
2	0x3e0a62c4	0.13514239
3	0x3ca2f170	0.019890517
4	0x3d79c498	0.060978502
5	0x3e06c0d8	0.13159502
6	0xbe08569c	-0.13314289
7	0x3e5141e2	0.20435289
8	0x3e214292	0.15748051
9	0x3d054f48	0.03254631
10	0xbe6763da	-0.22596684
11	0x3db9f3c0	0.09079695
12	0x3dbc3bdc	0.09191105
13	0x3e10fa14	0.14157897
14	0xbd96c9f8	-0.07362741
15	0x3c984980	0.018589735
16	0xbe6a7e72	-0.22899798
17	0xbe1fde04	-0.15612036
18	0x3e173dc6	0.14769658
19	0x3e20c9c2	0.15701964
20	0x3e505432	0.20344618
21	0xbe622f10	-0.22088265
22	0xbdd2db84	-0.102957755
23	0xbd4f7110	-0.050644934
24	0xbdbf5784	-0.09342864
25	0x3e6aae90	0.22918153
26	0xbd4d04b8	-0.05005333
27	0xbdf5c4c0	-0.12000418
28	0x3e260d60	0.1621604
29	0xbe6c54c4	-0.2307921
30	0x3dbe10fc	0.09280583
31	0xbdcfb320	-0.10141587
32	0x3e14d304	0.14533621
33	0x3d4a2238	0.04934904
34	0xbd9b5240	-0.07584047
35	0x3e0c66e0	0.13711119
36	0xbe2b761c	-0.16744274
37	0x3e4e3d58	0.20140588
38	0xbd9297f8	-0.07157892
39	0x3e49a77e	0.196928
40	0xbc2ddb60	-0.010611385
41	0x3db01b60	0.08598971
42	0xbe651766	-0.22372207
43	0xbdb6a174	-0.089175135
44	0xbe1957e8	-0.1497494
45	0xbe762020	-0.24035692
46	0x3deb2d2c	0.11483225
47	0xbdc3ace0	-0.09554458
48	0x3e09ac2c	0.13444585
49	0x3d61d430	0.055134
50	0x3e596a36	0.21231923
51	0xbe4eef28	-0.20208418
52	0xbd8eeda4	-0.0697892
53	0x3e1a35d0	0.1505959
54	0xbd8d79c4	-0.069079906
55	0x3d2bb700	0.04192257
56	0xbe525e68	-0.20543826
57	0xbd4a3a28	-0.04937187
58	0x3e176a4e	0.14786646
59	0x3e630536	0.22169957
60	0xbcd88690	-0.026431352
61	0xbd3f3650	-0.046682656
62	0x3dd6bd90	0.10485375
63	0xbe4d84b6	-0.20070156
64	0x3ce8f880	0.028438807
65	0xbdadbc28	-0.084831536
66	0x3e5a1da2	0.21300367
67	0xbe3dd05e	-0.18536517
68	0xbe0e9ce2	-0.13927034
69	0xbd9759c8	-0.07390171
70	0x3d8ac7d0	0.067763925
71	0xbe6c2b26	-0.23063335
72	0xbdd1f2cc	-0.10251388
73	0xbe384f0c	-0.17998904
74	0xbdb96fc8	-0.09054524
75	0x3d81fcdc	0.06347057
76	0x3d264c80	0.0406003
77	0x3e442d6a	0.19157949
78	0xbdbe518c	-0.092928976
79	0x3d30b5d0	0.04314214
80	0x3b922540	0.004460007
81	0x3ca55220	0.020180762
82	0x3dd9c92c	0.106340736
83	0x3e1ce400	0.1532135
84	0xbdf69bc4	-0.12041429
85	0xbe5f862e	-0.21828529
86	0x3e7fe276	0.24988732
87	0x3e1a9dc8	0.15099251
88	0xbe0544aa	-0.13014475
89	0xbe0f3cd6	-0.13988051
90	0x3a3fa400	0.00073105097
91	0xbd982de0	-0.07430625
92	0x3d8c086c	0.06837544
93	0xbdfcb118	-0.123384655
94	0x3b085580	0.0020802915
95	0xbe19fc9a	-0.15037766
96	0x3ba95980	0.00516814
97	0xbe668558	-0.22511804
98	0xbe6541dc	-0.22388405
99	0x3d9ceb3c	0.07662055
100	0x3e4fe5c6	0.20302495
101	0x3d5fe6c8	0.05466345
102	0xbe5b315a	-0.21405545
103	0xbd6d72a0	-0.057970643
104	0xbe28c3e0	-0.1648097
105	0x3e31920a	0.17340866
106	0xbe196db2	-0.14983252
107	0x3e0306b8	0.12795532
108	0xbe3e2c88	-0.18571675
109	0xbd1a7930	-0.03771323
110	0x3e17a6fa	0.1480979
111	0x3dee1ff0	0.11627185
112	0xbe277bd8	-0.16355836
113	0x3dfb321c	0.12265417
114	0x3d85c90c	0.06532487
115	0xbd509840	-0.050926447
116	0x3e6691c8	0.22516549
117	0x3daa36b4	0.08311215
118	0x3d621e08	0.05520442
119	0x3e3ae7f0	0.1825254
120	0x3e6317f6	0.22177109
121	0x3e5c0aba	0.21488467
122	0x3e446e2e	0.19182655
123	0xbdaa2664	-0.08308104
124	0x3df5226c	0.11969456
125	0x3da6b40c	0.0813981
126	0xbe041d8e	-0.12901899
127	0xbdf218d8	-0.11821145
128	0x3dc703b8	0.09717506
129	0xbe52f18a	-0.20599952
130	0x3d41ad88	0.047284633
131	0x3e27842e	0.16359016
132	0xbd4cada0	-0.04997027
133	0xbe6222ce	-0.2208359
134	0x3dbfdf34	0.093687445
135	0x3bdb9f80	0.0067023635
136	0xbdc63764	-0.09678534
137	0xbd4059e0	-0.04696071
138	0xbe222a6c	-0.15836495
139	0x3e60a318	0.21937215
140	0x3e0e0c10	0.13871789
141	0x3e523a28	0.20529997
142	0x3e4089d2	0.18802574
143	0x3d68fe88	0.056883365
144	0xbdd084e8	-0.101816
145	0x3d4332a8	0.04765573
146	0x3e1ec51a	0.15504876
147	0xbd549bc8	-0.051906377
148	0x3e178b36	0.14799199
149	0x3d91d0e0	0.07119918
150	0xbd1489b8	-0.03626415
151	0x3e22d3b6	0.15901074
152	0xbe046128	-0.12927687
153	0x3ddbd46c	0.10733876
154	0x3e18f496	0.14937052
155	0x3e1ff7ae	0.15621826
156	0x3e4fe8f4	0.20303708
157	0xbe21ecaa	-0.15812936
158	0x3e0b64e6	0.13612708
159	0xbe75099c	-0.23929447
160	0xbdd8266c	-0.105542034
161	0x3d9758c8	0.073899806
162	0x3ccdf1d0	0.02513972
163	0x3d677530	0.056508243
164	0x3dc5a560	0.096506834
165	0xbe5083ae	-0.20362732
166	0xbdf1c2ec	-0.118047565
167	0xbe4baef8	-0.19890964
168	0xbd097a38	-0.033563823
169	0xbe6a8dd4	-0.22905666
170	0x3d3bf658	0.04588923
171	0xbd16cfb0	-0.03681916
172	0x3da5cbb4	0.08095494
173	0xbc38aea0	-0.011272103
174	0xbe0d811e	-0.13818786
175	0x3e453b84	0.19260985
176	0x3d79b0f8	0.060959786
177	0x3db52c90	0.0884639
178	0xbe48c1f4	-0.19605237
179	0xbd073480	-0.033009052
180	0xbcf8c600	-0.030367851
181	0xbe6816d8	-0.22664964
182	0x3e5ccf98	0.21563566
183	0xbe27ebc2	-0.16398528
184	0x3e529c32	0.20567396
185	0x3e46ee04	0.19426733
186	0x3e56cb98	0.20976102
187	0x3e4f18e8	0.20224345
188	0x3e4c36f2	0.19942835
189	0xbd0ded48	-0.034650117
190	0xbe09c54a	-0.13454166
191	0xbe23bc8e	-0.15989897
192	0x3e78650a	0.24257293
193	0xbcd376b0	-0.02581343
194	0xbe36ec18	-0.178635
195	0xbdbc033c	-0.091803044
196	0xbe3b7a80	-0.18308449
197	0xbd410860	-0.047127128
198	0xbe139900	-0.14413834
199	0x3d9456ec	0.072431415
200	0xbcba9390	-0.022775441
201	0xbe14f448	-0.14546311
202	0x3e4c4a8e	0.19950315
203	0xbdf77c2c	-0.12084231
204	0xbe40f030	-0.18841624
205	0x3e2c31f8	0.16815937
206	0x3e4c82dc	0.19971794
207	0xbe513c5c	-0.20433182
208	0xbe355218	-0.17707098
209	0x3e6fc21a	0.23413888
210	0x3dd1dc90	0.10247147
211	0xbe42811c	-0.18994564
212	0xbbac71c0	-0.0052625835
213	0xbe75a522	-0.23988774
214	0x3d1ac890	0.037788928
215	0x3e1f2bc8	0.15544045
216	0x3e332b8c	0.1749708
217	0x3e4ff39c	0.20307773
218	0xbdcb143c	-0.09915969
219	0xbd9a468c	-0.07532987
220	0x3e21d9a4	0.1580568
221	0x3d94299c	0.07234499
222	0x3d064610	0.03278166
223	0x3e706330	0.23475337
224	0xbe3c2c28	-0.1837622
225	0xbbabf440	-0.0052476227
226	0x3e324dde	0.17412516
227	0x3e53f7f0	0.2070005
228	0xbd3aa320	-0.045565724
229	0x3e64deca	0.22350612
230	0x3d477be8	0.04870215
231	0x3e6275c6	0.2211524
232	0x3dd47b40	0.103750706
233	0x3e2a2a62	0.1661773
234	0x3d6f4678	0.058416814
235	0x3cdee2a0	0.027207673
236	0xbe6c6342	-0.23084739
237	0x3d431d98	0.047635645
238	0x3d021d28	0.031766087
239	0x3e7a75ae	0.24458954
240	0x3e73521e	0.23761794
241	0xbe6f24b2	-0.23353842
242	0xbd705a80	-0.058680058
243	0x3e5d825a	0.21631756
244	0x3c64f8a0	0.013975292
245	0x3e3c1c58	0.18370187
246	0xbe0114b0	-0.12605548
247	0xbd045bd8	-0.03231415
248	0x3e2c64ea	0.1683537
249	0x3e68e546	0.22743711
250	0x3df6aa00	0.12044144
251	0x3e38a5ac	0.18031949
252	0xbcf87820	-0.030330718
253	0x3e4c2722	0.19936803
254	0xbe7e122a	-0.24811617
255	0x3e7af3fa	0.24507132

lin1.bias f4 [16]
0	0xbe4046f2	-0.18777063
1	0x3e6b7876	0.22995171
2	0x3df86abc	0.12129733
3	0x3e219b62	0.1578193
4	0xbe702f28	-0.23455489
5	0x3e2b0958	0.16702783
6	0x3df3c4a4	0.119027406
7	0xbd788938	-0.060677737
8	0x3e3f654a	0.18690982
9	0x3dfc9cb8	0.12334579
10	0x3db48b08	0.088155806
11	0x3e067f56	0.13134512
12	0xbd998e78	-0.07497877
13	0xbd1624b8	-0.03665611
14	0x3de7eff4	0.11325064
15	0xbe333b88	-0.17503178

lin2.weight f4 [16, 16]
0	0xbdbdb4e4	-0.09263018
1	0x3db7481c	0.08949301
2	0xbe491466	-0.19636688
3	0x3ac6fa00	0.0015180707
4	0xbe58b2c6	-0.21161947
5	0xbd2880e8	-0.04113856
6	0xbdbf9d3c	-0.09356162
7	0x3e4460d4	0.19177562
8	0x3d6841c8	0.05670336
9	0xbdd526fc	-0.10407826
10	0x3e2c1a38	0.16806877
11	0x3d666890	0.056252062
12	0x3dc72af0	0.097249866
13	0x3d8f0ffc	0.06985471
14	0xbbffcac0	-0.007806152
15	0x3e258dea	0.16167417
16	0xbda5bd54	-0.08092752
17	0x3e53598c	0.20639628
18	0x3e1b7946	0.15182981
19	0xbe20f038	-0.15716636
20	0x3e20a1ee	0.15686771
21	0xbe2177ea	-0.157684
22	0x3e5d8bac	0.21635312
23	0xbde080bc	-0.10962054
24	0x3e0961f0	0.13416266
25	0xbdac6a7c	-0.08418748
26	0xba344200	-0.000687629
27	0xbe7a0abc	-0.24418157
28	0xbe044bc6	-0.1291953
29	0xbe41eb5e	-0.18937442
30	0x3e6ca8b8	0.23111236
31	0x3e2f85b2	0.17140844
32	0xbdd08764	-0.10182074
33	0x3d19b678	0.03752753
34	0xbe3fd8f6	-0.18735108
35	0xbe03d0c2	-0.12872604
36	0x3e76d248	0.24103653
37	0xbd9c97ac	-0.076461166
38	0x3e4761a8	0.19470847
39	0xbc141820	-0.009038955
40	0x3dbe3f5c	0.092894286
41	0x3d0a3f60	0.033751845
42	0x3d18c5a8	0.037297875
43	0x3dff644c	0.12470302
44	0x3e704460	0.23463583
45	0xbe6a2e34	-0.22869188
46	0x3c6fbec0	0.014632881
47	0x3d7b24d8	0.061314434
48	0xbe03a3f6	-0.12855515
49	0xbdba66e8	-0.09101659
50	0x3c73d840	0.014883101
51	0xbe7981b0	-0.24365878
52	0x3e5de182	0.21668056
53	0xbc6f9800	-0.014623642
54	0x3b6d2380	0.003618449
55	0xbdbc8e98	-0.09206885
56	0xbd7ded10	-0.06199366
57	0xbdb8ff50	-0.09033072
58	0x3df214cc	0.11820373
59	0xbdb55158	-0.08853406
60	0x3e4c6268	0.19959414
61	0x3d558338	0.052127093
62	0xbdf32100	-0.118715286
63	0xbcea67c0	-0.028613925
64	0x3d9b4ac4	0.0758262
65	0x3e39ac2e	0.18132088
66	0x3e36278c	0.17788523
67	0x3e0e643c	0.13905424
68	0x3cc12b70	0.023580283
69	0xbafc7f00	-0.0019263923
70	0x3daad158	0.083407104
71	0x3db1b224	0.08676556
72	0xbd608e60	-0.05482328
73	0x3e02215e	0.12708041
74	0x3e21119a	0.1572937
75	0xbe433204	-0.19062048
76	0x3c2b5400	0.010457039
77	0xbe5ca39a	-0.21546784
78	0xbcfa95b0	-0.030588955
79	0xbe31c458	-0.17360055
80	0xbe620196	-0.22070917
81	0xbde701a4	-0.1127961
82	0xbd945564	-0.072428495
83	0x3d322aa0	0.04349768
84	0xbe711ae8	-0.2354542
85	0xbe3c579e	-0.18392798
86	0x3e35fe36	0.17772755
87	0xbe34ea9e	-0.17667624
88	0xbe702f4e	-0.23455545
89	0xbd180b48	-0.037120134
90	0xbd6de460	-0.058079123
91	0xbd9b6f10	-0.07589543
92	0x3e02116c	0.12701958
93	0xbe1b1d4c	-0.15147895
94	0x3d1cd1a0	0.03828585
95	0x3cd9f620	0.02660662
96	0x3ddec8f8	0.108781755
97	0xbd8d3134	-0.068941504
98	0x3e0fef14	0.14056045
99	0xbe0f3f1c	-0.13988918
100	0x3d0006c0	0.031256437
101	0xbe0b92ee	-0.13630268
102	0xbdaf25fc	-0.08552167
103	0x3e1269f8	0.14298236
104	0xbd967a00	-0.073474884
105	0x3e712450	0.23549008
106	0x3e24df9a	0.16100922
107	0x3e738d54	0.23784381
108	0x3c75f660	0.015012354
109	0xbe7114b8	-0.2354306
110	0xbdd8cfbc	-0.10586497
111	0x3db0774c	0.08616504
112	0xbc987d00	-0.018614292
113	0x3ceae3a0	0.028672993
114	0xbe58dba8	-0.21177542
115	0x3dae865c	0.08521721
116	0x3d9d57e8	0.076827824
117	0xbe711930	-0.23544765
118	0x3e3586de	0.17727229
119	0xbe020d50	-0.12700391
120	0xbdd62b60	-0.10457492
121	0xbe03f27c	-0.12885469
122	0xbe1d22dc	-0.15345329
123	0xbe4dd4a4	-0.20100647
124	0xbdfbe4f0	-0.12299526
125	0x3e4a2cd2	0.1974366
126	0x3e6e4130	0.23267055
127	0x3dd6e900	0.1049366
128	0x3d604220	0.05475056
129	0xbd0d9b20	-0.034571767
130	0xbbf9d240	-0.0076239407
131	0xbe790612	-0.24318722
132	0xbe3908e4	-0.18069798
133	0xbdd085ec	-0.101817936
134	0x3e34db44	0.17661768
135	0xbe6657ec	-0.22494477
136	0xbe4f5b0e	-0.20249578
137	0x3e6d9928	0.23202956
138	0x3c1b4480	0.009476781
139	0x3e047664	0.12935787
140	0xbd239150	-0.039933503
141	0xbd916e70	-0.071011424
142	0xbab0f300	-0.0013500154
143	0x3e4da650	0.20082974
144	0x3e14ffac	0.14550656
145	0xbd82e328	-0.06390983
146	0xbbf2cb40	-0.007409483
147	0x3e031ee2	0.1280475
148	0xbe556636	-0.20839772
149	0xbe1e826e	-0.15479442
150	0xbdaeb990	-0.08531487
151	0x3daac7cc	0.083388895
152	0xbd39a568	-0.04532376
153	0x3e2c5214	0.16828185
154	0x3e19524a	0.14972797
155	0x3e525fca	0.20544353
156	0x3d1ce280	0.038301945
157	0xbd81e688	-0.063427985
158	0x3e4f6e5c	0.20256943
159	0x3e72b96c	0.23703545
160	0xbded62b4	-0.11591092
161	0xbe31de60	-0.17369986
162	0x3e216130	0.1575973
163	0xbe0a771e	-0.13522002
164	0x3e033f9c	0.12817234
165	0x3dd5cedc	0.10439846
166	0xbc13f2a0	-0.009030014
167	0xbbd75880	-0.0065718293
168	0xbe0e158e	-0.1387541
169	0x3dac7a50	0.08421767
170	0x3c9f88a0	0.019474328
171	0xbe1b0038	-0.15136802
172	0xbe52b328	-0.20576155
173	0x3cea9f40	0.02864039
174	0xbdde7038	-0.10861248
175	0xbe356550	-0.17714429
176	0xbe44af3a	-0.19207469
177	0xbe39c9b8	-0.18143356
178	0x3d4b6c80	0.04966402
179	0xbe2aa838	-0.16665733
180	0xbe603cd2	-0.21898201
181	0xbe66a198	-0.2252258
182	0x3d43e170	0.047822416
183	0x3e4f311a	0.20233575
184	0xbdf710f4	-0.120637804
185	0xbd732e80	-0.059370518
186	0xbe5ac59c	-0.21364444
187	0x3e7480b0	0.23877215
188	0xbe4d4b5a	-0.20048276
189	0x3d316870	0.04331249
190	0x3e635f16	0.22204241
191	0xbc955380	-0.018228292
192	0xbd8f76d4	-0.070050865
193	0x3e3830c0	0.17987347
194	0xbd705ce0	-0.058682323
195	0xbe220b56	-0.15824637
196	0x3cfe4680	0.031039476
197	0xbc8da180	-0.017288923
198	0xbe3e693a	-0.18594828
199	0xbe277f96	-0.16357264
200	0xbe564c68	-0.20927584
201	0x3e7e3dda	0.24828282
202	0xbdf7278c	-0.1206809
203	0xbe10294a	-0.1407825
204	0xbe439708	-0.19100583
205	0xbe00ad3a	-0.1256608
206	0xbddd1db8	-0.10796684
207	0xbd0bf340	-0.03416753
208	0xbe500900	-0.20315933
209	0x3e59a8f4	0.21255857
210	0x3e7c6208	0.24646771
211	0x3ce04a80	0.027379274
212	0xbd2bd5c8	-0.041951925
213	0xbd3e3828	-0.046440274
214	0xbe1084ee	-0.14113209
215	0x3e320a56	0.17386755
216	0x3da0d884	0.07853797
217	0xbe1c9b10	-0.15293527
218	0xbde958d0	-0.11393893
219	0xbda4bd0c	-0.0804387
220	0x3e4766d0	0.19472814
221	0x3e256cb0	0.16154742
222	0x3cb2a420	0.021806777
223	0x3de3034c	0.11084613
224	0xbe4f9bae	-0.20274231
225	0x3db53170	0.0884732
226	0x3e07941a	0.1324009
227	0x3e6d8af8	0.23197544
228	0xbe40a738	-0.18813789
229	0x3c825e10	0.015913993
230	0xbe7e1b5a	-0.24815121
231	0x3e40361c	0.18770641
232	0xbe19baac	-0.15012616
233	0xbcd14d70	-0.02554962
234	0xbe473090	-0.19452119
235	0x3e10e372	0.14149264
236	0x3e188f4e	0.14898416
237	0xbdcd1e74	-0.10015574
238	0xbd85d158	-0.0653407
239	0xbc7a89e0	-0.015291661
240	0xbdc64ce8	-0.096826375
241	0x3da0490c	0.078264326
242	0x3d67cd60	0.056592345
243	0x3d78af40	0.060714006
244	0xbd632470	-0.05545467
245	0x3cef5cd0	0.029219061
246	0xbb3ccc00	-0.0028808117
247	0xbd4b0cb0	-0.049572647
248	0xbd9f3d38	-0.077753484
249	0xbdcac594	-0.09900966
250	0x3d928834	0.07154885
251	0x3d9185b4	0.0710558
252	0xbe2fb28c	-0.17157954
253	0xbdfd6880	-0.123734474
254	0x3df18688	0.11793238
255	0xbe148af6	-0.14506134

lin2.bias f4 [16]
0	0xbd8117f8	-0.063034
1	0xbe1aa306	-0.15101251
2	0x3e6eae4c	0.23308676
3	0x3e17ca54	0.14823276
4	0xbc2f62e0	-0.010704726
5	0x3e202320	0.15638399
6	0x3da5380c	0.08067331
7	0xbe77adde	-0.24187419
8	0xbe5f0464	-0.21779019
9	0x3e0d36b0	0.13790393
10	0x3deb91e4	0.11502436
11	0x3e786642	0.24257758
12	0x3e726ad8	0.2367357
13	0x3dcd24b8	0.10016769
14	0x3e3e31b0	0.18573642
15	0x3e4b1ad2	0.1983445

graph_detector.graph_conv1.att_l f4 [1, 1, 64]
0	0x3d943d76	0.07238285
1	0x3e0dc1f3	0.13843517
2	0x3ea223ae	0.31667846
3	0x3e87fcf7	0.26560184
4	0x3e0118ac	0.12607068
5	0xbdae3890	-0.08506882
6	0x3e5595aa	0.20857874
7	0xbe8d51cc	-0.2760147
8	0xbe9b28b6	-0.30304497
9	0xbd703ce3	-0.058651816
10	0xbe3e1c88	-0.18565571
11	0x3e0f4df3	0.13994579
12	0xbe38f6cc	-0.18062896
13	0x3e5a1ec2	0.21300796
14	0xbcb9668d	-0.022631908
15	0xbe607a6e	-0.21921703
16	0xbdbe2b2c	-0.09285578
17	0xbc44057a	-0.011964196
18	0xbdc942bd	-0.098271824
19	0xbe8dc273	-0.27687415
20	0x3dc29705	0.09501461
21	0xbc8c227e	-0.01710629
22	0x3e1e8584	0.1548062
23	0x3dd6fa78	0.10496992
24	0x3dd63215	0.10458771
25	0xbd57d541	-0.05269361
26	0x3e77000c	0.24121112
27	0x3eaa6f14	0.3328787
28	0xbe9af9d0	-0.30268717
29	0x3e27a0ab	0.16369884
30	0xbe1b2e2d	-0.15154333
31	0x3e090f0b	0.13384645
32	0xbe487446	-0.19575605
33	0x3e21aa34	0.15787584
34	0xbdb2291a	-0.08699246
35	0x3e201719	0.15633811
36	0x3e756a36	0.23966298
37	0xbc42264f	-0.011849954
38	0x3e8c2442	0.27371413
39	0xbe907341	-0.28212932
40	0xbe6debf9	-0.23234548
41	0xbe6dbe8d	-0.2321722
42	0xbe8757b5	-0.26434103
43	0xbd55fa0e	-0.052240424
44	0x3e4ffd52	0.20311478
45	0xbc590b2a	-0.013247291
46	0x3d9a004c	0.07519588
47	0x3c2a5023	0.010395083
48	0xbe92251d	-0.2854394
49	0x3e0747ad	0.13210936
50	0x3e74b176	0.23895821
51	0x3e1ca1b2	0.15296057
52	0x3cfa3f00	0.030547619
53	0xbe8dd46f	-0.27701136
54	0xbdb7cd9a	-0.08974762
55	0xbcbc661b	-0.022997906
56	0xbe01a96d	-0.12662287
57	0x3d9be914	0.076128155
58	0xbde0bf5e	-0.109740004
59	0x3e9eab0b	0.3098987
60	0x3d8a617e	0.067568764
61	0xbe7e0a67	-0.24808656
62	0xbdee4651	-0.116345055
63	0x3e548177	0.20752512

graph_detector.graph_conv1.att_r f4 [1, 1, 64]
0	0xbb227002	-0.0024786
1	0x3e446484	0.19178969
2	0x3e75446e	0.23951885
3	0x3e9603eb	0.29299864
4	0x3dc19a9d	0.09453318
5	0xbe5acf13	-0.21368055
6	0xbdd4702b	-0.10372957
7	0x3ce6fb0d	0.028195882
8	0xbda2846b	-0.07935413
9	0x3e4e5262	0.20148614
10	0x3e2b360c	0.16719836
11	0x3e8ffcef	0.2812266
12	0xbd418858	-0.04724917
13	0xbe35519e	-0.17706916
14	0x3d964493	0.07337298
15	0x3bcad5f8	0.006190058
16	0xbd1e6e4e	-0.038679413
17	0x3e948b4f	0.29012534
18	0xbe5992c2	-0.2124739
19	0xbe4661dc	-0.19373268
20	0xbe362bb4	-0.17790109
21	0xbdd6a4e5	-0.1048067
22	0x3e43b6c9	0.19112696
23	0xbd5a0e96	-0.053236566
24	0x3ea4d57f	0.32194135
25	0x3e879730	0.26482534
26	0x3e2c1273	0.16803913
27	0x3e7bc8fd	0.2458839
28	0x3dcc8498	0.09986228
29	0xbe8592a0	-0.26088428
30	0x3ea47a7e	0.32124704
31	0x3d81ef6b	0.063444935
32	0xbe71ff60	-0.23632574
33	0x3e0fffe4	0.14062458
34	0x3e074cb3	0.13212852
35	0x3e10fb9c	0.14158481
36	0xbdb31967	-0.087450795
37	0xbe688c03	-0.2270966
38	0x3e7938bd	0.2433805
39	0x3e32a4a3	0.17445616
40	0x3e646db9	0.22307481
41	0x3e9a0c9f	0.30087754
42	0x3e903725	0.28167072
43	0xbdfc93e4	-0.123328954
44	0x3df291bb	0.11844202
45	0x3e99ac19	0.30014113
46	0x3d3004fa	0.042973496
47	0xbd9e85ac	-0.0774034
48	0x3e8546c9	0.26030567
49	0x3e7c8bf2	0.2466276
50	0x3e287caa	0.16453806
51	0xbe8f48a9	-0.27985123
52	0xbdbe5799	-0.09294052
53	0xbe4a9ebe	-0.19787118
54	0x3e11cf93	0.1423934
55	0xbe9a8031	-0.30175927
56	0xbea5dd26	-0.32395285
57	0x3e128316	0.14307818
58	0x3e952967	0.2913315
59	0xbd563af6	-0.052302323
60	0x3cd0e0d5	0.025497833
61	0xbd1981a4	-0.03747715
62	0x3d8cd30a	0.0687619
63	0x3e1d03b9	0.15333451

graph_detector.graph_conv1.bias f4 [64]
0	0xbc2cf82d	-0.010557217
1	0xbbf98c17	-0.007615577
2	0xbcc072ba	-0.023492206
3	0xbb34e9d6	-0.0027605197
4	0x3c828463	0.015932268
5	0x3bd7b0ab	0.0065823398
6	0xbb7ee651	-0.0038894603
7	0x3a61b3b7	0.00086098484
8	0x3aba857a	0.0014230453
9	0xbbf907d0	-0.0075998083
10	0x3b1e0092	0.0024109227
11	0x3c7bb493	0.0153628765
12	0x3b53e773	0.0032334
13	0x3c23bcb2	0.009993719
14	0x39ae1879	0.000332061
15	0xbd165fcf	-0.036712464
16	0x39de05e1	0.0004234752
17	0x3c641683	0.013921383
18	0x3bcc3286	0.006231609
19	0xbcba036d	-0.022706712
20	0xbca62e60	-0.020285785
21	0xbccce11f	-0.02500969
22	0xba92e460	-0.0011206977
23	0x3c750591	0.01495494
24	0x3ba79eef	0.005115382
25	0x3ca0bda4	0.019621678
26	0xbae9f1e9	-0.0017848584
27	0x3c43d893	0.011953491
28	0xb9277501	-0.00015969948
29	0xbc8c4e09	-0.017127054
30	0x3c2915a2	0.010320099
31	0x3b5c9b65	0.0033661958
32	0xbca97f17	-0.020690484
33	0xb885095c	-6.3436775e-05
34	0xbcbfd55e	-0.023417171
35	0xbc27fb44	-0.0102527775
36	0xbcd74680	-0.026278734
37	0xbba0e754	-0.004910389
38	0xbc65cd89	-0.014026054
39	0xbc7e4340	-0.015518963
40	0xbc3fbc13	-0.011702555
41	0xbbaa53be	-0.005197971
42	0x3b775f2c	0.0037745936
43	0xbc3436ec	-0.0109994225
44	0x3cb70f38	0.022346124
45	0x3cb428b5	0.021992067
46	0x3b267428	0.0025398824
47	0x3be6a1f8	0.007038351
48	0x3c563ecc	0.013076495
49	0xbceca7a1	-0.028888525
50	0x3cbd7698	0.023127839
51	0x3ba1e0e8	0.004940141
52	0x3bf2efd1	0.0074138422
53	0x3cf2a7ba	0.029620994
54	0x3a8703a9	0.0010300773
55	0x3b4104b1	0.002945226
56	0xbd1ffc38	-0.039058894
57	0x3be46d45	0.0069710338
58	0xbc8c9de0	-0.017165124
59	0xbb962afd	-0.0045827613
60	0x3bde6607	0.006787065
61	0xbc9e5cba	-0.019331325
62	0x3b97eb17	0.004636179
63	0xba8d0f43	-0.0010761995

graph_detector.graph_conv1.lin_l.weight f4 [64, 95]
0	0x3e16413a	0.1467332
1	0x3c799f2f	0.015235706
2	0x3e04576c	0.12923974
3	0xbe217b67	-0.1576973
4	0x3e232c55	0.1593488
5	0xbe24907b	-0.1607074
6	0xbdabe359	-0.083929725
7	0x3e1bddb7	0.15221296
8	0xbd8ad6d7	-0.06779259
9	0x3defae75	0.11703197
10	0x3e296722	0.16543248
11	0xbe25c8bc	-0.16189855
12	0xbe06afcd	-0.13153
13	0xbe1a7ad4	-0.15085918
14	0x3dddd89b	0.1083233
15	0x3c8fe8ff	0.017567156
16	0xbddaafc9	-0.106780596
17	0x3c91d181	0.017800095
18	0xbe26ae37	-0.16277395
19	0x3e46ff86	0.19433412
20	0x3e02581b	0.12728922
21	0x3c5616a6	0.013066923
22	0xbe2a1439	-0.16609277
23	0x3d83c9b2	0.06434955
24	0xbd822e0b	-0.06356438
25	0x3cad35af	0.021143762
26	0xbdba6e05	-0.09103016
27	0x3e331a12	0.17490414
28	0xbd124f27	-0.035720017
29	0x3cf024da	0.029314447
30	0xbe3f0394	-0.18653709
31	0x3da80ca0	0.08205533
32	0x3d9a8955	0.07545725
33	0xbd5bb0b7	-0.053635325
34	0xbcecea74	-0.02892039
35	0x3e421a61	0.18955375
36	0xbe2f98c7	-0.17148124
37	0xbc9d72b8	-0.019219741
38	0xbe3a989a	-0.18222275
39	0x3dd32106	0.10309033
40	0x3e37adc2	0.17937377
41	0xbd32f339	-0.043688986
42	0x3cfb1412	0.030649219
43	0x3c9891ed	0.01862427
44	0x3d2b1415	0.0417672
45	0x3d89c480	0.067269325
46	0xbe2bb089	-0.16766562
47	0x3dc022f1	0.093816645
48	0xbd8b512d	-0.068025924
49	0x3e0077fb	0.12545769
50	0xbe2217b8	-0.1582936
51	0x3bce55b0	0.006296836
52	0x3de328f3	0.11091795
53	0x3c463cb5	0.012099435
54	0xbda9d391	-0.08292306
55	0xbdf6a6c2	-0.12043525
56	0x3c78ba9f	0.015181213
57	0xbc669c69	-0.014075377
58	0xbd33d28d	-0.04390197
59	0xbdfb8453	-0.12281098
60	0xbddf89cd	-0.10914955
61	0xbe068913	-0.13138227
62	0x3ddf81d9	0.10913438
63	0xbe3af256	-0.18256506
64	0xbd7b6f97	-0.061385717
65	0xbd31de7e	-0.043425076
66	0x3e4ccdc5	0.2000037
67	0xbcc3c357	-0.023896856
68	0x3db2b85e	0.087265715
69	0xbdd47cb7	-0.1037535
70	0xbc188976	-0.009310117
71	0xbd98af4f	-0.074553125
72	0x3ddf267b	0.108960114
73	0x3cf26e2b	0.029593548
74	0xbd9038f4	-0.07042113
75	0x3c6ec860	0.01457414
76	0x3d961b7d	0.07329462
77	0x3e376ad8	0.17911851
78	0xbc4d43d9	-0.012528383
79	0xbe04d7bc	-0.12972921
80	0x3de7df1e	0.11321853
81	0xbd575252	-0.05256874
82	0x3e3be592	0.18349293
83	0x3dbae876	0.0912637
84	0xbdd40c40	-0.10353899
85	0x3df2f84f	0.11863767
86	0xbb179cd1	-0.0023134241
87	0xbe22114f	-0.15826915
88	0xbd305a4d	-0.043054868
89	0xbceb9a7f	-0.028760193
90	0xbd6da031	-0.0580141
91	0x3cee1f14	0.029067554
92	0x3dc1cff2	0.094634905
93	0x3df5cb83	0.120017074
94	0xbde5fd14	-0.112299114
95	0xbce9166a	-0.02845307
96	0xbd97cc9a	-0.074120715
97	0xbd670eba	-0.05641053
98	0xbd85904b	-0.06521662
99	0xbda2da93	-0.07951846
100	0x3d5d5e27	0.05404487
101	0x3def08f9	0.11671633
102	0x3d348e91	0.044081274
103	0x3caf30d1	0.021385582
104	0x3d155466	0.03645744
105	0xbdd7103a	-0.10501142
106	0x3e213655	0.15743382
107	0xbe2ef744	-0.17086512
108	0x3d2c62c7	0.04208639
109	0xbdcba3e2	-0.099433675
110	0x3e074921	0.1321149
111	0xbd07fe6f	-0.03320163
112	0x3d93902c	0.07205233
113	0x3b9d287a	0.004796085
114	0x3e3f543c	0.18684477
115	0x3cc05621	0.02347857
116	0xbe2b77c0	-0.167449
117	0xbd04ed2f	-0.03245276
118	0x3dc50a1f	0.09621071
119	0xbdd81c0e	-0.10552226
120	0x3d2dc3c6	0.042423032
121	0xbc06fae7	-0.008238531
122	0xbdf25358	-0.11832303
123	0xbe5b17e6	-0.21395835
124	0xbe239473	-0.15974598
125	0x3e2b3ee7	0.16723214
126	0xbde1853d	-0.11011741
127	0xbd3ae94d	-0.04563265
128	0x3e02d6e1	0.12777282
129	0xbb550b8c	-0.0032508103
130	0xbd5701cd	-0.05249195
131	0xbe4bcbf7	-0.19902025
132	0x3e047c4b	0.12938039
133	0x3e1e7cf6	0.15477356
134	0x3e065315	0.13117631
135	0xbe520c13	-0.20512418
136	0x3e3c64c2	0.18397811
137	0x3e1dc770	0.1540811
138	0x3deab10a	0.11459549
139	0xbe3b1396	-0.1826919
140	0x3d143a28	0.036188275
141	0x3dbdee1a	0.0927393
142	0xbce6cbfa	-0.028173435
143	0xbda94d02	-0.08266641
144	0xbd2708b9	-0.040779803
145	0xbe357824	-0.17721611
146	0x3e229dfb	0.15880577
147	0x3d720775	0.059089143
148	0xbdca8d14	-0.0989019
149	0x3d847dd5	0.06469313
150	0x3dec7cc0	0.11547232
151	0x3dce94b8	0.100869596
152	0xbd0a4bcd	-0.033763696
153	0xbda294b8	-0.07938522
154	0xbd1437ba	-0.036185957
155	0x3e4f18e1	0.20224334
156	0xbd814206	-0.06311421
157	0x3d1a3870	0.03765148
158	0x3e012cb6	0.12614712
159	0xbdca0f91	-0.0986625
160	0x3e34706e	0.17621014
161	0x3e06a7b8	0.13149917
162	0x3e34a86e	0.17642376
163	0xbdac52c2	-0.08414222
164	0x3da7e7e1	0.08198524
165	0xbe3950c5	-0.18097217
166	0xbd13533a	-0.035968043
167	0xbc64cf68	-0.013965465
168	0xbda3310d	-0.0796834
169	0x3dbe3271	0.09286965
170	0x3e089aa9	0.13340248
171	0xbd613361	-0.05498064
172	0x3dd66670	0.10468757
173	0xbd22e110	-0.039765418
174	0xbdcf746d	-0.10129628
175	0xbc05454a	-0.008134196
176	0xbde4049a	-0.1113369
177	0x3e39acb6	0.1813229
178	0xbdeb0624	-0.114757806
179	0xbe1ddb5e	-0.15415713
180	0xbd6143b9	-0.054996226
181	0x3e22aee1	0.15887024
182	0xbd2b44e8	-0.04181376
183	0x3d7c672a	0.061621822
184	0xbd7aa2e1	-0.06119049
185	0x3e2ced4c	0.16887397
186	0xba3a72ce	-0.0007112444
187	0x3d926d4a	0.071497515
188	0xbdf471a9	-0.119357415
189	0x3e33c41f	0.17555283
190	0x3db076fb	0.08616444
191	0xbe1828f0	-0.14859366
192	0x3e38ed75	0.18059333
193	0x3e4391a7	0.1909853
194	0xbe155c19	-0.14585914
195	0x3c771d08	0.015082605
196	0x3d48a53a	0.048985697
197	0xbcbd26fd	-0.02308988
198	0x3e38f38d	0.18061657
199	0x3df3fbae	0.119132385
200	0xbe2ca1e8	-0.16858637
201	0x3e4b46e3	0.1985126
202	0x3e11d1e7	0.14240228
203	0xbe0d17b7	-0.13778578
204	0x3da9a014	0.082824856
205	0x3e0bdf44	0.13659388
206	0x3e22a90e	0.15884802
207	0xbba78758	-0.00511257
208	0xbda3f047	-0.08004814
209	0x3c8dd940	0.017315507
210	0xbdec02af	-0.11523949
211	0x3cbcca1a	0.023045588
212	0xbd817d90	-0.06322777
213	0xbe31ddae	-0.1736972
214	0x3e1a5d2f	0.15074609
215	0xbe0d8daf	-0.13823579
216	0xbdece27a	-0.115666345
217	0xbd6f22da	-0.058382846
218	0x3db1736c	0.08664593
219	0xbe01f2a6	-0.1269022
220	0x3d864b55	0.06557337
221	0x3d098eac	0.033583328
222	0xbddf3ac5	-0.10899881
223	0x3e2ecfd0	0.17071462
224	0x3e032ca6	0.12810001
225	0x3c9ff5eb	0.019526443
226	0xbe42fdf9	-0.19042195
227	0xbc9191c9	-0.017769711
228	0x3d20ff59	0.03930602
229	0xbe138e54	-0.14409763
230	0xbcc06541	-0.023485782
231	0xbd261dbc	-0.0405557
232	0x3d595d6b	0.053067606
233	0xbe1cc42a	-0.15309206
234	0xbe042e04	-0.12908179
235	0x3c928284	0.0178845
236	0x3e4cc16e	0.19995663
237	0x3dcd403f	0.100220196
238	0xbe3b1fba	-0.18273821
239	0x3cd5f42b	0.026117405
240	0x3d9d5d1f	0.07683777
241	0xbc0f076b	-0.008729796
242	0x3dcae997	0.09907835
243	0x3c32c6a0	0.010911614
244	0x3d8c50e3	0.068513654
245	0x3caa1d69	0.020765977
246	0xbd7aa55e	-0.061192863
247	0xbd1c9317	-0.038226213
248	0xbcdeecf1	-0.027212592
249	0xbe3e7255	-0.18598302
250	0xbbf3e6be	-0.007443278
251	0x3cc3bbaf	0.023893205
252	0xbd45b9cf	-0.048272904
253	0xbe2cd45c	-0.16877884
254	0x3e1c2224	0.15247399
255	0xbbd4831a	-0.006485355

graph_detector.graph_conv1.lin_r.weight f4 [64, 95]
0	0x3e16413a	0.1467332
1	0x3c799f2f	0.015235706
2	0x3e04576c	0.12923974
3	0xbe217b67	-0.1576973
4	0x3e232c55	0.1593488
5	0xbe24907b	-0.1607074
6	0xbdabe359	-0.083929725
7	0x3e1bddb7	0.15221296
8	0xbd8ad6d7	-0.06779259
9	0x3defae75	0.11703197
10	0x3e296722	0.16543248
11	0xbe25c8bc	-0.16189855
12	0xbe06afcd	-0.13153
13	0xbe1a7ad4	-0.15085918
14	0x3dddd89b	0.1083233
15	0x3c8fe8ff	0.017567156
16	0xbddaafc9	-0.106780596
17	0x3c91d181	0.017800095
18	0xbe26ae37	-0.16277395
19	0x3e46ff86	0.19433412
20	0x3e02581b	0.12728922
21	0x3c5616a6	0.013066923
22	0xbe2a1439	-0.16609277
23	0x3d83c9b2	0.06434955
24	0xbd822e0b	-0.06356438
25	0x3cad35af	0.021143762
26	0xbdba6e05	-0.09103016
27	0x3e331a12	0.17490414
28	0xbd124f27	-0.035720017
29	0x3cf024da	0.029314447
30	0xbe3f0394	-0.18653709
31	0x3da80ca0	0.08205533
32	0x3d9a8955	0.07545725
33	0xbd5bb0b7	-0.053635325
34	0xbcecea74	-0.02892039
35	0x3e421a61	0.18955375
36	0xbe2f98c7	-0.17148124
37	0xbc9d72b8	-0.019219741
38	0xbe3a989a	-0.18222275
39	0x3dd32106	0.10309033
40	0x3e37adc2	0.17937377
41	0xbd32f339	-0.043688986
42	0x3cfb1412	0.030649219
43	0x3c9891ed	0.01862427
44	0x3d2b1415	0.0417672
45	0x3d89c480	0.067269325
46	0xbe2bb089	-0.16766562
47	0x3dc022f1	0.093816645
48	0xbd8b512d	-0.068025924
49	0x3e0077fb	0.12545769
50	0xbe2217b8	-0.1582936
51	0x3bce55b0	0.006296836
52	0x3de328f3	0.11091795
53	0x3c463cb5	0.012099435
54	0xbda9d391	-0.08292306
55	0xbdf6a6c2	-0.12043525
56	0x3c78ba9f	0.015181213
57	0xbc669c69	-0.014075377
58	0xbd33d28d	-0.04390197
59	0xbdfb8453	-0.12281098
60	0xbddf89cd	-0.10914955
61	0xbe068913	-0.13138227
62	0x3ddf81d9	0.10913438
63	0xbe3af256	-0.18256506
64	0xbd7b6f97	-0.061385717
65	0xbd31de7e	-0.043425076
66	0x3e4ccdc5	0.2000037
67	0xbcc3c357	-0.023896856
68	0x3db2b85e	0.087265715
69	0xbdd47cb7	-0.1037535
70	0xbc188976	-0.009310117
71	0xbd98af4f	-0.074553125
72	0x3ddf267b	0.108960114
73	0x3cf26e2b	0.029593548
74	0xbd9038f4	-0.07042113
75	0x3c6ec860	0.01457414
76	0x3d961b7d	0.07329462
77	0x3e376ad8	0.17911851
78	0xbc4d43d9	-0.012528383
79	0xbe04d7bc	-0.12972921
80	0x3de7df1e	0.11321853
81	0xbd575252	-0.05256874
82	0x3e3be592	0.18349293
83	0x3dbae876	0.0912637
84	0xbdd40c40	-0.10353899
85	0x3df2f84f	0.11863767
86	0xbb179cd1	-0.0023134241
87	0xbe22114f	-0.15826915
88	0xbd305a4d	-0.043054868
89	0xbceb9a7f	-0.028760193
90	0xbd6da031	-0.0580141
91	0x3cee1f14	0.029067554
92	0x3dc1cff2	0.094634905
93	0x3df5cb83	0.120017074
94	0xbde5fd14	-0.112299114
95	0xbce9166a	-0.02845307
96	0xbd97cc9a	-0.074120715
97	0xbd670eba	-0.05641053
98	0xbd85904b	-0.06521662
99	0xbda2da93	-0.07951846
100	0x3d5d5e27	0.05404487
101	0x3def08f9	0.11671633
102	0x3d348e91	0.044081274
103	0x3caf30d1	0.021385582
104	0x3d155466	0.03645744
105	0xbdd7103a	-0.10501142
106	0x3e213655	0.15743382
107	0xbe2ef744	-0.17086512
108	0x3d2c62c7	0.04208639
109	0xbdcba3e2	-0.099433675
110	0x3e074921	0.1321149
111	0xbd07fe6f	-0.03320163
112	0x3d93902c	0.07205233
113	0x3b9d287a	0.004796085
114	0x3e3f543c	0.18684477
115	0x3cc05621	0.02347857
116	0xbe2b77c0	-0.167449
117	0xbd04ed2f	-0.03245276
118	0x3dc50a1f	0.09621071
119	0xbdd81c0e	-0.10552226
120	0x3d2dc3c6	0.042423032
121	0xbc06fae7	-0.008238531
122	0xbdf25358	-0.11832303
123	0xbe5b17e6	-0.21395835
124	0xbe239473	-0.15974598
125	0x3e2b3ee7	0.16723214
126	0xbde1853d	-0.11011741
127	0xbd3ae94d	-0.04563265
128	0x3e02d6e1	0.12777282
129	0xbb550b8c	-0.0032508103
130	0xbd5701cd	-0.05249195
131	0xbe4bcbf7	-0.19902025
132	0x3e047c4b	0.12938039
133	0x3e1e7cf6	0.15477356
134	0x3e065315	0.13117631
135	0xbe520c13	-0.20512418
136	0x3e3c64c2	0.18397811
137	0x3e1dc770	0.1540811
138	0x3deab10a	0.11459549
139	0xbe3b1396	-0.1826919
140	0x3d143a28	0.036188275
141	0x3dbdee1a	0.0927393
142	0xbce6cbfa	-0.028173435
143	0xbda94d02	-0.08266641
144	0xbd2708b9	-0.040779803
145	0xbe357824	-0.17721611
146	0x3e229dfb	0.15880577
147	0x3d720775	0.059089143
148	0xbdca8d14	-0.0989019
149	0x3d847dd5	0.06469313
150	0x3dec7cc0	0.11547232
151	0x3dce94b8	0.100869596
152	0xbd0a4bcd	-0.033763696
153	0xbda294b8	-0.07938522
154	0xbd1437ba	-0.036185957
155	0x3e4f18e1	0.20224334
156	0xbd814206	-0.06311421
157	0x3d1a3870	0.03765148
158	0x3e012cb6	0.12614712
159	0xbdca0f91	-0.0986625
160	0x3e34706e	0.17621014
161	0x3e06a7b8	0.13149917
162	0x3e34a86e	0.17642376
163	0xbdac52c2	-0.08414222
164	0x3da7e7e1	0.08198524
165	0xbe3950c5	-0.18097217
166	0xbd13533a	-0.035968043
167	0xbc64cf68	-0.013965465
168	0xbda3310d	-0.0796834
169	0x3dbe3271	0.09286965
170	0x3e089aa9	0.13340248
171	0xbd613361	-0.05498064
172	0x3dd66670	0.10468757
173	0xbd22e110	-0.039765418
174	0xbdcf746d	-0.10129628
175	0xbc05454a	-0.008134196
176	0xbde4049a	-0.1113369
177	0x3e39acb6	0.1813229
178	0xbdeb0624	-0.114757806
179	0xbe1ddb5e	-0.15415713
180	0xbd6143b9	-0.054996226
181	0x3e22aee1	0.15887024
182	0xbd2b44e8	-0.04181376
183	0x3d7c672a	0.061621822
184	0xbd7aa2e1	-0.06119049
185	0x3e2ced4c	0.16887397
186	0xba3a72ce	-0.0007112444
187	0x3d926d4a	0.071497515
188	0xbdf471a9	-0.119357415
189	0x3e33c41f	0.17555283
190	0x3db076fb	0.08616444
191	0xbe1828f0	-0.14859366
192	0x3e38ed75	0.18059333
193	0x3e4391a7	0.1909853
194	0xbe155c19	-0.14585914
195	0x3c771d08	0.015082605
196	0x3d48a53a	0.048985697
197	0xbcbd26fd	-0.02308988
198	0x3e38f38d	0.18061657
199	0x3df3fbae	0.119132385
200	0xbe2ca1e8	-0.16858637
201	0x3e4b46e3	0.1985126
202	0x3e11d1e7	0.14240228
203	0xbe0d17b7	-0.13778578
204	0x3da9a014	0.082824856
205	0x3e0bdf44	0.13659388
206	0x3e22a90e	0.15884802
207	0xbba78758	-0.00511257
208	0xbda3f047	-0.08004814
209	0x3c8dd940	0.017315507
210	0xbdec02af	-0.11523949
211	0x3cbcca1a	0.023045588
212	0xbd817d90	-0.06322777
213	0xbe31ddae	-0.1736972
214	0x3e1a5d2f	0.15074609
215	0xbe0d8daf	-0.13823579
216	0xbdece27a	-0.115666345
217	0xbd6f22da	-0.058382846
218	0x3db1736c	0.08664593
219	0xbe01f2a6	-0.1269022
220	0x3d864b55	0.06557337
221	0x3d098eac	0.033583328
222	0xbddf3ac5	-0.10899881
223	0x3e2ecfd0	0.17071462
224	0x3e032ca6	0.12810001
225	0x3c9ff5eb	0.019526443
226	0xbe42fdf9	-0.19042195
227	0xbc9191c9	-0.017769711
228	0x3d20ff59	0.03930602
229	0xbe138e54	-0.14409763
230	0xbcc06541	-0.023485782
231	0xbd261dbc	-0.0405557
232	0x3d595d6b	0.053067606
233	0xbe1cc42a	-0.15309206
234	0xbe042e04	-0.12908179
235	0x3c928284	0.0178845
236	0x3e4cc16e	0.19995663
237	0x3dcd403f	0.100220196
238	0xbe3b1fba	-0.18273821
239	0x3cd5f42b	0.026117405
240	0x3d9d5d1f	0.07683777
241	0xbc0f076b	-0.008729796
242	0x3dcae997	0.09907835
243	0x3c32c6a0	0.010911614
244	0x3d8c50e3	0.068513654
245	0x3caa1d69	0.020765977
246	0xbd7aa55e	-0.061192863
247	0xbd1c9317	-0.038226213
248	0xbcdeecf1	-0.027212592
249	0xbe3e7255	-0.18598302
250	0xbbf3e6be	-0.007443278
251	0x3cc3bbaf	0.023893205
252	0xbd45b9cf	-0.048272904
253	0xbe2cd45c	-0.16877884
254	0x3e1c2224	0.15247399
255	0xbbd4831a	-0.006485355

graph_detector.graph_conv2.att_l f4 [1, 1, 32]
0	0xbe72655d	-0.2367148
1	0x3e132aeb	0.1437184
2	0x3c0aa2b2	0.008461641
3	0xbe0e9065	-0.1392227
4	0x3e83f9fb	0.25776657
5	0xbdcef888	-0.10105997
6	0x3ea55a04	0.3229524
7	0xbe937ca5	-0.28806034
8	0xbd135446	-0.03596904
9	0x3e9956e9	0.2994912
10	0x3d94416f	0.07239043
11	0xbea78393	-0.3271757
12	0xbd369492	-0.04457528
13	0x3e4b7a19	0.19870795
14	0xbe4c256d	-0.19936152
15	0xbe92e887	-0.2869303
16	0xbdc86a78	-0.09785932
17	0xbee294b6	-0.44254082
18	0x3c957c51	0.018247755
19	0x3dd56a1b	0.10420629
20	0x3ebf2546	0.37333125
21	0x3eb00cc8	0.3438475
22	0xbe0657a4	-0.1311937
23	0xbe2b9d04	-0.16759115
24	0x3e700f5a	0.23443356
25	0xbe7c882a	-0.24661317
26	0x3e8911e5	0.26771465
27	0xbe8636d7	-0.26213714
28	0xbead26a1	-0.33818534
29	0x3d2462f9	0.04013345
30	0xbe954b59	-0.29159048
31	0x3e87e60d	0.26542702

graph_detector.graph_conv2.att_r f4 [1, 1, 32]
0	0x3e27278d	0.16323681
1	0x3e80d30b	0.25161013
2	0x3eaa9455	0.33316293
3	0xbed315bd	-0.41227522
4	0x3d8e57ba	0.06950326
5	0xbe515538	-0.20442665
6	0x3dac4188	0.084109366
7	0xbc82e91d	-0.015980298
8	0xbd6dcafa	-0.0580549
9	0xbe287ad0	-0.16453099
10	0xbcbd151b	-0.023081353
11	0xbdbbf3e1	-0.091773756
12	0x3dc9192d	0.09819255
13	0x3e9b5f94	0.30346358
14	0x3e2a2f17	0.16619526
15	0x3d9bbdce	0.07604562
16	0x3ebead11	0.37241414
17	0xbec8eb49	-0.39242008
18	0x3db19781	0.08671475
19	0xbc764cf3	-0.015032995
20	0xbec11d7c	-0.37717807
21	0xbe411096	-0.18853983
22	0x3eb1a0ca	0.34692985
23	0x3ebba95d	0.3665265
24	0xbea87dd9	-0.32908514
25	0xbe68b449	-0.22725023
26	0x3d6ff32a	0.05858151
27	0xbdaf42ca	-0.08557661
28	0x3ec8da9b	0.39229283
29	0x3e5c7287	0.21528064
30	0x3ce5b5f2	0.02804086
31	0xbe98978c	-0.2980312

graph_detector.graph_conv2.bias f4 [32]
0	0xbc9f8d3b	-0.019476524
1	0x3bd8363b	0.0065982617
2	0xbcff94e2	-0.031198923
3	0xbccd43e9	-0.025056796
4	0xbc88c098	-0.016693398
5	0x3ba184b8	0.0049291514
6	0xbb57b6fe	-0.0032915468
7	0x3c542ef6	0.0129506495
8	0x3b0ab71f	0.0021166278
9	0x3bdc0512	0.0067144716
10	0x3b789da9	0.003793577
11	0x3b37a60a	0.002802255
12	0xbcaec108	-0.021332279
13	0xbd07607e	-0.033051006
14	0x3ccae46b	0.024767121
15	0xbce9cb46	-0.028539311
16	0xbc6e676a	-0.014551023
17	0x3a8a0d59	0.0010532542
18	0xb9d7ee0a	-0.00041185349
19	0x3b292571	0.002580967
20	0x3c92215a	0.017838169
21	0x3ad6da9a	0.0016392053
22	0x3ad6d783	0.0016391132
23	0x39ff1e6a	0.0004866005
24	0x3c318a78	0.010836236
25	0x3c027fe0	0.007965058
26	0xbc2668df	-0.010156839
27	0xbcd10fab	-0.025520166
28	0x3c80c880	0.015720606
29	0xbb008c68	-0.0019614939
30	0x3c5e652b	0.013573925
31	0x3cbe94f6	0.02326439
